{"format": "graph-model", "generatedBy": "2.16.1", "convertedBy": "TensorFlow.js Converter v4.8.0", "signature": {"inputs": {"input": {"name": "input:0", "dtype": "DT_FLOAT", "tensorShape": {"dim": [{"size": "1"}, {"size": "224"}, {"size": "224"}, {"size": "3"}]}}}, "outputs": {"Identity:0": {"name": "Identity:0", "dtype": "DT_FLOAT", "tensorShape": {"dim": [{"size": "1"}, {"size": "1"}]}}, "Identity_2:0": {"name": "Identity_2:0", "dtype": "DT_FLOAT", "tensorShape": {"dim": [{"size": "1"}, {"size": "1"}]}}, "eye_status": {"name": "Identity_1:0", "dtype": "DT_FLOAT", "tensorShape": {"dim": [{"size": "1"}, {"size": "10"}]}}}}, "modelTopology": {"node": [{"name": "unknown_113", "op": "Const", "attr": {"value": {"tensor": {"dtype": "DT_FLOAT", "tensorShape": {"dim": [{"size": "1280"}, {"size": "1"}]}}}, "dtype": {"type": "DT_FLOAT"}}}, {"name": "unknown_119", "op": "Const", "attr": {"value": {"tensor": {"dtype": "DT_FLOAT", "tensorShape": {"dim": [{"size": "1"}]}}}, "dtype": {"type": "DT_FLOAT"}}}, {"name": "unknown_111", "op": "Const", "attr": {"value": {"tensor": {"dtype": "DT_FLOAT", "tensorShape": {"dim": [{"size": "1280"}, {"size": "10"}]}}}, "dtype": {"type": "DT_FLOAT"}}}, {"name": "unknown_117", "op": "Const", "attr": {"value": {"tensor": {"dtype": "DT_FLOAT", "tensorShape": {"dim": [{"size": "10"}]}}}, "dtype": {"type": "DT_FLOAT"}}}, {"name": "unknown_99", "op": "Const", "attr": {"value": {"tensor": {"dtype": "DT_FLOAT", "tensorShape": {"dim": [{"size": "160"}]}}}, "dtype": {"type": "DT_FLOAT"}}}, {"name": "unknown_93", "op": "Const", "attr": {"value": {"tensor": {"dtype": "DT_FLOAT", "tensorShape": {"dim": [{"size": "160"}]}}}, "dtype": {"type": "DT_FLOAT"}}}, {"name": "unknown_80", "op": "Const", "attr": {"value": {"tensor": {"dtype": "DT_FLOAT", "tensorShape": {"dim": [{"size": "96"}]}}}, "dtype": {"type": "DT_FLOAT"}}}, {"name": "unknown_74", "op": "Const", "attr": {"value": {"tensor": {"dtype": "DT_FLOAT", "tensorShape": {"dim": [{"size": "96"}]}}}, "dtype": {"type": "DT_FLOAT"}}}, {"name": "unknown_62", "op": "Const", "attr": {"value": {"tensor": {"dtype": "DT_FLOAT", "tensorShape": {"dim": [{"size": "64"}]}}}, "dtype": {"type": "DT_FLOAT"}}}, {"name": "unknown_56", "op": "Const", "attr": {"value": {"tensor": {"dtype": "DT_FLOAT", "tensorShape": {"dim": [{"size": "64"}]}}}, "dtype": {"type": "DT_FLOAT"}}}, {"name": "unknown_50", "op": "Const", "attr": {"value": {"tensor": {"dtype": "DT_FLOAT", "tensorShape": {"dim": [{"size": "64"}]}}}, "dtype": {"type": "DT_FLOAT"}}}, {"name": "unknown_37", "op": "Const", "attr": {"value": {"tensor": {"dtype": "DT_FLOAT", "tensorShape": {"dim": [{"size": "32"}]}}}, "dtype": {"type": "DT_FLOAT"}}}, {"name": "unknown_31", "op": "Const", "attr": {"value": {"tensor": {"dtype": "DT_FLOAT", "tensorShape": {"dim": [{"size": "32"}]}}}, "dtype": {"type": "DT_FLOAT"}}}, {"name": "unknown_18", "op": "Const", "attr": {"value": {"tensor": {"dtype": "DT_FLOAT", "tensorShape": {"dim": [{"size": "24"}]}}}, "dtype": {"type": "DT_FLOAT"}}}, {"name": "unknown", "op": "Const", "attr": {"value": {"tensor": {"dtype": "DT_INT32", "tensorShape": {"dim": [{"size": "4"}, {"size": "2"}]}}}, "dtype": {"type": "DT_INT32"}}}, {"name": "unknown_0", "op": "Const", "attr": {"value": {"tensor": {"dtype": "DT_FLOAT", "tensorShape": {"dim": [{"size": "3"}, {"size": "3"}, {"size": "3"}, {"size": "32"}]}}}, "dtype": {"type": "DT_FLOAT"}}}, {"name": "unknown_1", "op": "Const", "attr": {"value": {"tensor": {"dtype": "DT_FLOAT", "tensorShape": {"dim": [{"size": "32"}]}}}, "dtype": {"type": "DT_FLOAT"}}}, {"name": "unknown_2", "op": "Const", "attr": {"value": {"tensor": {"dtype": "DT_FLOAT", "tensorShape": {"dim": [{"size": "3"}, {"size": "3"}, {"size": "32"}, {"size": "1"}]}}}, "dtype": {"type": "DT_FLOAT"}}}, {"name": "unknown_3", "op": "Const", "attr": {"value": {"tensor": {"dtype": "DT_FLOAT", "tensorShape": {"dim": [{"size": "32"}]}}}, "dtype": {"type": "DT_FLOAT"}}}, {"name": "unknown_4", "op": "Const", "attr": {"value": {"tensor": {"dtype": "DT_FLOAT", "tensorShape": {"dim": [{"size": "1"}, {"size": "1"}, {"size": "32"}, {"size": "16"}]}}}, "dtype": {"type": "DT_FLOAT"}}}, {"name": "unknown_5", "op": "Const", "attr": {"value": {"tensor": {"dtype": "DT_FLOAT", "tensorShape": {"dim": [{"size": "16"}]}}}, "dtype": {"type": "DT_FLOAT"}}}, {"name": "unknown_6", "op": "Const", "attr": {"value": {"tensor": {"dtype": "DT_FLOAT", "tensorShape": {"dim": [{"size": "1"}, {"size": "1"}, {"size": "16"}, {"size": "96"}]}}}, "dtype": {"type": "DT_FLOAT"}}}, {"name": "unknown_7", "op": "Const", "attr": {"value": {"tensor": {"dtype": "DT_FLOAT", "tensorShape": {"dim": [{"size": "96"}]}}}, "dtype": {"type": "DT_FLOAT"}}}, {"name": "unknown_8", "op": "Const", "attr": {"value": {"tensor": {"dtype": "DT_INT32", "tensorShape": {"dim": [{"size": "4"}, {"size": "2"}]}}}, "dtype": {"type": "DT_INT32"}}}, {"name": "unknown_9", "op": "Const", "attr": {"value": {"tensor": {"dtype": "DT_FLOAT", "tensorShape": {"dim": [{"size": "3"}, {"size": "3"}, {"size": "96"}, {"size": "1"}]}}}, "dtype": {"type": "DT_FLOAT"}}}, {"name": "unknown_10", "op": "Const", "attr": {"value": {"tensor": {"dtype": "DT_FLOAT", "tensorShape": {"dim": [{"size": "96"}]}}}, "dtype": {"type": "DT_FLOAT"}}}, {"name": "unknown_11", "op": "Const", "attr": {"value": {"tensor": {"dtype": "DT_FLOAT", "tensorShape": {"dim": [{"size": "1"}, {"size": "1"}, {"size": "96"}, {"size": "24"}]}}}, "dtype": {"type": "DT_FLOAT"}}}, {"name": "unknown_12", "op": "Const", "attr": {"value": {"tensor": {"dtype": "DT_FLOAT", "tensorShape": {"dim": [{"size": "24"}]}}}, "dtype": {"type": "DT_FLOAT"}}}, {"name": "unknown_13", "op": "Const", "attr": {"value": {"tensor": {"dtype": "DT_FLOAT", "tensorShape": {"dim": [{"size": "1"}, {"size": "1"}, {"size": "24"}, {"size": "144"}]}}}, "dtype": {"type": "DT_FLOAT"}}}, {"name": "unknown_14", "op": "Const", "attr": {"value": {"tensor": {"dtype": "DT_FLOAT", "tensorShape": {"dim": [{"size": "144"}]}}}, "dtype": {"type": "DT_FLOAT"}}}, {"name": "unknown_15", "op": "Const", "attr": {"value": {"tensor": {"dtype": "DT_FLOAT", "tensorShape": {"dim": [{"size": "3"}, {"size": "3"}, {"size": "144"}, {"size": "1"}]}}}, "dtype": {"type": "DT_FLOAT"}}}, {"name": "unknown_16", "op": "Const", "attr": {"value": {"tensor": {"dtype": "DT_FLOAT", "tensorShape": {"dim": [{"size": "144"}]}}}, "dtype": {"type": "DT_FLOAT"}}}, {"name": "unknown_17", "op": "Const", "attr": {"value": {"tensor": {"dtype": "DT_FLOAT", "tensorShape": {"dim": [{"size": "1"}, {"size": "1"}, {"size": "144"}, {"size": "24"}]}}}, "dtype": {"type": "DT_FLOAT"}}}, {"name": "unknown_19", "op": "Const", "attr": {"value": {"tensor": {"dtype": "DT_FLOAT", "tensorShape": {"dim": [{"size": "1"}, {"size": "1"}, {"size": "24"}, {"size": "144"}]}}}, "dtype": {"type": "DT_FLOAT"}}}, {"name": "unknown_20", "op": "Const", "attr": {"value": {"tensor": {"dtype": "DT_FLOAT", "tensorShape": {"dim": [{"size": "144"}]}}}, "dtype": {"type": "DT_FLOAT"}}}, {"name": "unknown_21", "op": "Const", "attr": {"value": {"tensor": {"dtype": "DT_INT32", "tensorShape": {"dim": [{"size": "4"}, {"size": "2"}]}}}, "dtype": {"type": "DT_INT32"}}}, {"name": "unknown_22", "op": "Const", "attr": {"value": {"tensor": {"dtype": "DT_FLOAT", "tensorShape": {"dim": [{"size": "3"}, {"size": "3"}, {"size": "144"}, {"size": "1"}]}}}, "dtype": {"type": "DT_FLOAT"}}}, {"name": "unknown_23", "op": "Const", "attr": {"value": {"tensor": {"dtype": "DT_FLOAT", "tensorShape": {"dim": [{"size": "144"}]}}}, "dtype": {"type": "DT_FLOAT"}}}, {"name": "unknown_24", "op": "Const", "attr": {"value": {"tensor": {"dtype": "DT_FLOAT", "tensorShape": {"dim": [{"size": "1"}, {"size": "1"}, {"size": "144"}, {"size": "32"}]}}}, "dtype": {"type": "DT_FLOAT"}}}, {"name": "unknown_25", "op": "Const", "attr": {"value": {"tensor": {"dtype": "DT_FLOAT", "tensorShape": {"dim": [{"size": "32"}]}}}, "dtype": {"type": "DT_FLOAT"}}}, {"name": "unknown_26", "op": "Const", "attr": {"value": {"tensor": {"dtype": "DT_FLOAT", "tensorShape": {"dim": [{"size": "1"}, {"size": "1"}, {"size": "32"}, {"size": "192"}]}}}, "dtype": {"type": "DT_FLOAT"}}}, {"name": "unknown_27", "op": "Const", "attr": {"value": {"tensor": {"dtype": "DT_FLOAT", "tensorShape": {"dim": [{"size": "192"}]}}}, "dtype": {"type": "DT_FLOAT"}}}, {"name": "unknown_28", "op": "Const", "attr": {"value": {"tensor": {"dtype": "DT_FLOAT", "tensorShape": {"dim": [{"size": "3"}, {"size": "3"}, {"size": "192"}, {"size": "1"}]}}}, "dtype": {"type": "DT_FLOAT"}}}, {"name": "unknown_29", "op": "Const", "attr": {"value": {"tensor": {"dtype": "DT_FLOAT", "tensorShape": {"dim": [{"size": "192"}]}}}, "dtype": {"type": "DT_FLOAT"}}}, {"name": "unknown_30", "op": "Const", "attr": {"value": {"tensor": {"dtype": "DT_FLOAT", "tensorShape": {"dim": [{"size": "1"}, {"size": "1"}, {"size": "192"}, {"size": "32"}]}}}, "dtype": {"type": "DT_FLOAT"}}}, {"name": "unknown_32", "op": "Const", "attr": {"value": {"tensor": {"dtype": "DT_FLOAT", "tensorShape": {"dim": [{"size": "1"}, {"size": "1"}, {"size": "32"}, {"size": "192"}]}}}, "dtype": {"type": "DT_FLOAT"}}}, {"name": "unknown_33", "op": "Const", "attr": {"value": {"tensor": {"dtype": "DT_FLOAT", "tensorShape": {"dim": [{"size": "192"}]}}}, "dtype": {"type": "DT_FLOAT"}}}, {"name": "unknown_34", "op": "Const", "attr": {"value": {"tensor": {"dtype": "DT_FLOAT", "tensorShape": {"dim": [{"size": "3"}, {"size": "3"}, {"size": "192"}, {"size": "1"}]}}}, "dtype": {"type": "DT_FLOAT"}}}, {"name": "unknown_35", "op": "Const", "attr": {"value": {"tensor": {"dtype": "DT_FLOAT", "tensorShape": {"dim": [{"size": "192"}]}}}, "dtype": {"type": "DT_FLOAT"}}}, {"name": "unknown_36", "op": "Const", "attr": {"value": {"tensor": {"dtype": "DT_FLOAT", "tensorShape": {"dim": [{"size": "1"}, {"size": "1"}, {"size": "192"}, {"size": "32"}]}}}, "dtype": {"type": "DT_FLOAT"}}}, {"name": "unknown_38", "op": "Const", "attr": {"value": {"tensor": {"dtype": "DT_FLOAT", "tensorShape": {"dim": [{"size": "1"}, {"size": "1"}, {"size": "32"}, {"size": "192"}]}}}, "dtype": {"type": "DT_FLOAT"}}}, {"name": "unknown_39", "op": "Const", "attr": {"value": {"tensor": {"dtype": "DT_FLOAT", "tensorShape": {"dim": [{"size": "192"}]}}}, "dtype": {"type": "DT_FLOAT"}}}, {"name": "unknown_40", "op": "Const", "attr": {"value": {"tensor": {"dtype": "DT_INT32", "tensorShape": {"dim": [{"size": "4"}, {"size": "2"}]}}}, "dtype": {"type": "DT_INT32"}}}, {"name": "unknown_41", "op": "Const", "attr": {"value": {"tensor": {"dtype": "DT_FLOAT", "tensorShape": {"dim": [{"size": "3"}, {"size": "3"}, {"size": "192"}, {"size": "1"}]}}}, "dtype": {"type": "DT_FLOAT"}}}, {"name": "unknown_42", "op": "Const", "attr": {"value": {"tensor": {"dtype": "DT_FLOAT", "tensorShape": {"dim": [{"size": "192"}]}}}, "dtype": {"type": "DT_FLOAT"}}}, {"name": "unknown_43", "op": "Const", "attr": {"value": {"tensor": {"dtype": "DT_FLOAT", "tensorShape": {"dim": [{"size": "1"}, {"size": "1"}, {"size": "192"}, {"size": "64"}]}}}, "dtype": {"type": "DT_FLOAT"}}}, {"name": "unknown_44", "op": "Const", "attr": {"value": {"tensor": {"dtype": "DT_FLOAT", "tensorShape": {"dim": [{"size": "64"}]}}}, "dtype": {"type": "DT_FLOAT"}}}, {"name": "unknown_45", "op": "Const", "attr": {"value": {"tensor": {"dtype": "DT_FLOAT", "tensorShape": {"dim": [{"size": "1"}, {"size": "1"}, {"size": "64"}, {"size": "384"}]}}}, "dtype": {"type": "DT_FLOAT"}}}, {"name": "unknown_46", "op": "Const", "attr": {"value": {"tensor": {"dtype": "DT_FLOAT", "tensorShape": {"dim": [{"size": "384"}]}}}, "dtype": {"type": "DT_FLOAT"}}}, {"name": "unknown_47", "op": "Const", "attr": {"value": {"tensor": {"dtype": "DT_FLOAT", "tensorShape": {"dim": [{"size": "3"}, {"size": "3"}, {"size": "384"}, {"size": "1"}]}}}, "dtype": {"type": "DT_FLOAT"}}}, {"name": "unknown_48", "op": "Const", "attr": {"value": {"tensor": {"dtype": "DT_FLOAT", "tensorShape": {"dim": [{"size": "384"}]}}}, "dtype": {"type": "DT_FLOAT"}}}, {"name": "unknown_49", "op": "Const", "attr": {"value": {"tensor": {"dtype": "DT_FLOAT", "tensorShape": {"dim": [{"size": "1"}, {"size": "1"}, {"size": "384"}, {"size": "64"}]}}}, "dtype": {"type": "DT_FLOAT"}}}, {"name": "unknown_51", "op": "Const", "attr": {"value": {"tensor": {"dtype": "DT_FLOAT", "tensorShape": {"dim": [{"size": "1"}, {"size": "1"}, {"size": "64"}, {"size": "384"}]}}}, "dtype": {"type": "DT_FLOAT"}}}, {"name": "unknown_52", "op": "Const", "attr": {"value": {"tensor": {"dtype": "DT_FLOAT", "tensorShape": {"dim": [{"size": "384"}]}}}, "dtype": {"type": "DT_FLOAT"}}}, {"name": "unknown_53", "op": "Const", "attr": {"value": {"tensor": {"dtype": "DT_FLOAT", "tensorShape": {"dim": [{"size": "3"}, {"size": "3"}, {"size": "384"}, {"size": "1"}]}}}, "dtype": {"type": "DT_FLOAT"}}}, {"name": "unknown_54", "op": "Const", "attr": {"value": {"tensor": {"dtype": "DT_FLOAT", "tensorShape": {"dim": [{"size": "384"}]}}}, "dtype": {"type": "DT_FLOAT"}}}, {"name": "unknown_55", "op": "Const", "attr": {"value": {"tensor": {"dtype": "DT_FLOAT", "tensorShape": {"dim": [{"size": "1"}, {"size": "1"}, {"size": "384"}, {"size": "64"}]}}}, "dtype": {"type": "DT_FLOAT"}}}, {"name": "unknown_57", "op": "Const", "attr": {"value": {"tensor": {"dtype": "DT_FLOAT", "tensorShape": {"dim": [{"size": "1"}, {"size": "1"}, {"size": "64"}, {"size": "384"}]}}}, "dtype": {"type": "DT_FLOAT"}}}, {"name": "unknown_58", "op": "Const", "attr": {"value": {"tensor": {"dtype": "DT_FLOAT", "tensorShape": {"dim": [{"size": "384"}]}}}, "dtype": {"type": "DT_FLOAT"}}}, {"name": "unknown_59", "op": "Const", "attr": {"value": {"tensor": {"dtype": "DT_FLOAT", "tensorShape": {"dim": [{"size": "3"}, {"size": "3"}, {"size": "384"}, {"size": "1"}]}}}, "dtype": {"type": "DT_FLOAT"}}}, {"name": "unknown_60", "op": "Const", "attr": {"value": {"tensor": {"dtype": "DT_FLOAT", "tensorShape": {"dim": [{"size": "384"}]}}}, "dtype": {"type": "DT_FLOAT"}}}, {"name": "unknown_61", "op": "Const", "attr": {"value": {"tensor": {"dtype": "DT_FLOAT", "tensorShape": {"dim": [{"size": "1"}, {"size": "1"}, {"size": "384"}, {"size": "64"}]}}}, "dtype": {"type": "DT_FLOAT"}}}, {"name": "unknown_63", "op": "Const", "attr": {"value": {"tensor": {"dtype": "DT_FLOAT", "tensorShape": {"dim": [{"size": "1"}, {"size": "1"}, {"size": "64"}, {"size": "384"}]}}}, "dtype": {"type": "DT_FLOAT"}}}, {"name": "unknown_64", "op": "Const", "attr": {"value": {"tensor": {"dtype": "DT_FLOAT", "tensorShape": {"dim": [{"size": "384"}]}}}, "dtype": {"type": "DT_FLOAT"}}}, {"name": "unknown_65", "op": "Const", "attr": {"value": {"tensor": {"dtype": "DT_FLOAT", "tensorShape": {"dim": [{"size": "3"}, {"size": "3"}, {"size": "384"}, {"size": "1"}]}}}, "dtype": {"type": "DT_FLOAT"}}}, {"name": "unknown_66", "op": "Const", "attr": {"value": {"tensor": {"dtype": "DT_FLOAT", "tensorShape": {"dim": [{"size": "384"}]}}}, "dtype": {"type": "DT_FLOAT"}}}, {"name": "unknown_67", "op": "Const", "attr": {"value": {"tensor": {"dtype": "DT_FLOAT", "tensorShape": {"dim": [{"size": "1"}, {"size": "1"}, {"size": "384"}, {"size": "96"}]}}}, "dtype": {"type": "DT_FLOAT"}}}, {"name": "unknown_68", "op": "Const", "attr": {"value": {"tensor": {"dtype": "DT_FLOAT", "tensorShape": {"dim": [{"size": "96"}]}}}, "dtype": {"type": "DT_FLOAT"}}}, {"name": "unknown_69", "op": "Const", "attr": {"value": {"tensor": {"dtype": "DT_FLOAT", "tensorShape": {"dim": [{"size": "1"}, {"size": "1"}, {"size": "96"}, {"size": "576"}]}}}, "dtype": {"type": "DT_FLOAT"}}}, {"name": "unknown_70", "op": "Const", "attr": {"value": {"tensor": {"dtype": "DT_FLOAT", "tensorShape": {"dim": [{"size": "576"}]}}}, "dtype": {"type": "DT_FLOAT"}}}, {"name": "unknown_71", "op": "Const", "attr": {"value": {"tensor": {"dtype": "DT_FLOAT", "tensorShape": {"dim": [{"size": "3"}, {"size": "3"}, {"size": "576"}, {"size": "1"}]}}}, "dtype": {"type": "DT_FLOAT"}}}, {"name": "unknown_72", "op": "Const", "attr": {"value": {"tensor": {"dtype": "DT_FLOAT", "tensorShape": {"dim": [{"size": "576"}]}}}, "dtype": {"type": "DT_FLOAT"}}}, {"name": "unknown_73", "op": "Const", "attr": {"value": {"tensor": {"dtype": "DT_FLOAT", "tensorShape": {"dim": [{"size": "1"}, {"size": "1"}, {"size": "576"}, {"size": "96"}]}}}, "dtype": {"type": "DT_FLOAT"}}}, {"name": "unknown_75", "op": "Const", "attr": {"value": {"tensor": {"dtype": "DT_FLOAT", "tensorShape": {"dim": [{"size": "1"}, {"size": "1"}, {"size": "96"}, {"size": "576"}]}}}, "dtype": {"type": "DT_FLOAT"}}}, {"name": "unknown_76", "op": "Const", "attr": {"value": {"tensor": {"dtype": "DT_FLOAT", "tensorShape": {"dim": [{"size": "576"}]}}}, "dtype": {"type": "DT_FLOAT"}}}, {"name": "unknown_77", "op": "Const", "attr": {"value": {"tensor": {"dtype": "DT_FLOAT", "tensorShape": {"dim": [{"size": "3"}, {"size": "3"}, {"size": "576"}, {"size": "1"}]}}}, "dtype": {"type": "DT_FLOAT"}}}, {"name": "unknown_78", "op": "Const", "attr": {"value": {"tensor": {"dtype": "DT_FLOAT", "tensorShape": {"dim": [{"size": "576"}]}}}, "dtype": {"type": "DT_FLOAT"}}}, {"name": "unknown_79", "op": "Const", "attr": {"value": {"tensor": {"dtype": "DT_FLOAT", "tensorShape": {"dim": [{"size": "1"}, {"size": "1"}, {"size": "576"}, {"size": "96"}]}}}, "dtype": {"type": "DT_FLOAT"}}}, {"name": "unknown_81", "op": "Const", "attr": {"value": {"tensor": {"dtype": "DT_FLOAT", "tensorShape": {"dim": [{"size": "1"}, {"size": "1"}, {"size": "96"}, {"size": "576"}]}}}, "dtype": {"type": "DT_FLOAT"}}}, {"name": "unknown_82", "op": "Const", "attr": {"value": {"tensor": {"dtype": "DT_FLOAT", "tensorShape": {"dim": [{"size": "576"}]}}}, "dtype": {"type": "DT_FLOAT"}}}, {"name": "unknown_83", "op": "Const", "attr": {"value": {"tensor": {"dtype": "DT_INT32", "tensorShape": {"dim": [{"size": "4"}, {"size": "2"}]}}}, "dtype": {"type": "DT_INT32"}}}, {"name": "unknown_84", "op": "Const", "attr": {"value": {"tensor": {"dtype": "DT_FLOAT", "tensorShape": {"dim": [{"size": "3"}, {"size": "3"}, {"size": "576"}, {"size": "1"}]}}}, "dtype": {"type": "DT_FLOAT"}}}, {"name": "unknown_85", "op": "Const", "attr": {"value": {"tensor": {"dtype": "DT_FLOAT", "tensorShape": {"dim": [{"size": "576"}]}}}, "dtype": {"type": "DT_FLOAT"}}}, {"name": "unknown_86", "op": "Const", "attr": {"value": {"tensor": {"dtype": "DT_FLOAT", "tensorShape": {"dim": [{"size": "1"}, {"size": "1"}, {"size": "576"}, {"size": "160"}]}}}, "dtype": {"type": "DT_FLOAT"}}}, {"name": "unknown_87", "op": "Const", "attr": {"value": {"tensor": {"dtype": "DT_FLOAT", "tensorShape": {"dim": [{"size": "160"}]}}}, "dtype": {"type": "DT_FLOAT"}}}, {"name": "unknown_88", "op": "Const", "attr": {"value": {"tensor": {"dtype": "DT_FLOAT", "tensorShape": {"dim": [{"size": "1"}, {"size": "1"}, {"size": "160"}, {"size": "960"}]}}}, "dtype": {"type": "DT_FLOAT"}}}, {"name": "unknown_89", "op": "Const", "attr": {"value": {"tensor": {"dtype": "DT_FLOAT", "tensorShape": {"dim": [{"size": "960"}]}}}, "dtype": {"type": "DT_FLOAT"}}}, {"name": "unknown_90", "op": "Const", "attr": {"value": {"tensor": {"dtype": "DT_FLOAT", "tensorShape": {"dim": [{"size": "3"}, {"size": "3"}, {"size": "960"}, {"size": "1"}]}}}, "dtype": {"type": "DT_FLOAT"}}}, {"name": "unknown_91", "op": "Const", "attr": {"value": {"tensor": {"dtype": "DT_FLOAT", "tensorShape": {"dim": [{"size": "960"}]}}}, "dtype": {"type": "DT_FLOAT"}}}, {"name": "unknown_92", "op": "Const", "attr": {"value": {"tensor": {"dtype": "DT_FLOAT", "tensorShape": {"dim": [{"size": "1"}, {"size": "1"}, {"size": "960"}, {"size": "160"}]}}}, "dtype": {"type": "DT_FLOAT"}}}, {"name": "unknown_94", "op": "Const", "attr": {"value": {"tensor": {"dtype": "DT_FLOAT", "tensorShape": {"dim": [{"size": "1"}, {"size": "1"}, {"size": "160"}, {"size": "960"}]}}}, "dtype": {"type": "DT_FLOAT"}}}, {"name": "unknown_95", "op": "Const", "attr": {"value": {"tensor": {"dtype": "DT_FLOAT", "tensorShape": {"dim": [{"size": "960"}]}}}, "dtype": {"type": "DT_FLOAT"}}}, {"name": "unknown_96", "op": "Const", "attr": {"value": {"tensor": {"dtype": "DT_FLOAT", "tensorShape": {"dim": [{"size": "3"}, {"size": "3"}, {"size": "960"}, {"size": "1"}]}}}, "dtype": {"type": "DT_FLOAT"}}}, {"name": "unknown_97", "op": "Const", "attr": {"value": {"tensor": {"dtype": "DT_FLOAT", "tensorShape": {"dim": [{"size": "960"}]}}}, "dtype": {"type": "DT_FLOAT"}}}, {"name": "unknown_98", "op": "Const", "attr": {"value": {"tensor": {"dtype": "DT_FLOAT", "tensorShape": {"dim": [{"size": "1"}, {"size": "1"}, {"size": "960"}, {"size": "160"}]}}}, "dtype": {"type": "DT_FLOAT"}}}, {"name": "unknown_100", "op": "Const", "attr": {"value": {"tensor": {"dtype": "DT_FLOAT", "tensorShape": {"dim": [{"size": "1"}, {"size": "1"}, {"size": "160"}, {"size": "960"}]}}}, "dtype": {"type": "DT_FLOAT"}}}, {"name": "unknown_101", "op": "Const", "attr": {"value": {"tensor": {"dtype": "DT_FLOAT", "tensorShape": {"dim": [{"size": "960"}]}}}, "dtype": {"type": "DT_FLOAT"}}}, {"name": "unknown_102", "op": "Const", "attr": {"value": {"tensor": {"dtype": "DT_FLOAT", "tensorShape": {"dim": [{"size": "3"}, {"size": "3"}, {"size": "960"}, {"size": "1"}]}}}, "dtype": {"type": "DT_FLOAT"}}}, {"name": "unknown_103", "op": "Const", "attr": {"value": {"tensor": {"dtype": "DT_FLOAT", "tensorShape": {"dim": [{"size": "960"}]}}}, "dtype": {"type": "DT_FLOAT"}}}, {"name": "unknown_104", "op": "Const", "attr": {"value": {"tensor": {"dtype": "DT_FLOAT", "tensorShape": {"dim": [{"size": "1"}, {"size": "1"}, {"size": "960"}, {"size": "320"}]}}}, "dtype": {"type": "DT_FLOAT"}}}, {"name": "unknown_105", "op": "Const", "attr": {"value": {"tensor": {"dtype": "DT_FLOAT", "tensorShape": {"dim": [{"size": "320"}]}}}, "dtype": {"type": "DT_FLOAT"}}}, {"name": "unknown_106", "op": "Const", "attr": {"value": {"tensor": {"dtype": "DT_FLOAT", "tensorShape": {"dim": [{"size": "1"}, {"size": "1"}, {"size": "320"}, {"size": "1280"}]}}}, "dtype": {"type": "DT_FLOAT"}}}, {"name": "unknown_107", "op": "Const", "attr": {"value": {"tensor": {"dtype": "DT_FLOAT", "tensorShape": {"dim": [{"size": "1280"}]}}}, "dtype": {"type": "DT_FLOAT"}}}, {"name": "PartitionedCall/model/tf.math.reduce_mean/Mean/reduction_indices", "op": "Const", "attr": {"value": {"tensor": {"dtype": "DT_INT32", "tensorShape": {"dim": [{"size": "2"}]}}}, "dtype": {"type": "DT_INT32"}}}, {"name": "unknown_108", "op": "Const", "attr": {"value": {"tensor": {"dtype": "DT_FLOAT", "tensorShape": {"dim": [{"size": "1280"}, {"size": "128"}]}}}, "dtype": {"type": "DT_FLOAT"}}}, {"name": "unknown_110", "op": "Const", "attr": {"value": {"tensor": {"dtype": "DT_FLOAT", "tensorShape": {"dim": [{"size": "128"}]}}}, "dtype": {"type": "DT_FLOAT"}}}, {"name": "unknown_112", "op": "Const", "attr": {"value": {"tensor": {"dtype": "DT_FLOAT", "tensorShape": {"dim": [{"size": "128"}, {"size": "1"}]}}}, "dtype": {"type": "DT_FLOAT"}}}, {"name": "unknown_118", "op": "Const", "attr": {"value": {"tensor": {"dtype": "DT_FLOAT", "tensorShape": {"dim": [{"size": "1"}]}}}, "dtype": {"type": "DT_FLOAT"}}}, {"name": "input", "op": "Placeholder", "attr": {"shape": {"shape": {"dim": [{"size": "1"}, {"size": "224"}, {"size": "224"}, {"size": "3"}]}}, "dtype": {"type": "DT_FLOAT"}}}, {"name": "PartitionedCall/model/tf.compat.v1.pad/Pad", "op": "Pad", "input": ["input", "unknown"], "attr": {"Tpaddings": {"type": "DT_INT32"}, "T": {"type": "DT_FLOAT"}}}, {"name": "PartitionedCall/model/tf.nn.convolution/convolution", "op": "Conv2D", "input": ["PartitionedCall/model/tf.compat.v1.pad/Pad", "unknown_0"], "device": "/device:CPU:0", "attr": {"padding": {"s": "VkFMSUQ="}, "data_format": {"s": "TkhXQw=="}, "use_cudnn_on_gpu": {"b": true}, "strides": {"list": {"i": ["1", "2", "2", "1"]}}, "T": {"type": "DT_FLOAT"}, "explicit_paddings": {"list": {}}, "dilations": {"list": {"i": ["1", "1", "1", "1"]}}}}, {"name": "PartitionedCall/model/tf.math.add/Add", "op": "AddV2", "input": ["PartitionedCall/model/tf.nn.convolution/convolution", "unknown_1"], "attr": {"T": {"type": "DT_FLOAT"}}}, {"name": "PartitionedCall/model/tf.nn.relu6/Relu6", "op": "Relu6", "input": ["PartitionedCall/model/tf.math.add/Add"], "attr": {"T": {"type": "DT_FLOAT"}}}, {"name": "PartitionedCall/model/tf.compat.v1.nn.depthwise_conv2d/depthwise", "op": "DepthwiseConv2dNative", "input": ["PartitionedCall/model/tf.nn.relu6/Relu6", "unknown_2"], "attr": {"padding": {"s": "U0FNRQ=="}, "data_format": {"s": "TkhXQw=="}, "T": {"type": "DT_FLOAT"}, "explicit_paddings": {"list": {}}, "dilations": {"list": {"i": ["1", "1", "1", "1"]}}, "strides": {"list": {"i": ["1", "1", "1", "1"]}}}}, {"name": "PartitionedCall/model/tf.math.add_1/Add", "op": "AddV2", "input": ["PartitionedCall/model/tf.compat.v1.nn.depthwise_conv2d/depthwise", "unknown_3"], "attr": {"T": {"type": "DT_FLOAT"}}}, {"name": "PartitionedCall/model/tf.nn.relu6_1/Relu6", "op": "Relu6", "input": ["PartitionedCall/model/tf.math.add_1/Add"], "attr": {"T": {"type": "DT_FLOAT"}}}, {"name": "PartitionedCall/model/tf.nn.convolution_1/convolution", "op": "Conv2D", "input": ["PartitionedCall/model/tf.nn.relu6_1/Relu6", "unknown_4"], "device": "/device:CPU:0", "attr": {"padding": {"s": "U0FNRQ=="}, "data_format": {"s": "TkhXQw=="}, "strides": {"list": {"i": ["1", "1", "1", "1"]}}, "use_cudnn_on_gpu": {"b": true}, "T": {"type": "DT_FLOAT"}, "explicit_paddings": {"list": {}}, "dilations": {"list": {"i": ["1", "1", "1", "1"]}}}}, {"name": "PartitionedCall/model/tf.math.add_2/Add", "op": "AddV2", "input": ["PartitionedCall/model/tf.nn.convolution_1/convolution", "unknown_5"], "attr": {"T": {"type": "DT_FLOAT"}}}, {"name": "PartitionedCall/model/tf.nn.convolution_2/convolution", "op": "Conv2D", "input": ["PartitionedCall/model/tf.math.add_2/Add", "unknown_6"], "device": "/device:CPU:0", "attr": {"padding": {"s": "U0FNRQ=="}, "data_format": {"s": "TkhXQw=="}, "strides": {"list": {"i": ["1", "1", "1", "1"]}}, "use_cudnn_on_gpu": {"b": true}, "T": {"type": "DT_FLOAT"}, "explicit_paddings": {"list": {}}, "dilations": {"list": {"i": ["1", "1", "1", "1"]}}}}, {"name": "PartitionedCall/model/tf.math.add_3/Add", "op": "AddV2", "input": ["PartitionedCall/model/tf.nn.convolution_2/convolution", "unknown_7"], "attr": {"T": {"type": "DT_FLOAT"}}}, {"name": "PartitionedCall/model/tf.nn.relu6_2/Relu6", "op": "Relu6", "input": ["PartitionedCall/model/tf.math.add_3/Add"], "attr": {"T": {"type": "DT_FLOAT"}}}, {"name": "PartitionedCall/model/tf.compat.v1.pad_1/Pad", "op": "Pad", "input": ["PartitionedCall/model/tf.nn.relu6_2/Relu6", "unknown_8"], "attr": {"Tpaddings": {"type": "DT_INT32"}, "T": {"type": "DT_FLOAT"}}}, {"name": "PartitionedCall/model/tf.compat.v1.nn.depthwise_conv2d_1/depthwise", "op": "DepthwiseConv2dNative", "input": ["PartitionedCall/model/tf.compat.v1.pad_1/Pad", "unknown_9"], "attr": {"padding": {"s": "VkFMSUQ="}, "data_format": {"s": "TkhXQw=="}, "T": {"type": "DT_FLOAT"}, "explicit_paddings": {"list": {}}, "dilations": {"list": {"i": ["1", "1", "1", "1"]}}, "strides": {"list": {"i": ["1", "2", "2", "1"]}}}}, {"name": "PartitionedCall/model/tf.math.add_4/Add", "op": "AddV2", "input": ["PartitionedCall/model/tf.compat.v1.nn.depthwise_conv2d_1/depthwise", "unknown_10"], "attr": {"T": {"type": "DT_FLOAT"}}}, {"name": "PartitionedCall/model/tf.nn.relu6_3/Relu6", "op": "Relu6", "input": ["PartitionedCall/model/tf.math.add_4/Add"], "attr": {"T": {"type": "DT_FLOAT"}}}, {"name": "PartitionedCall/model/tf.nn.convolution_3/convolution", "op": "Conv2D", "input": ["PartitionedCall/model/tf.nn.relu6_3/Relu6", "unknown_11"], "device": "/device:CPU:0", "attr": {"padding": {"s": "U0FNRQ=="}, "data_format": {"s": "TkhXQw=="}, "use_cudnn_on_gpu": {"b": true}, "strides": {"list": {"i": ["1", "1", "1", "1"]}}, "T": {"type": "DT_FLOAT"}, "explicit_paddings": {"list": {}}, "dilations": {"list": {"i": ["1", "1", "1", "1"]}}}}, {"name": "PartitionedCall/model/tf.math.add_5/Add", "op": "AddV2", "input": ["PartitionedCall/model/tf.nn.convolution_3/convolution", "unknown_12"], "attr": {"T": {"type": "DT_FLOAT"}}}, {"name": "PartitionedCall/model/tf.nn.convolution_4/convolution", "op": "Conv2D", "input": ["PartitionedCall/model/tf.math.add_5/Add", "unknown_13"], "device": "/device:CPU:0", "attr": {"padding": {"s": "U0FNRQ=="}, "data_format": {"s": "TkhXQw=="}, "strides": {"list": {"i": ["1", "1", "1", "1"]}}, "use_cudnn_on_gpu": {"b": true}, "T": {"type": "DT_FLOAT"}, "explicit_paddings": {"list": {}}, "dilations": {"list": {"i": ["1", "1", "1", "1"]}}}}, {"name": "PartitionedCall/model/tf.math.add_6/Add", "op": "AddV2", "input": ["PartitionedCall/model/tf.nn.convolution_4/convolution", "unknown_14"], "attr": {"T": {"type": "DT_FLOAT"}}}, {"name": "PartitionedCall/model/tf.nn.relu6_4/Relu6", "op": "Relu6", "input": ["PartitionedCall/model/tf.math.add_6/Add"], "attr": {"T": {"type": "DT_FLOAT"}}}, {"name": "PartitionedCall/model/tf.compat.v1.nn.depthwise_conv2d_2/depthwise", "op": "DepthwiseConv2dNative", "input": ["PartitionedCall/model/tf.nn.relu6_4/Relu6", "unknown_15"], "attr": {"padding": {"s": "U0FNRQ=="}, "data_format": {"s": "TkhXQw=="}, "T": {"type": "DT_FLOAT"}, "explicit_paddings": {"list": {}}, "dilations": {"list": {"i": ["1", "1", "1", "1"]}}, "strides": {"list": {"i": ["1", "1", "1", "1"]}}}}, {"name": "PartitionedCall/model/tf.math.add_7/Add", "op": "AddV2", "input": ["PartitionedCall/model/tf.compat.v1.nn.depthwise_conv2d_2/depthwise", "unknown_16"], "attr": {"T": {"type": "DT_FLOAT"}}}, {"name": "PartitionedCall/model/tf.nn.relu6_5/Relu6", "op": "Relu6", "input": ["PartitionedCall/model/tf.math.add_7/Add"], "attr": {"T": {"type": "DT_FLOAT"}}}, {"name": "PartitionedCall/model/tf.nn.convolution_5/convolution", "op": "Conv2D", "input": ["PartitionedCall/model/tf.nn.relu6_5/Relu6", "unknown_17"], "device": "/device:CPU:0", "attr": {"padding": {"s": "U0FNRQ=="}, "data_format": {"s": "TkhXQw=="}, "use_cudnn_on_gpu": {"b": true}, "strides": {"list": {"i": ["1", "1", "1", "1"]}}, "T": {"type": "DT_FLOAT"}, "explicit_paddings": {"list": {}}, "dilations": {"list": {"i": ["1", "1", "1", "1"]}}}}, {"name": "PartitionedCall/model/tf.math.add_10/ArithmeticOptimizer/AddOpsRewrite_Leaf_1_Add", "op": "AddN", "input": ["PartitionedCall/model/tf.math.add_5/Add", "PartitionedCall/model/tf.nn.convolution_5/convolution"], "attr": {"N": {"i": "2"}, "T": {"type": "DT_FLOAT"}, "_grappler_ArithmeticOptimizer_AddOpsRewriteStage": {"b": true}}}, {"name": "PartitionedCall/model/tf.math.add_10/ArithmeticOptimizer/AddOpsRewrite_Add", "op": "AddV2", "input": ["unknown_18", "PartitionedCall/model/tf.math.add_10/ArithmeticOptimizer/AddOpsRewrite_Leaf_1_Add"], "attr": {"T": {"type": "DT_FLOAT"}, "_grappler_ArithmeticOptimizer_AddOpsRewriteStage": {"b": true}}}, {"name": "PartitionedCall/model/tf.nn.convolution_6/convolution", "op": "Conv2D", "input": ["PartitionedCall/model/tf.math.add_10/ArithmeticOptimizer/AddOpsRewrite_Add", "unknown_19"], "device": "/device:CPU:0", "attr": {"padding": {"s": "U0FNRQ=="}, "data_format": {"s": "TkhXQw=="}, "use_cudnn_on_gpu": {"b": true}, "strides": {"list": {"i": ["1", "1", "1", "1"]}}, "T": {"type": "DT_FLOAT"}, "explicit_paddings": {"list": {}}, "dilations": {"list": {"i": ["1", "1", "1", "1"]}}}}, {"name": "PartitionedCall/model/tf.math.add_11/Add", "op": "AddV2", "input": ["PartitionedCall/model/tf.nn.convolution_6/convolution", "unknown_20"], "attr": {"T": {"type": "DT_FLOAT"}}}, {"name": "PartitionedCall/model/tf.nn.relu6_6/Relu6", "op": "Relu6", "input": ["PartitionedCall/model/tf.math.add_11/Add"], "attr": {"T": {"type": "DT_FLOAT"}}}, {"name": "PartitionedCall/model/tf.compat.v1.pad_2/Pad", "op": "Pad", "input": ["PartitionedCall/model/tf.nn.relu6_6/Relu6", "unknown_21"], "attr": {"Tpaddings": {"type": "DT_INT32"}, "T": {"type": "DT_FLOAT"}}}, {"name": "PartitionedCall/model/tf.compat.v1.nn.depthwise_conv2d_3/depthwise", "op": "DepthwiseConv2dNative", "input": ["PartitionedCall/model/tf.compat.v1.pad_2/Pad", "unknown_22"], "attr": {"padding": {"s": "VkFMSUQ="}, "data_format": {"s": "TkhXQw=="}, "T": {"type": "DT_FLOAT"}, "explicit_paddings": {"list": {}}, "dilations": {"list": {"i": ["1", "1", "1", "1"]}}, "strides": {"list": {"i": ["1", "2", "2", "1"]}}}}, {"name": "PartitionedCall/model/tf.math.add_12/Add", "op": "AddV2", "input": ["PartitionedCall/model/tf.compat.v1.nn.depthwise_conv2d_3/depthwise", "unknown_23"], "attr": {"T": {"type": "DT_FLOAT"}}}, {"name": "PartitionedCall/model/tf.nn.relu6_7/Relu6", "op": "Relu6", "input": ["PartitionedCall/model/tf.math.add_12/Add"], "attr": {"T": {"type": "DT_FLOAT"}}}, {"name": "PartitionedCall/model/tf.nn.convolution_7/convolution", "op": "Conv2D", "input": ["PartitionedCall/model/tf.nn.relu6_7/Relu6", "unknown_24"], "device": "/device:CPU:0", "attr": {"padding": {"s": "U0FNRQ=="}, "data_format": {"s": "TkhXQw=="}, "strides": {"list": {"i": ["1", "1", "1", "1"]}}, "use_cudnn_on_gpu": {"b": true}, "T": {"type": "DT_FLOAT"}, "explicit_paddings": {"list": {}}, "dilations": {"list": {"i": ["1", "1", "1", "1"]}}}}, {"name": "PartitionedCall/model/tf.math.add_13/Add", "op": "AddV2", "input": ["PartitionedCall/model/tf.nn.convolution_7/convolution", "unknown_25"], "attr": {"T": {"type": "DT_FLOAT"}}}, {"name": "PartitionedCall/model/tf.nn.convolution_8/convolution", "op": "Conv2D", "input": ["PartitionedCall/model/tf.math.add_13/Add", "unknown_26"], "device": "/device:CPU:0", "attr": {"padding": {"s": "U0FNRQ=="}, "data_format": {"s": "TkhXQw=="}, "use_cudnn_on_gpu": {"b": true}, "strides": {"list": {"i": ["1", "1", "1", "1"]}}, "T": {"type": "DT_FLOAT"}, "explicit_paddings": {"list": {}}, "dilations": {"list": {"i": ["1", "1", "1", "1"]}}}}, {"name": "PartitionedCall/model/tf.math.add_14/Add", "op": "AddV2", "input": ["PartitionedCall/model/tf.nn.convolution_8/convolution", "unknown_27"], "attr": {"T": {"type": "DT_FLOAT"}}}, {"name": "PartitionedCall/model/tf.nn.relu6_8/Relu6", "op": "Relu6", "input": ["PartitionedCall/model/tf.math.add_14/Add"], "attr": {"T": {"type": "DT_FLOAT"}}}, {"name": "PartitionedCall/model/tf.compat.v1.nn.depthwise_conv2d_4/depthwise", "op": "DepthwiseConv2dNative", "input": ["PartitionedCall/model/tf.nn.relu6_8/Relu6", "unknown_28"], "attr": {"padding": {"s": "U0FNRQ=="}, "data_format": {"s": "TkhXQw=="}, "T": {"type": "DT_FLOAT"}, "explicit_paddings": {"list": {}}, "dilations": {"list": {"i": ["1", "1", "1", "1"]}}, "strides": {"list": {"i": ["1", "1", "1", "1"]}}}}, {"name": "PartitionedCall/model/tf.math.add_15/Add", "op": "AddV2", "input": ["PartitionedCall/model/tf.compat.v1.nn.depthwise_conv2d_4/depthwise", "unknown_29"], "attr": {"T": {"type": "DT_FLOAT"}}}, {"name": "PartitionedCall/model/tf.nn.relu6_9/Relu6", "op": "Relu6", "input": ["PartitionedCall/model/tf.math.add_15/Add"], "attr": {"T": {"type": "DT_FLOAT"}}}, {"name": "PartitionedCall/model/tf.nn.convolution_9/convolution", "op": "Conv2D", "input": ["PartitionedCall/model/tf.nn.relu6_9/Relu6", "unknown_30"], "device": "/device:CPU:0", "attr": {"padding": {"s": "U0FNRQ=="}, "data_format": {"s": "TkhXQw=="}, "strides": {"list": {"i": ["1", "1", "1", "1"]}}, "use_cudnn_on_gpu": {"b": true}, "T": {"type": "DT_FLOAT"}, "explicit_paddings": {"list": {}}, "dilations": {"list": {"i": ["1", "1", "1", "1"]}}}}, {"name": "PartitionedCall/model/tf.math.add_18/ArithmeticOptimizer/AddOpsRewrite_Leaf_1_Add", "op": "AddN", "input": ["PartitionedCall/model/tf.math.add_13/Add", "PartitionedCall/model/tf.nn.convolution_9/convolution"], "attr": {"N": {"i": "2"}, "T": {"type": "DT_FLOAT"}, "_grappler_ArithmeticOptimizer_AddOpsRewriteStage": {"b": true}}}, {"name": "PartitionedCall/model/tf.math.add_18/ArithmeticOptimizer/AddOpsRewrite_Add", "op": "AddV2", "input": ["unknown_31", "PartitionedCall/model/tf.math.add_18/ArithmeticOptimizer/AddOpsRewrite_Leaf_1_Add"], "attr": {"T": {"type": "DT_FLOAT"}, "_grappler_ArithmeticOptimizer_AddOpsRewriteStage": {"b": true}}}, {"name": "PartitionedCall/model/tf.nn.convolution_10/convolution", "op": "Conv2D", "input": ["PartitionedCall/model/tf.math.add_18/ArithmeticOptimizer/AddOpsRewrite_Add", "unknown_32"], "device": "/device:CPU:0", "attr": {"padding": {"s": "U0FNRQ=="}, "data_format": {"s": "TkhXQw=="}, "strides": {"list": {"i": ["1", "1", "1", "1"]}}, "use_cudnn_on_gpu": {"b": true}, "T": {"type": "DT_FLOAT"}, "explicit_paddings": {"list": {}}, "dilations": {"list": {"i": ["1", "1", "1", "1"]}}}}, {"name": "PartitionedCall/model/tf.math.add_19/Add", "op": "AddV2", "input": ["PartitionedCall/model/tf.nn.convolution_10/convolution", "unknown_33"], "attr": {"T": {"type": "DT_FLOAT"}}}, {"name": "PartitionedCall/model/tf.nn.relu6_10/Relu6", "op": "Relu6", "input": ["PartitionedCall/model/tf.math.add_19/Add"], "attr": {"T": {"type": "DT_FLOAT"}}}, {"name": "PartitionedCall/model/tf.compat.v1.nn.depthwise_conv2d_5/depthwise", "op": "DepthwiseConv2dNative", "input": ["PartitionedCall/model/tf.nn.relu6_10/Relu6", "unknown_34"], "attr": {"padding": {"s": "U0FNRQ=="}, "data_format": {"s": "TkhXQw=="}, "T": {"type": "DT_FLOAT"}, "explicit_paddings": {"list": {}}, "dilations": {"list": {"i": ["1", "1", "1", "1"]}}, "strides": {"list": {"i": ["1", "1", "1", "1"]}}}}, {"name": "PartitionedCall/model/tf.math.add_20/Add", "op": "AddV2", "input": ["PartitionedCall/model/tf.compat.v1.nn.depthwise_conv2d_5/depthwise", "unknown_35"], "attr": {"T": {"type": "DT_FLOAT"}}}, {"name": "PartitionedCall/model/tf.nn.relu6_11/Relu6", "op": "Relu6", "input": ["PartitionedCall/model/tf.math.add_20/Add"], "attr": {"T": {"type": "DT_FLOAT"}}}, {"name": "PartitionedCall/model/tf.nn.convolution_11/convolution", "op": "Conv2D", "input": ["PartitionedCall/model/tf.nn.relu6_11/Relu6", "unknown_36"], "device": "/device:CPU:0", "attr": {"padding": {"s": "U0FNRQ=="}, "data_format": {"s": "TkhXQw=="}, "strides": {"list": {"i": ["1", "1", "1", "1"]}}, "use_cudnn_on_gpu": {"b": true}, "T": {"type": "DT_FLOAT"}, "explicit_paddings": {"list": {}}, "dilations": {"list": {"i": ["1", "1", "1", "1"]}}}}, {"name": "PartitionedCall/model/tf.math.add_23/ArithmeticOptimizer/AddOpsRewrite_Leaf_1_Add", "op": "AddN", "input": ["PartitionedCall/model/tf.math.add_18/ArithmeticOptimizer/AddOpsRewrite_Add", "PartitionedCall/model/tf.nn.convolution_11/convolution"], "attr": {"N": {"i": "2"}, "T": {"type": "DT_FLOAT"}, "_grappler_ArithmeticOptimizer_AddOpsRewriteStage": {"b": true}}}, {"name": "PartitionedCall/model/tf.math.add_23/ArithmeticOptimizer/AddOpsRewrite_Add", "op": "AddV2", "input": ["unknown_37", "PartitionedCall/model/tf.math.add_23/ArithmeticOptimizer/AddOpsRewrite_Leaf_1_Add"], "attr": {"T": {"type": "DT_FLOAT"}, "_grappler_ArithmeticOptimizer_AddOpsRewriteStage": {"b": true}}}, {"name": "PartitionedCall/model/tf.nn.convolution_12/convolution", "op": "Conv2D", "input": ["PartitionedCall/model/tf.math.add_23/ArithmeticOptimizer/AddOpsRewrite_Add", "unknown_38"], "device": "/device:CPU:0", "attr": {"padding": {"s": "U0FNRQ=="}, "data_format": {"s": "TkhXQw=="}, "use_cudnn_on_gpu": {"b": true}, "strides": {"list": {"i": ["1", "1", "1", "1"]}}, "T": {"type": "DT_FLOAT"}, "explicit_paddings": {"list": {}}, "dilations": {"list": {"i": ["1", "1", "1", "1"]}}}}, {"name": "PartitionedCall/model/tf.math.add_24/Add", "op": "AddV2", "input": ["PartitionedCall/model/tf.nn.convolution_12/convolution", "unknown_39"], "attr": {"T": {"type": "DT_FLOAT"}}}, {"name": "PartitionedCall/model/tf.nn.relu6_12/Relu6", "op": "Relu6", "input": ["PartitionedCall/model/tf.math.add_24/Add"], "attr": {"T": {"type": "DT_FLOAT"}}}, {"name": "PartitionedCall/model/tf.compat.v1.pad_3/Pad", "op": "Pad", "input": ["PartitionedCall/model/tf.nn.relu6_12/Relu6", "unknown_40"], "attr": {"Tpaddings": {"type": "DT_INT32"}, "T": {"type": "DT_FLOAT"}}}, {"name": "PartitionedCall/model/tf.compat.v1.nn.depthwise_conv2d_6/depthwise", "op": "DepthwiseConv2dNative", "input": ["PartitionedCall/model/tf.compat.v1.pad_3/Pad", "unknown_41"], "attr": {"padding": {"s": "VkFMSUQ="}, "data_format": {"s": "TkhXQw=="}, "T": {"type": "DT_FLOAT"}, "explicit_paddings": {"list": {}}, "dilations": {"list": {"i": ["1", "1", "1", "1"]}}, "strides": {"list": {"i": ["1", "2", "2", "1"]}}}}, {"name": "PartitionedCall/model/tf.math.add_25/Add", "op": "AddV2", "input": ["PartitionedCall/model/tf.compat.v1.nn.depthwise_conv2d_6/depthwise", "unknown_42"], "attr": {"T": {"type": "DT_FLOAT"}}}, {"name": "PartitionedCall/model/tf.nn.relu6_13/Relu6", "op": "Relu6", "input": ["PartitionedCall/model/tf.math.add_25/Add"], "attr": {"T": {"type": "DT_FLOAT"}}}, {"name": "PartitionedCall/model/tf.nn.convolution_13/convolution", "op": "Conv2D", "input": ["PartitionedCall/model/tf.nn.relu6_13/Relu6", "unknown_43"], "device": "/device:CPU:0", "attr": {"padding": {"s": "U0FNRQ=="}, "data_format": {"s": "TkhXQw=="}, "strides": {"list": {"i": ["1", "1", "1", "1"]}}, "use_cudnn_on_gpu": {"b": true}, "T": {"type": "DT_FLOAT"}, "explicit_paddings": {"list": {}}, "dilations": {"list": {"i": ["1", "1", "1", "1"]}}}}, {"name": "PartitionedCall/model/tf.math.add_26/Add", "op": "AddV2", "input": ["PartitionedCall/model/tf.nn.convolution_13/convolution", "unknown_44"], "attr": {"T": {"type": "DT_FLOAT"}}}, {"name": "PartitionedCall/model/tf.nn.convolution_14/convolution", "op": "Conv2D", "input": ["PartitionedCall/model/tf.math.add_26/Add", "unknown_45"], "device": "/device:CPU:0", "attr": {"padding": {"s": "U0FNRQ=="}, "data_format": {"s": "TkhXQw=="}, "use_cudnn_on_gpu": {"b": true}, "strides": {"list": {"i": ["1", "1", "1", "1"]}}, "T": {"type": "DT_FLOAT"}, "explicit_paddings": {"list": {}}, "dilations": {"list": {"i": ["1", "1", "1", "1"]}}}}, {"name": "PartitionedCall/model/tf.math.add_27/Add", "op": "AddV2", "input": ["PartitionedCall/model/tf.nn.convolution_14/convolution", "unknown_46"], "attr": {"T": {"type": "DT_FLOAT"}}}, {"name": "PartitionedCall/model/tf.nn.relu6_14/Relu6", "op": "Relu6", "input": ["PartitionedCall/model/tf.math.add_27/Add"], "attr": {"T": {"type": "DT_FLOAT"}}}, {"name": "PartitionedCall/model/tf.compat.v1.nn.depthwise_conv2d_7/depthwise", "op": "DepthwiseConv2dNative", "input": ["PartitionedCall/model/tf.nn.relu6_14/Relu6", "unknown_47"], "attr": {"padding": {"s": "U0FNRQ=="}, "data_format": {"s": "TkhXQw=="}, "T": {"type": "DT_FLOAT"}, "explicit_paddings": {"list": {}}, "dilations": {"list": {"i": ["1", "1", "1", "1"]}}, "strides": {"list": {"i": ["1", "1", "1", "1"]}}}}, {"name": "PartitionedCall/model/tf.math.add_28/Add", "op": "AddV2", "input": ["PartitionedCall/model/tf.compat.v1.nn.depthwise_conv2d_7/depthwise", "unknown_48"], "attr": {"T": {"type": "DT_FLOAT"}}}, {"name": "PartitionedCall/model/tf.nn.relu6_15/Relu6", "op": "Relu6", "input": ["PartitionedCall/model/tf.math.add_28/Add"], "attr": {"T": {"type": "DT_FLOAT"}}}, {"name": "PartitionedCall/model/tf.nn.convolution_15/convolution", "op": "Conv2D", "input": ["PartitionedCall/model/tf.nn.relu6_15/Relu6", "unknown_49"], "device": "/device:CPU:0", "attr": {"padding": {"s": "U0FNRQ=="}, "data_format": {"s": "TkhXQw=="}, "strides": {"list": {"i": ["1", "1", "1", "1"]}}, "use_cudnn_on_gpu": {"b": true}, "T": {"type": "DT_FLOAT"}, "explicit_paddings": {"list": {}}, "dilations": {"list": {"i": ["1", "1", "1", "1"]}}}}, {"name": "PartitionedCall/model/tf.math.add_31/ArithmeticOptimizer/AddOpsRewrite_Leaf_1_Add", "op": "AddN", "input": ["PartitionedCall/model/tf.math.add_26/Add", "PartitionedCall/model/tf.nn.convolution_15/convolution"], "attr": {"N": {"i": "2"}, "T": {"type": "DT_FLOAT"}, "_grappler_ArithmeticOptimizer_AddOpsRewriteStage": {"b": true}}}, {"name": "PartitionedCall/model/tf.math.add_31/ArithmeticOptimizer/AddOpsRewrite_Add", "op": "AddV2", "input": ["unknown_50", "PartitionedCall/model/tf.math.add_31/ArithmeticOptimizer/AddOpsRewrite_Leaf_1_Add"], "attr": {"T": {"type": "DT_FLOAT"}, "_grappler_ArithmeticOptimizer_AddOpsRewriteStage": {"b": true}}}, {"name": "PartitionedCall/model/tf.nn.convolution_16/convolution", "op": "Conv2D", "input": ["PartitionedCall/model/tf.math.add_31/ArithmeticOptimizer/AddOpsRewrite_Add", "unknown_51"], "device": "/device:CPU:0", "attr": {"padding": {"s": "U0FNRQ=="}, "data_format": {"s": "TkhXQw=="}, "strides": {"list": {"i": ["1", "1", "1", "1"]}}, "use_cudnn_on_gpu": {"b": true}, "T": {"type": "DT_FLOAT"}, "explicit_paddings": {"list": {}}, "dilations": {"list": {"i": ["1", "1", "1", "1"]}}}}, {"name": "PartitionedCall/model/tf.math.add_32/Add", "op": "AddV2", "input": ["PartitionedCall/model/tf.nn.convolution_16/convolution", "unknown_52"], "attr": {"T": {"type": "DT_FLOAT"}}}, {"name": "PartitionedCall/model/tf.nn.relu6_16/Relu6", "op": "Relu6", "input": ["PartitionedCall/model/tf.math.add_32/Add"], "attr": {"T": {"type": "DT_FLOAT"}}}, {"name": "PartitionedCall/model/tf.compat.v1.nn.depthwise_conv2d_8/depthwise", "op": "DepthwiseConv2dNative", "input": ["PartitionedCall/model/tf.nn.relu6_16/Relu6", "unknown_53"], "attr": {"padding": {"s": "U0FNRQ=="}, "data_format": {"s": "TkhXQw=="}, "T": {"type": "DT_FLOAT"}, "explicit_paddings": {"list": {}}, "dilations": {"list": {"i": ["1", "1", "1", "1"]}}, "strides": {"list": {"i": ["1", "1", "1", "1"]}}}}, {"name": "PartitionedCall/model/tf.math.add_33/Add", "op": "AddV2", "input": ["PartitionedCall/model/tf.compat.v1.nn.depthwise_conv2d_8/depthwise", "unknown_54"], "attr": {"T": {"type": "DT_FLOAT"}}}, {"name": "PartitionedCall/model/tf.nn.relu6_17/Relu6", "op": "Relu6", "input": ["PartitionedCall/model/tf.math.add_33/Add"], "attr": {"T": {"type": "DT_FLOAT"}}}, {"name": "PartitionedCall/model/tf.nn.convolution_17/convolution", "op": "Conv2D", "input": ["PartitionedCall/model/tf.nn.relu6_17/Relu6", "unknown_55"], "device": "/device:CPU:0", "attr": {"padding": {"s": "U0FNRQ=="}, "data_format": {"s": "TkhXQw=="}, "use_cudnn_on_gpu": {"b": true}, "strides": {"list": {"i": ["1", "1", "1", "1"]}}, "T": {"type": "DT_FLOAT"}, "explicit_paddings": {"list": {}}, "dilations": {"list": {"i": ["1", "1", "1", "1"]}}}}, {"name": "PartitionedCall/model/tf.math.add_36/ArithmeticOptimizer/AddOpsRewrite_Leaf_1_Add", "op": "AddN", "input": ["PartitionedCall/model/tf.math.add_31/ArithmeticOptimizer/AddOpsRewrite_Add", "PartitionedCall/model/tf.nn.convolution_17/convolution"], "attr": {"N": {"i": "2"}, "T": {"type": "DT_FLOAT"}, "_grappler_ArithmeticOptimizer_AddOpsRewriteStage": {"b": true}}}, {"name": "PartitionedCall/model/tf.math.add_36/ArithmeticOptimizer/AddOpsRewrite_Add", "op": "AddV2", "input": ["unknown_56", "PartitionedCall/model/tf.math.add_36/ArithmeticOptimizer/AddOpsRewrite_Leaf_1_Add"], "attr": {"T": {"type": "DT_FLOAT"}, "_grappler_ArithmeticOptimizer_AddOpsRewriteStage": {"b": true}}}, {"name": "PartitionedCall/model/tf.nn.convolution_18/convolution", "op": "Conv2D", "input": ["PartitionedCall/model/tf.math.add_36/ArithmeticOptimizer/AddOpsRewrite_Add", "unknown_57"], "device": "/device:CPU:0", "attr": {"padding": {"s": "U0FNRQ=="}, "data_format": {"s": "TkhXQw=="}, "use_cudnn_on_gpu": {"b": true}, "strides": {"list": {"i": ["1", "1", "1", "1"]}}, "T": {"type": "DT_FLOAT"}, "explicit_paddings": {"list": {}}, "dilations": {"list": {"i": ["1", "1", "1", "1"]}}}}, {"name": "PartitionedCall/model/tf.math.add_37/Add", "op": "AddV2", "input": ["PartitionedCall/model/tf.nn.convolution_18/convolution", "unknown_58"], "attr": {"T": {"type": "DT_FLOAT"}}}, {"name": "PartitionedCall/model/tf.nn.relu6_18/Relu6", "op": "Relu6", "input": ["PartitionedCall/model/tf.math.add_37/Add"], "attr": {"T": {"type": "DT_FLOAT"}}}, {"name": "PartitionedCall/model/tf.compat.v1.nn.depthwise_conv2d_9/depthwise", "op": "DepthwiseConv2dNative", "input": ["PartitionedCall/model/tf.nn.relu6_18/Relu6", "unknown_59"], "attr": {"padding": {"s": "U0FNRQ=="}, "data_format": {"s": "TkhXQw=="}, "T": {"type": "DT_FLOAT"}, "explicit_paddings": {"list": {}}, "dilations": {"list": {"i": ["1", "1", "1", "1"]}}, "strides": {"list": {"i": ["1", "1", "1", "1"]}}}}, {"name": "PartitionedCall/model/tf.math.add_38/Add", "op": "AddV2", "input": ["PartitionedCall/model/tf.compat.v1.nn.depthwise_conv2d_9/depthwise", "unknown_60"], "attr": {"T": {"type": "DT_FLOAT"}}}, {"name": "PartitionedCall/model/tf.nn.relu6_19/Relu6", "op": "Relu6", "input": ["PartitionedCall/model/tf.math.add_38/Add"], "attr": {"T": {"type": "DT_FLOAT"}}}, {"name": "PartitionedCall/model/tf.nn.convolution_19/convolution", "op": "Conv2D", "input": ["PartitionedCall/model/tf.nn.relu6_19/Relu6", "unknown_61"], "device": "/device:CPU:0", "attr": {"padding": {"s": "U0FNRQ=="}, "data_format": {"s": "TkhXQw=="}, "use_cudnn_on_gpu": {"b": true}, "strides": {"list": {"i": ["1", "1", "1", "1"]}}, "T": {"type": "DT_FLOAT"}, "explicit_paddings": {"list": {}}, "dilations": {"list": {"i": ["1", "1", "1", "1"]}}}}, {"name": "PartitionedCall/model/tf.math.add_41/ArithmeticOptimizer/AddOpsRewrite_Leaf_1_Add", "op": "AddN", "input": ["PartitionedCall/model/tf.math.add_36/ArithmeticOptimizer/AddOpsRewrite_Add", "PartitionedCall/model/tf.nn.convolution_19/convolution"], "attr": {"N": {"i": "2"}, "T": {"type": "DT_FLOAT"}, "_grappler_ArithmeticOptimizer_AddOpsRewriteStage": {"b": true}}}, {"name": "PartitionedCall/model/tf.math.add_41/ArithmeticOptimizer/AddOpsRewrite_Add", "op": "AddV2", "input": ["unknown_62", "PartitionedCall/model/tf.math.add_41/ArithmeticOptimizer/AddOpsRewrite_Leaf_1_Add"], "attr": {"T": {"type": "DT_FLOAT"}, "_grappler_ArithmeticOptimizer_AddOpsRewriteStage": {"b": true}}}, {"name": "PartitionedCall/model/tf.nn.convolution_20/convolution", "op": "Conv2D", "input": ["PartitionedCall/model/tf.math.add_41/ArithmeticOptimizer/AddOpsRewrite_Add", "unknown_63"], "device": "/device:CPU:0", "attr": {"padding": {"s": "U0FNRQ=="}, "data_format": {"s": "TkhXQw=="}, "strides": {"list": {"i": ["1", "1", "1", "1"]}}, "use_cudnn_on_gpu": {"b": true}, "T": {"type": "DT_FLOAT"}, "explicit_paddings": {"list": {}}, "dilations": {"list": {"i": ["1", "1", "1", "1"]}}}}, {"name": "PartitionedCall/model/tf.math.add_42/Add", "op": "AddV2", "input": ["PartitionedCall/model/tf.nn.convolution_20/convolution", "unknown_64"], "attr": {"T": {"type": "DT_FLOAT"}}}, {"name": "PartitionedCall/model/tf.nn.relu6_20/Relu6", "op": "Relu6", "input": ["PartitionedCall/model/tf.math.add_42/Add"], "attr": {"T": {"type": "DT_FLOAT"}}}, {"name": "PartitionedCall/model/tf.compat.v1.nn.depthwise_conv2d_10/depthwise", "op": "DepthwiseConv2dNative", "input": ["PartitionedCall/model/tf.nn.relu6_20/Relu6", "unknown_65"], "attr": {"padding": {"s": "U0FNRQ=="}, "data_format": {"s": "TkhXQw=="}, "T": {"type": "DT_FLOAT"}, "explicit_paddings": {"list": {}}, "dilations": {"list": {"i": ["1", "1", "1", "1"]}}, "strides": {"list": {"i": ["1", "1", "1", "1"]}}}}, {"name": "PartitionedCall/model/tf.math.add_43/Add", "op": "AddV2", "input": ["PartitionedCall/model/tf.compat.v1.nn.depthwise_conv2d_10/depthwise", "unknown_66"], "attr": {"T": {"type": "DT_FLOAT"}}}, {"name": "PartitionedCall/model/tf.nn.relu6_21/Relu6", "op": "Relu6", "input": ["PartitionedCall/model/tf.math.add_43/Add"], "attr": {"T": {"type": "DT_FLOAT"}}}, {"name": "PartitionedCall/model/tf.nn.convolution_21/convolution", "op": "Conv2D", "input": ["PartitionedCall/model/tf.nn.relu6_21/Relu6", "unknown_67"], "device": "/device:CPU:0", "attr": {"padding": {"s": "U0FNRQ=="}, "data_format": {"s": "TkhXQw=="}, "use_cudnn_on_gpu": {"b": true}, "strides": {"list": {"i": ["1", "1", "1", "1"]}}, "T": {"type": "DT_FLOAT"}, "explicit_paddings": {"list": {}}, "dilations": {"list": {"i": ["1", "1", "1", "1"]}}}}, {"name": "PartitionedCall/model/tf.math.add_44/Add", "op": "AddV2", "input": ["PartitionedCall/model/tf.nn.convolution_21/convolution", "unknown_68"], "attr": {"T": {"type": "DT_FLOAT"}}}, {"name": "PartitionedCall/model/tf.nn.convolution_22/convolution", "op": "Conv2D", "input": ["PartitionedCall/model/tf.math.add_44/Add", "unknown_69"], "device": "/device:CPU:0", "attr": {"padding": {"s": "U0FNRQ=="}, "data_format": {"s": "TkhXQw=="}, "use_cudnn_on_gpu": {"b": true}, "strides": {"list": {"i": ["1", "1", "1", "1"]}}, "T": {"type": "DT_FLOAT"}, "explicit_paddings": {"list": {}}, "dilations": {"list": {"i": ["1", "1", "1", "1"]}}}}, {"name": "PartitionedCall/model/tf.math.add_45/Add", "op": "AddV2", "input": ["PartitionedCall/model/tf.nn.convolution_22/convolution", "unknown_70"], "attr": {"T": {"type": "DT_FLOAT"}}}, {"name": "PartitionedCall/model/tf.nn.relu6_22/Relu6", "op": "Relu6", "input": ["PartitionedCall/model/tf.math.add_45/Add"], "attr": {"T": {"type": "DT_FLOAT"}}}, {"name": "PartitionedCall/model/tf.compat.v1.nn.depthwise_conv2d_11/depthwise", "op": "DepthwiseConv2dNative", "input": ["PartitionedCall/model/tf.nn.relu6_22/Relu6", "unknown_71"], "attr": {"padding": {"s": "U0FNRQ=="}, "data_format": {"s": "TkhXQw=="}, "T": {"type": "DT_FLOAT"}, "explicit_paddings": {"list": {}}, "dilations": {"list": {"i": ["1", "1", "1", "1"]}}, "strides": {"list": {"i": ["1", "1", "1", "1"]}}}}, {"name": "PartitionedCall/model/tf.math.add_46/Add", "op": "AddV2", "input": ["PartitionedCall/model/tf.compat.v1.nn.depthwise_conv2d_11/depthwise", "unknown_72"], "attr": {"T": {"type": "DT_FLOAT"}}}, {"name": "PartitionedCall/model/tf.nn.relu6_23/Relu6", "op": "Relu6", "input": ["PartitionedCall/model/tf.math.add_46/Add"], "attr": {"T": {"type": "DT_FLOAT"}}}, {"name": "PartitionedCall/model/tf.nn.convolution_23/convolution", "op": "Conv2D", "input": ["PartitionedCall/model/tf.nn.relu6_23/Relu6", "unknown_73"], "device": "/device:CPU:0", "attr": {"padding": {"s": "U0FNRQ=="}, "data_format": {"s": "TkhXQw=="}, "use_cudnn_on_gpu": {"b": true}, "strides": {"list": {"i": ["1", "1", "1", "1"]}}, "T": {"type": "DT_FLOAT"}, "explicit_paddings": {"list": {}}, "dilations": {"list": {"i": ["1", "1", "1", "1"]}}}}, {"name": "PartitionedCall/model/tf.math.add_49/ArithmeticOptimizer/AddOpsRewrite_Leaf_1_Add", "op": "AddN", "input": ["PartitionedCall/model/tf.math.add_44/Add", "PartitionedCall/model/tf.nn.convolution_23/convolution"], "attr": {"N": {"i": "2"}, "T": {"type": "DT_FLOAT"}, "_grappler_ArithmeticOptimizer_AddOpsRewriteStage": {"b": true}}}, {"name": "PartitionedCall/model/tf.math.add_49/ArithmeticOptimizer/AddOpsRewrite_Add", "op": "AddV2", "input": ["unknown_74", "PartitionedCall/model/tf.math.add_49/ArithmeticOptimizer/AddOpsRewrite_Leaf_1_Add"], "attr": {"T": {"type": "DT_FLOAT"}, "_grappler_ArithmeticOptimizer_AddOpsRewriteStage": {"b": true}}}, {"name": "PartitionedCall/model/tf.nn.convolution_24/convolution", "op": "Conv2D", "input": ["PartitionedCall/model/tf.math.add_49/ArithmeticOptimizer/AddOpsRewrite_Add", "unknown_75"], "device": "/device:CPU:0", "attr": {"padding": {"s": "U0FNRQ=="}, "data_format": {"s": "TkhXQw=="}, "strides": {"list": {"i": ["1", "1", "1", "1"]}}, "use_cudnn_on_gpu": {"b": true}, "T": {"type": "DT_FLOAT"}, "explicit_paddings": {"list": {}}, "dilations": {"list": {"i": ["1", "1", "1", "1"]}}}}, {"name": "PartitionedCall/model/tf.math.add_50/Add", "op": "AddV2", "input": ["PartitionedCall/model/tf.nn.convolution_24/convolution", "unknown_76"], "attr": {"T": {"type": "DT_FLOAT"}}}, {"name": "PartitionedCall/model/tf.nn.relu6_24/Relu6", "op": "Relu6", "input": ["PartitionedCall/model/tf.math.add_50/Add"], "attr": {"T": {"type": "DT_FLOAT"}}}, {"name": "PartitionedCall/model/tf.compat.v1.nn.depthwise_conv2d_12/depthwise", "op": "DepthwiseConv2dNative", "input": ["PartitionedCall/model/tf.nn.relu6_24/Relu6", "unknown_77"], "attr": {"padding": {"s": "U0FNRQ=="}, "data_format": {"s": "TkhXQw=="}, "T": {"type": "DT_FLOAT"}, "explicit_paddings": {"list": {}}, "dilations": {"list": {"i": ["1", "1", "1", "1"]}}, "strides": {"list": {"i": ["1", "1", "1", "1"]}}}}, {"name": "PartitionedCall/model/tf.math.add_51/Add", "op": "AddV2", "input": ["PartitionedCall/model/tf.compat.v1.nn.depthwise_conv2d_12/depthwise", "unknown_78"], "attr": {"T": {"type": "DT_FLOAT"}}}, {"name": "PartitionedCall/model/tf.nn.relu6_25/Relu6", "op": "Relu6", "input": ["PartitionedCall/model/tf.math.add_51/Add"], "attr": {"T": {"type": "DT_FLOAT"}}}, {"name": "PartitionedCall/model/tf.nn.convolution_25/convolution", "op": "Conv2D", "input": ["PartitionedCall/model/tf.nn.relu6_25/Relu6", "unknown_79"], "device": "/device:CPU:0", "attr": {"padding": {"s": "U0FNRQ=="}, "data_format": {"s": "TkhXQw=="}, "strides": {"list": {"i": ["1", "1", "1", "1"]}}, "use_cudnn_on_gpu": {"b": true}, "T": {"type": "DT_FLOAT"}, "explicit_paddings": {"list": {}}, "dilations": {"list": {"i": ["1", "1", "1", "1"]}}}}, {"name": "PartitionedCall/model/tf.math.add_54/ArithmeticOptimizer/AddOpsRewrite_Leaf_1_Add", "op": "AddN", "input": ["PartitionedCall/model/tf.math.add_49/ArithmeticOptimizer/AddOpsRewrite_Add", "PartitionedCall/model/tf.nn.convolution_25/convolution"], "attr": {"N": {"i": "2"}, "T": {"type": "DT_FLOAT"}, "_grappler_ArithmeticOptimizer_AddOpsRewriteStage": {"b": true}}}, {"name": "PartitionedCall/model/tf.math.add_54/ArithmeticOptimizer/AddOpsRewrite_Add", "op": "AddV2", "input": ["unknown_80", "PartitionedCall/model/tf.math.add_54/ArithmeticOptimizer/AddOpsRewrite_Leaf_1_Add"], "attr": {"T": {"type": "DT_FLOAT"}, "_grappler_ArithmeticOptimizer_AddOpsRewriteStage": {"b": true}}}, {"name": "PartitionedCall/model/tf.nn.convolution_26/convolution", "op": "Conv2D", "input": ["PartitionedCall/model/tf.math.add_54/ArithmeticOptimizer/AddOpsRewrite_Add", "unknown_81"], "device": "/device:CPU:0", "attr": {"padding": {"s": "U0FNRQ=="}, "data_format": {"s": "TkhXQw=="}, "use_cudnn_on_gpu": {"b": true}, "strides": {"list": {"i": ["1", "1", "1", "1"]}}, "T": {"type": "DT_FLOAT"}, "explicit_paddings": {"list": {}}, "dilations": {"list": {"i": ["1", "1", "1", "1"]}}}}, {"name": "PartitionedCall/model/tf.math.add_55/Add", "op": "AddV2", "input": ["PartitionedCall/model/tf.nn.convolution_26/convolution", "unknown_82"], "attr": {"T": {"type": "DT_FLOAT"}}}, {"name": "PartitionedCall/model/tf.nn.relu6_26/Relu6", "op": "Relu6", "input": ["PartitionedCall/model/tf.math.add_55/Add"], "attr": {"T": {"type": "DT_FLOAT"}}}, {"name": "PartitionedCall/model/tf.compat.v1.pad_4/Pad", "op": "Pad", "input": ["PartitionedCall/model/tf.nn.relu6_26/Relu6", "unknown_83"], "attr": {"Tpaddings": {"type": "DT_INT32"}, "T": {"type": "DT_FLOAT"}}}, {"name": "PartitionedCall/model/tf.compat.v1.nn.depthwise_conv2d_13/depthwise", "op": "DepthwiseConv2dNative", "input": ["PartitionedCall/model/tf.compat.v1.pad_4/Pad", "unknown_84"], "attr": {"padding": {"s": "VkFMSUQ="}, "data_format": {"s": "TkhXQw=="}, "T": {"type": "DT_FLOAT"}, "explicit_paddings": {"list": {}}, "dilations": {"list": {"i": ["1", "1", "1", "1"]}}, "strides": {"list": {"i": ["1", "2", "2", "1"]}}}}, {"name": "PartitionedCall/model/tf.math.add_56/Add", "op": "AddV2", "input": ["PartitionedCall/model/tf.compat.v1.nn.depthwise_conv2d_13/depthwise", "unknown_85"], "attr": {"T": {"type": "DT_FLOAT"}}}, {"name": "PartitionedCall/model/tf.nn.relu6_27/Relu6", "op": "Relu6", "input": ["PartitionedCall/model/tf.math.add_56/Add"], "attr": {"T": {"type": "DT_FLOAT"}}}, {"name": "PartitionedCall/model/tf.nn.convolution_27/convolution", "op": "Conv2D", "input": ["PartitionedCall/model/tf.nn.relu6_27/Relu6", "unknown_86"], "device": "/device:CPU:0", "attr": {"padding": {"s": "U0FNRQ=="}, "data_format": {"s": "TkhXQw=="}, "strides": {"list": {"i": ["1", "1", "1", "1"]}}, "use_cudnn_on_gpu": {"b": true}, "T": {"type": "DT_FLOAT"}, "explicit_paddings": {"list": {}}, "dilations": {"list": {"i": ["1", "1", "1", "1"]}}}}, {"name": "PartitionedCall/model/tf.math.add_57/Add", "op": "AddV2", "input": ["PartitionedCall/model/tf.nn.convolution_27/convolution", "unknown_87"], "attr": {"T": {"type": "DT_FLOAT"}}}, {"name": "PartitionedCall/model/tf.nn.convolution_28/convolution", "op": "Conv2D", "input": ["PartitionedCall/model/tf.math.add_57/Add", "unknown_88"], "device": "/device:CPU:0", "attr": {"padding": {"s": "U0FNRQ=="}, "data_format": {"s": "TkhXQw=="}, "strides": {"list": {"i": ["1", "1", "1", "1"]}}, "use_cudnn_on_gpu": {"b": true}, "T": {"type": "DT_FLOAT"}, "explicit_paddings": {"list": {}}, "dilations": {"list": {"i": ["1", "1", "1", "1"]}}}}, {"name": "PartitionedCall/model/tf.math.add_58/Add", "op": "AddV2", "input": ["PartitionedCall/model/tf.nn.convolution_28/convolution", "unknown_89"], "attr": {"T": {"type": "DT_FLOAT"}}}, {"name": "PartitionedCall/model/tf.nn.relu6_28/Relu6", "op": "Relu6", "input": ["PartitionedCall/model/tf.math.add_58/Add"], "attr": {"T": {"type": "DT_FLOAT"}}}, {"name": "PartitionedCall/model/tf.compat.v1.nn.depthwise_conv2d_14/depthwise", "op": "DepthwiseConv2dNative", "input": ["PartitionedCall/model/tf.nn.relu6_28/Relu6", "unknown_90"], "attr": {"padding": {"s": "U0FNRQ=="}, "data_format": {"s": "TkhXQw=="}, "T": {"type": "DT_FLOAT"}, "explicit_paddings": {"list": {}}, "dilations": {"list": {"i": ["1", "1", "1", "1"]}}, "strides": {"list": {"i": ["1", "1", "1", "1"]}}}}, {"name": "PartitionedCall/model/tf.math.add_59/Add", "op": "AddV2", "input": ["PartitionedCall/model/tf.compat.v1.nn.depthwise_conv2d_14/depthwise", "unknown_91"], "attr": {"T": {"type": "DT_FLOAT"}}}, {"name": "PartitionedCall/model/tf.nn.relu6_29/Relu6", "op": "Relu6", "input": ["PartitionedCall/model/tf.math.add_59/Add"], "attr": {"T": {"type": "DT_FLOAT"}}}, {"name": "PartitionedCall/model/tf.nn.convolution_29/convolution", "op": "Conv2D", "input": ["PartitionedCall/model/tf.nn.relu6_29/Relu6", "unknown_92"], "device": "/device:CPU:0", "attr": {"padding": {"s": "U0FNRQ=="}, "data_format": {"s": "TkhXQw=="}, "use_cudnn_on_gpu": {"b": true}, "strides": {"list": {"i": ["1", "1", "1", "1"]}}, "T": {"type": "DT_FLOAT"}, "explicit_paddings": {"list": {}}, "dilations": {"list": {"i": ["1", "1", "1", "1"]}}}}, {"name": "PartitionedCall/model/tf.math.add_62/ArithmeticOptimizer/AddOpsRewrite_Leaf_1_Add", "op": "AddN", "input": ["PartitionedCall/model/tf.math.add_57/Add", "PartitionedCall/model/tf.nn.convolution_29/convolution"], "attr": {"N": {"i": "2"}, "T": {"type": "DT_FLOAT"}, "_grappler_ArithmeticOptimizer_AddOpsRewriteStage": {"b": true}}}, {"name": "PartitionedCall/model/tf.math.add_62/ArithmeticOptimizer/AddOpsRewrite_Add", "op": "AddV2", "input": ["unknown_93", "PartitionedCall/model/tf.math.add_62/ArithmeticOptimizer/AddOpsRewrite_Leaf_1_Add"], "attr": {"T": {"type": "DT_FLOAT"}, "_grappler_ArithmeticOptimizer_AddOpsRewriteStage": {"b": true}}}, {"name": "PartitionedCall/model/tf.nn.convolution_30/convolution", "op": "Conv2D", "input": ["PartitionedCall/model/tf.math.add_62/ArithmeticOptimizer/AddOpsRewrite_Add", "unknown_94"], "device": "/device:CPU:0", "attr": {"padding": {"s": "U0FNRQ=="}, "data_format": {"s": "TkhXQw=="}, "strides": {"list": {"i": ["1", "1", "1", "1"]}}, "use_cudnn_on_gpu": {"b": true}, "T": {"type": "DT_FLOAT"}, "explicit_paddings": {"list": {}}, "dilations": {"list": {"i": ["1", "1", "1", "1"]}}}}, {"name": "PartitionedCall/model/tf.math.add_63/Add", "op": "AddV2", "input": ["PartitionedCall/model/tf.nn.convolution_30/convolution", "unknown_95"], "attr": {"T": {"type": "DT_FLOAT"}}}, {"name": "PartitionedCall/model/tf.nn.relu6_30/Relu6", "op": "Relu6", "input": ["PartitionedCall/model/tf.math.add_63/Add"], "attr": {"T": {"type": "DT_FLOAT"}}}, {"name": "PartitionedCall/model/tf.compat.v1.nn.depthwise_conv2d_15/depthwise", "op": "DepthwiseConv2dNative", "input": ["PartitionedCall/model/tf.nn.relu6_30/Relu6", "unknown_96"], "attr": {"padding": {"s": "U0FNRQ=="}, "data_format": {"s": "TkhXQw=="}, "T": {"type": "DT_FLOAT"}, "explicit_paddings": {"list": {}}, "dilations": {"list": {"i": ["1", "1", "1", "1"]}}, "strides": {"list": {"i": ["1", "1", "1", "1"]}}}}, {"name": "PartitionedCall/model/tf.math.add_64/Add", "op": "AddV2", "input": ["PartitionedCall/model/tf.compat.v1.nn.depthwise_conv2d_15/depthwise", "unknown_97"], "attr": {"T": {"type": "DT_FLOAT"}}}, {"name": "PartitionedCall/model/tf.nn.relu6_31/Relu6", "op": "Relu6", "input": ["PartitionedCall/model/tf.math.add_64/Add"], "attr": {"T": {"type": "DT_FLOAT"}}}, {"name": "PartitionedCall/model/tf.nn.convolution_31/convolution", "op": "Conv2D", "input": ["PartitionedCall/model/tf.nn.relu6_31/Relu6", "unknown_98"], "device": "/device:CPU:0", "attr": {"padding": {"s": "U0FNRQ=="}, "data_format": {"s": "TkhXQw=="}, "strides": {"list": {"i": ["1", "1", "1", "1"]}}, "use_cudnn_on_gpu": {"b": true}, "T": {"type": "DT_FLOAT"}, "explicit_paddings": {"list": {}}, "dilations": {"list": {"i": ["1", "1", "1", "1"]}}}}, {"name": "PartitionedCall/model/tf.math.add_67/ArithmeticOptimizer/AddOpsRewrite_Leaf_1_Add", "op": "AddN", "input": ["PartitionedCall/model/tf.math.add_62/ArithmeticOptimizer/AddOpsRewrite_Add", "PartitionedCall/model/tf.nn.convolution_31/convolution"], "attr": {"N": {"i": "2"}, "T": {"type": "DT_FLOAT"}, "_grappler_ArithmeticOptimizer_AddOpsRewriteStage": {"b": true}}}, {"name": "PartitionedCall/model/tf.math.add_67/ArithmeticOptimizer/AddOpsRewrite_Add", "op": "AddV2", "input": ["unknown_99", "PartitionedCall/model/tf.math.add_67/ArithmeticOptimizer/AddOpsRewrite_Leaf_1_Add"], "attr": {"T": {"type": "DT_FLOAT"}, "_grappler_ArithmeticOptimizer_AddOpsRewriteStage": {"b": true}}}, {"name": "PartitionedCall/model/tf.nn.convolution_32/convolution", "op": "Conv2D", "input": ["PartitionedCall/model/tf.math.add_67/ArithmeticOptimizer/AddOpsRewrite_Add", "unknown_100"], "device": "/device:CPU:0", "attr": {"padding": {"s": "U0FNRQ=="}, "data_format": {"s": "TkhXQw=="}, "strides": {"list": {"i": ["1", "1", "1", "1"]}}, "use_cudnn_on_gpu": {"b": true}, "T": {"type": "DT_FLOAT"}, "explicit_paddings": {"list": {}}, "dilations": {"list": {"i": ["1", "1", "1", "1"]}}}}, {"name": "PartitionedCall/model/tf.math.add_68/Add", "op": "AddV2", "input": ["PartitionedCall/model/tf.nn.convolution_32/convolution", "unknown_101"], "attr": {"T": {"type": "DT_FLOAT"}}}, {"name": "PartitionedCall/model/tf.nn.relu6_32/Relu6", "op": "Relu6", "input": ["PartitionedCall/model/tf.math.add_68/Add"], "attr": {"T": {"type": "DT_FLOAT"}}}, {"name": "PartitionedCall/model/tf.compat.v1.nn.depthwise_conv2d_16/depthwise", "op": "DepthwiseConv2dNative", "input": ["PartitionedCall/model/tf.nn.relu6_32/Relu6", "unknown_102"], "attr": {"padding": {"s": "U0FNRQ=="}, "data_format": {"s": "TkhXQw=="}, "T": {"type": "DT_FLOAT"}, "explicit_paddings": {"list": {}}, "dilations": {"list": {"i": ["1", "1", "1", "1"]}}, "strides": {"list": {"i": ["1", "1", "1", "1"]}}}}, {"name": "PartitionedCall/model/tf.math.add_69/Add", "op": "AddV2", "input": ["PartitionedCall/model/tf.compat.v1.nn.depthwise_conv2d_16/depthwise", "unknown_103"], "attr": {"T": {"type": "DT_FLOAT"}}}, {"name": "PartitionedCall/model/tf.nn.relu6_33/Relu6", "op": "Relu6", "input": ["PartitionedCall/model/tf.math.add_69/Add"], "attr": {"T": {"type": "DT_FLOAT"}}}, {"name": "PartitionedCall/model/tf.nn.convolution_33/convolution", "op": "Conv2D", "input": ["PartitionedCall/model/tf.nn.relu6_33/Relu6", "unknown_104"], "device": "/device:CPU:0", "attr": {"padding": {"s": "U0FNRQ=="}, "data_format": {"s": "TkhXQw=="}, "strides": {"list": {"i": ["1", "1", "1", "1"]}}, "use_cudnn_on_gpu": {"b": true}, "T": {"type": "DT_FLOAT"}, "explicit_paddings": {"list": {}}, "dilations": {"list": {"i": ["1", "1", "1", "1"]}}}}, {"name": "PartitionedCall/model/tf.math.add_70/Add", "op": "AddV2", "input": ["PartitionedCall/model/tf.nn.convolution_33/convolution", "unknown_105"], "attr": {"T": {"type": "DT_FLOAT"}}}, {"name": "PartitionedCall/model/tf.nn.convolution_34/convolution", "op": "Conv2D", "input": ["PartitionedCall/model/tf.math.add_70/Add", "unknown_106"], "device": "/device:CPU:0", "attr": {"padding": {"s": "U0FNRQ=="}, "data_format": {"s": "TkhXQw=="}, "strides": {"list": {"i": ["1", "1", "1", "1"]}}, "use_cudnn_on_gpu": {"b": true}, "T": {"type": "DT_FLOAT"}, "explicit_paddings": {"list": {}}, "dilations": {"list": {"i": ["1", "1", "1", "1"]}}}}, {"name": "PartitionedCall/model/tf.math.add_71/Add", "op": "AddV2", "input": ["PartitionedCall/model/tf.nn.convolution_34/convolution", "unknown_107"], "attr": {"T": {"type": "DT_FLOAT"}}}, {"name": "PartitionedCall/model/tf.nn.relu6_34/Relu6", "op": "Relu6", "input": ["PartitionedCall/model/tf.math.add_71/Add"], "attr": {"T": {"type": "DT_FLOAT"}}}, {"name": "PartitionedCall/model/tf.math.reduce_mean/Mean", "op": "Mean", "input": ["PartitionedCall/model/tf.nn.relu6_34/Relu6", "PartitionedCall/model/tf.math.reduce_mean/Mean/reduction_indices"], "attr": {"Tidx": {"type": "DT_INT32"}, "T": {"type": "DT_FLOAT"}, "keep_dims": {"b": false}}}, {"name": "PartitionedCall/model/tf.linalg.matmul_1/MatMul", "op": "MatMul", "input": ["PartitionedCall/model/tf.math.reduce_mean/Mean", "unknown_113"], "device": "/device:CPU:0", "attr": {"transpose_a": {"b": false}, "T": {"type": "DT_FLOAT"}, "transpose_b": {"b": false}}}, {"name": "PartitionedCall/model/tf.linalg.matmul/MatMul", "op": "MatMul", "input": ["PartitionedCall/model/tf.math.reduce_mean/Mean", "unknown_111"], "device": "/device:CPU:0", "attr": {"transpose_a": {"b": false}, "T": {"type": "DT_FLOAT"}, "transpose_b": {"b": false}}}, {"name": "PartitionedCall/model/tf.linalg.matmul_2/MatMul", "op": "MatMul", "input": ["PartitionedCall/model/tf.math.reduce_mean/Mean", "unknown_108"], "device": "/device:CPU:0", "attr": {"transpose_a": {"b": false}, "T": {"type": "DT_FLOAT"}, "transpose_b": {"b": false}}}, {"name": "PartitionedCall/model/expression_score/AddV2", "op": "AddV2", "input": ["PartitionedCall/model/tf.linalg.matmul_1/MatMul", "unknown_119"], "attr": {"T": {"type": "DT_FLOAT"}}}, {"name": "PartitionedCall/model/tf.__operators__.add/AddV2", "op": "AddV2", "input": ["PartitionedCall/model/tf.linalg.matmul/MatMul", "unknown_117"], "attr": {"T": {"type": "DT_FLOAT"}}}, {"name": "PartitionedCall/model/tf.__operators__.add_2/AddV2", "op": "AddV2", "input": ["PartitionedCall/model/tf.linalg.matmul_2/MatMul", "unknown_110"], "attr": {"T": {"type": "DT_FLOAT"}}}, {"name": "Identity", "op": "Identity", "input": ["PartitionedCall/model/expression_score/AddV2"], "attr": {"T": {"type": "DT_FLOAT"}}}, {"name": "PartitionedCall/model/eye_status/wa/Softmax", "op": "Softmax", "input": ["PartitionedCall/model/tf.__operators__.add/AddV2"], "attr": {"T": {"type": "DT_FLOAT"}}}, {"name": "PartitionedCall/model/tf.nn.relu/Relu", "op": "Relu", "input": ["PartitionedCall/model/tf.__operators__.add_2/AddV2"], "attr": {"T": {"type": "DT_FLOAT"}}}, {"name": "Identity_1", "op": "Identity", "input": ["PartitionedCall/model/eye_status/wa/Softmax"], "attr": {"T": {"type": "DT_FLOAT"}}}, {"name": "PartitionedCall/model/tf.linalg.matmul_3/MatMul", "op": "MatMul", "input": ["PartitionedCall/model/tf.nn.relu/Relu", "unknown_112"], "device": "/device:CPU:0", "attr": {"transpose_a": {"b": false}, "T": {"type": "DT_FLOAT"}, "transpose_b": {"b": false}}}, {"name": "PartitionedCall/model/focus_score/AddV2", "op": "AddV2", "input": ["PartitionedCall/model/tf.linalg.matmul_3/MatMul", "unknown_118"], "attr": {"T": {"type": "DT_FLOAT"}}}, {"name": "Identity_2", "op": "Identity", "input": ["PartitionedCall/model/focus_score/AddV2"], "attr": {"T": {"type": "DT_FLOAT"}}}], "library": {}, "versions": {"producer": 1395}}, "weightsManifest": [{"paths": ["group1-shard1of2.bin", "group1-shard2of2.bin"], "weights": [{"name": "unknown_113", "shape": [1280, 1], "dtype": "float32", "quantization": {"dtype": "float16", "original_dtype": "float32"}}, {"name": "unknown_119", "shape": [1], "dtype": "float32", "quantization": {"dtype": "float16", "original_dtype": "float32"}}, {"name": "unknown_111", "shape": [1280, 10], "dtype": "float32", "quantization": {"dtype": "float16", "original_dtype": "float32"}}, {"name": "unknown_117", "shape": [10], "dtype": "float32", "quantization": {"dtype": "float16", "original_dtype": "float32"}}, {"name": "unknown_99", "shape": [160], "dtype": "float32", "quantization": {"dtype": "float16", "original_dtype": "float32"}}, {"name": "unknown_93", "shape": [160], "dtype": "float32", "quantization": {"dtype": "float16", "original_dtype": "float32"}}, {"name": "unknown_80", "shape": [96], "dtype": "float32", "quantization": {"dtype": "float16", "original_dtype": "float32"}}, {"name": "unknown_74", "shape": [96], "dtype": "float32", "quantization": {"dtype": "float16", "original_dtype": "float32"}}, {"name": "unknown_62", "shape": [64], "dtype": "float32", "quantization": {"dtype": "float16", "original_dtype": "float32"}}, {"name": "unknown_56", "shape": [64], "dtype": "float32", "quantization": {"dtype": "float16", "original_dtype": "float32"}}, {"name": "unknown_50", "shape": [64], "dtype": "float32", "quantization": {"dtype": "float16", "original_dtype": "float32"}}, {"name": "unknown_37", "shape": [32], "dtype": "float32", "quantization": {"dtype": "float16", "original_dtype": "float32"}}, {"name": "unknown_31", "shape": [32], "dtype": "float32", "quantization": {"dtype": "float16", "original_dtype": "float32"}}, {"name": "unknown_18", "shape": [24], "dtype": "float32", "quantization": {"dtype": "float16", "original_dtype": "float32"}}, {"name": "unknown", "shape": [4, 2], "dtype": "int32"}, {"name": "unknown_0", "shape": [3, 3, 3, 32], "dtype": "float32", "quantization": {"dtype": "float16", "original_dtype": "float32"}}, {"name": "unknown_1", "shape": [32], "dtype": "float32", "quantization": {"dtype": "float16", "original_dtype": "float32"}}, {"name": "unknown_2", "shape": [3, 3, 32, 1], "dtype": "float32", "quantization": {"dtype": "float16", "original_dtype": "float32"}}, {"name": "unknown_3", "shape": [32], "dtype": "float32", "quantization": {"dtype": "float16", "original_dtype": "float32"}}, {"name": "unknown_4", "shape": [1, 1, 32, 16], "dtype": "float32", "quantization": {"dtype": "float16", "original_dtype": "float32"}}, {"name": "unknown_5", "shape": [16], "dtype": "float32", "quantization": {"dtype": "float16", "original_dtype": "float32"}}, {"name": "unknown_6", "shape": [1, 1, 16, 96], "dtype": "float32", "quantization": {"dtype": "float16", "original_dtype": "float32"}}, {"name": "unknown_7", "shape": [96], "dtype": "float32", "quantization": {"dtype": "float16", "original_dtype": "float32"}}, {"name": "unknown_8", "shape": [4, 2], "dtype": "int32"}, {"name": "unknown_9", "shape": [3, 3, 96, 1], "dtype": "float32", "quantization": {"dtype": "float16", "original_dtype": "float32"}}, {"name": "unknown_10", "shape": [96], "dtype": "float32", "quantization": {"dtype": "float16", "original_dtype": "float32"}}, {"name": "unknown_11", "shape": [1, 1, 96, 24], "dtype": "float32", "quantization": {"dtype": "float16", "original_dtype": "float32"}}, {"name": "unknown_12", "shape": [24], "dtype": "float32", "quantization": {"dtype": "float16", "original_dtype": "float32"}}, {"name": "unknown_13", "shape": [1, 1, 24, 144], "dtype": "float32", "quantization": {"dtype": "float16", "original_dtype": "float32"}}, {"name": "unknown_14", "shape": [144], "dtype": "float32", "quantization": {"dtype": "float16", "original_dtype": "float32"}}, {"name": "unknown_15", "shape": [3, 3, 144, 1], "dtype": "float32", "quantization": {"dtype": "float16", "original_dtype": "float32"}}, {"name": "unknown_16", "shape": [144], "dtype": "float32", "quantization": {"dtype": "float16", "original_dtype": "float32"}}, {"name": "unknown_17", "shape": [1, 1, 144, 24], "dtype": "float32", "quantization": {"dtype": "float16", "original_dtype": "float32"}}, {"name": "unknown_19", "shape": [1, 1, 24, 144], "dtype": "float32", "quantization": {"dtype": "float16", "original_dtype": "float32"}}, {"name": "unknown_20", "shape": [144], "dtype": "float32", "quantization": {"dtype": "float16", "original_dtype": "float32"}}, {"name": "unknown_21", "shape": [4, 2], "dtype": "int32"}, {"name": "unknown_22", "shape": [3, 3, 144, 1], "dtype": "float32", "quantization": {"dtype": "float16", "original_dtype": "float32"}}, {"name": "unknown_23", "shape": [144], "dtype": "float32", "quantization": {"dtype": "float16", "original_dtype": "float32"}}, {"name": "unknown_24", "shape": [1, 1, 144, 32], "dtype": "float32", "quantization": {"dtype": "float16", "original_dtype": "float32"}}, {"name": "unknown_25", "shape": [32], "dtype": "float32", "quantization": {"dtype": "float16", "original_dtype": "float32"}}, {"name": "unknown_26", "shape": [1, 1, 32, 192], "dtype": "float32", "quantization": {"dtype": "float16", "original_dtype": "float32"}}, {"name": "unknown_27", "shape": [192], "dtype": "float32", "quantization": {"dtype": "float16", "original_dtype": "float32"}}, {"name": "unknown_28", "shape": [3, 3, 192, 1], "dtype": "float32", "quantization": {"dtype": "float16", "original_dtype": "float32"}}, {"name": "unknown_29", "shape": [192], "dtype": "float32", "quantization": {"dtype": "float16", "original_dtype": "float32"}}, {"name": "unknown_30", "shape": [1, 1, 192, 32], "dtype": "float32", "quantization": {"dtype": "float16", "original_dtype": "float32"}}, {"name": "unknown_32", "shape": [1, 1, 32, 192], "dtype": "float32", "quantization": {"dtype": "float16", "original_dtype": "float32"}}, {"name": "unknown_33", "shape": [192], "dtype": "float32", "quantization": {"dtype": "float16", "original_dtype": "float32"}}, {"name": "unknown_34", "shape": [3, 3, 192, 1], "dtype": "float32", "quantization": {"dtype": "float16", "original_dtype": "float32"}}, {"name": "unknown_35", "shape": [192], "dtype": "float32", "quantization": {"dtype": "float16", "original_dtype": "float32"}}, {"name": "unknown_36", "shape": [1, 1, 192, 32], "dtype": "float32", "quantization": {"dtype": "float16", "original_dtype": "float32"}}, {"name": "unknown_38", "shape": [1, 1, 32, 192], "dtype": "float32", "quantization": {"dtype": "float16", "original_dtype": "float32"}}, {"name": "unknown_39", "shape": [192], "dtype": "float32", "quantization": {"dtype": "float16", "original_dtype": "float32"}}, {"name": "unknown_40", "shape": [4, 2], "dtype": "int32"}, {"name": "unknown_41", "shape": [3, 3, 192, 1], "dtype": "float32", "quantization": {"dtype": "float16", "original_dtype": "float32"}}, {"name": "unknown_42", "shape": [192], "dtype": "float32", "quantization": {"dtype": "float16", "original_dtype": "float32"}}, {"name": "unknown_43", "shape": [1, 1, 192, 64], "dtype": "float32", "quantization": {"dtype": "float16", "original_dtype": "float32"}}, {"name": "unknown_44", "shape": [64], "dtype": "float32", "quantization": {"dtype": "float16", "original_dtype": "float32"}}, {"name": "unknown_45", "shape": [1, 1, 64, 384], "dtype": "float32", "quantization": {"dtype": "float16", "original_dtype": "float32"}}, {"name": "unknown_46", "shape": [384], "dtype": "float32", "quantization": {"dtype": "float16", "original_dtype": "float32"}}, {"name": "unknown_47", "shape": [3, 3, 384, 1], "dtype": "float32", "quantization": {"dtype": "float16", "original_dtype": "float32"}}, {"name": "unknown_48", "shape": [384], "dtype": "float32", "quantization": {"dtype": "float16", "original_dtype": "float32"}}, {"name": "unknown_49", "shape": [1, 1, 384, 64], "dtype": "float32", "quantization": {"dtype": "float16", "original_dtype": "float32"}}, {"name": "unknown_51", "shape": [1, 1, 64, 384], "dtype": "float32", "quantization": {"dtype": "float16", "original_dtype": "float32"}}, {"name": "unknown_52", "shape": [384], "dtype": "float32", "quantization": {"dtype": "float16", "original_dtype": "float32"}}, {"name": "unknown_53", "shape": [3, 3, 384, 1], "dtype": "float32", "quantization": {"dtype": "float16", "original_dtype": "float32"}}, {"name": "unknown_54", "shape": [384], "dtype": "float32", "quantization": {"dtype": "float16", "original_dtype": "float32"}}, {"name": "unknown_55", "shape": [1, 1, 384, 64], "dtype": "float32", "quantization": {"dtype": "float16", "original_dtype": "float32"}}, {"name": "unknown_57", "shape": [1, 1, 64, 384], "dtype": "float32", "quantization": {"dtype": "float16", "original_dtype": "float32"}}, {"name": "unknown_58", "shape": [384], "dtype": "float32", "quantization": {"dtype": "float16", "original_dtype": "float32"}}, {"name": "unknown_59", "shape": [3, 3, 384, 1], "dtype": "float32", "quantization": {"dtype": "float16", "original_dtype": "float32"}}, {"name": "unknown_60", "shape": [384], "dtype": "float32", "quantization": {"dtype": "float16", "original_dtype": "float32"}}, {"name": "unknown_61", "shape": [1, 1, 384, 64], "dtype": "float32", "quantization": {"dtype": "float16", "original_dtype": "float32"}}, {"name": "unknown_63", "shape": [1, 1, 64, 384], "dtype": "float32", "quantization": {"dtype": "float16", "original_dtype": "float32"}}, {"name": "unknown_64", "shape": [384], "dtype": "float32", "quantization": {"dtype": "float16", "original_dtype": "float32"}}, {"name": "unknown_65", "shape": [3, 3, 384, 1], "dtype": "float32", "quantization": {"dtype": "float16", "original_dtype": "float32"}}, {"name": "unknown_66", "shape": [384], "dtype": "float32", "quantization": {"dtype": "float16", "original_dtype": "float32"}}, {"name": "unknown_67", "shape": [1, 1, 384, 96], "dtype": "float32", "quantization": {"dtype": "float16", "original_dtype": "float32"}}, {"name": "unknown_68", "shape": [96], "dtype": "float32", "quantization": {"dtype": "float16", "original_dtype": "float32"}}, {"name": "unknown_69", "shape": [1, 1, 96, 576], "dtype": "float32", "quantization": {"dtype": "float16", "original_dtype": "float32"}}, {"name": "unknown_70", "shape": [576], "dtype": "float32", "quantization": {"dtype": "float16", "original_dtype": "float32"}}, {"name": "unknown_71", "shape": [3, 3, 576, 1], "dtype": "float32", "quantization": {"dtype": "float16", "original_dtype": "float32"}}, {"name": "unknown_72", "shape": [576], "dtype": "float32", "quantization": {"dtype": "float16", "original_dtype": "float32"}}, {"name": "unknown_73", "shape": [1, 1, 576, 96], "dtype": "float32", "quantization": {"dtype": "float16", "original_dtype": "float32"}}, {"name": "unknown_75", "shape": [1, 1, 96, 576], "dtype": "float32", "quantization": {"dtype": "float16", "original_dtype": "float32"}}, {"name": "unknown_76", "shape": [576], "dtype": "float32", "quantization": {"dtype": "float16", "original_dtype": "float32"}}, {"name": "unknown_77", "shape": [3, 3, 576, 1], "dtype": "float32", "quantization": {"dtype": "float16", "original_dtype": "float32"}}, {"name": "unknown_78", "shape": [576], "dtype": "float32", "quantization": {"dtype": "float16", "original_dtype": "float32"}}, {"name": "unknown_79", "shape": [1, 1, 576, 96], "dtype": "float32", "quantization": {"dtype": "float16", "original_dtype": "float32"}}, {"name": "unknown_81", "shape": [1, 1, 96, 576], "dtype": "float32", "quantization": {"dtype": "float16", "original_dtype": "float32"}}, {"name": "unknown_82", "shape": [576], "dtype": "float32", "quantization": {"dtype": "float16", "original_dtype": "float32"}}, {"name": "unknown_83", "shape": [4, 2], "dtype": "int32"}, {"name": "unknown_84", "shape": [3, 3, 576, 1], "dtype": "float32", "quantization": {"dtype": "float16", "original_dtype": "float32"}}, {"name": "unknown_85", "shape": [576], "dtype": "float32", "quantization": {"dtype": "float16", "original_dtype": "float32"}}, {"name": "unknown_86", "shape": [1, 1, 576, 160], "dtype": "float32", "quantization": {"dtype": "float16", "original_dtype": "float32"}}, {"name": "unknown_87", "shape": [160], "dtype": "float32", "quantization": {"dtype": "float16", "original_dtype": "float32"}}, {"name": "unknown_88", "shape": [1, 1, 160, 960], "dtype": "float32", "quantization": {"dtype": "float16", "original_dtype": "float32"}}, {"name": "unknown_89", "shape": [960], "dtype": "float32", "quantization": {"dtype": "float16", "original_dtype": "float32"}}, {"name": "unknown_90", "shape": [3, 3, 960, 1], "dtype": "float32", "quantization": {"dtype": "float16", "original_dtype": "float32"}}, {"name": "unknown_91", "shape": [960], "dtype": "float32", "quantization": {"dtype": "float16", "original_dtype": "float32"}}, {"name": "unknown_92", "shape": [1, 1, 960, 160], "dtype": "float32", "quantization": {"dtype": "float16", "original_dtype": "float32"}}, {"name": "unknown_94", "shape": [1, 1, 160, 960], "dtype": "float32", "quantization": {"dtype": "float16", "original_dtype": "float32"}}, {"name": "unknown_95", "shape": [960], "dtype": "float32", "quantization": {"dtype": "float16", "original_dtype": "float32"}}, {"name": "unknown_96", "shape": [3, 3, 960, 1], "dtype": "float32", "quantization": {"dtype": "float16", "original_dtype": "float32"}}, {"name": "unknown_97", "shape": [960], "dtype": "float32", "quantization": {"dtype": "float16", "original_dtype": "float32"}}, {"name": "unknown_98", "shape": [1, 1, 960, 160], "dtype": "float32", "quantization": {"dtype": "float16", "original_dtype": "float32"}}, {"name": "unknown_100", "shape": [1, 1, 160, 960], "dtype": "float32", "quantization": {"dtype": "float16", "original_dtype": "float32"}}, {"name": "unknown_101", "shape": [960], "dtype": "float32", "quantization": {"dtype": "float16", "original_dtype": "float32"}}, {"name": "unknown_102", "shape": [3, 3, 960, 1], "dtype": "float32", "quantization": {"dtype": "float16", "original_dtype": "float32"}}, {"name": "unknown_103", "shape": [960], "dtype": "float32", "quantization": {"dtype": "float16", "original_dtype": "float32"}}, {"name": "unknown_104", "shape": [1, 1, 960, 320], "dtype": "float32", "quantization": {"dtype": "float16", "original_dtype": "float32"}}, {"name": "unknown_105", "shape": [320], "dtype": "float32", "quantization": {"dtype": "float16", "original_dtype": "float32"}}, {"name": "unknown_106", "shape": [1, 1, 320, 1280], "dtype": "float32", "quantization": {"dtype": "float16", "original_dtype": "float32"}}, {"name": "unknown_107", "shape": [1280], "dtype": "float32", "quantization": {"dtype": "float16", "original_dtype": "float32"}}, {"name": "PartitionedCall/model/tf.math.reduce_mean/Mean/reduction_indices", "shape": [2], "dtype": "int32"}, {"name": "unknown_108", "shape": [1280, 128], "dtype": "float32", "quantization": {"dtype": "float16", "original_dtype": "float32"}}, {"name": "unknown_110", "shape": [128], "dtype": "float32", "quantization": {"dtype": "float16", "original_dtype": "float32"}}, {"name": "unknown_112", "shape": [128, 1], "dtype": "float32", "quantization": {"dtype": "float16", "original_dtype": "float32"}}, {"name": "unknown_118", "shape": [1], "dtype": "float32", "quantization": {"dtype": "float16", "original_dtype": "float32"}}]}]}