{"format": "graph-model", "generatedBy": "2.16.1", "convertedBy": "TensorFlow.js Converter v4.22.0", "signature": {"inputs": {"input_img:0": {"name": "input_img:0", "dtype": "DT_FLOAT", "tensorShape": {"dim": [{"size": "1"}, {"size": "256"}, {"size": "256"}, {"size": "3"}]}}, "ref_img:0": {"name": "ref_img:0", "dtype": "DT_FLOAT", "tensorShape": {"dim": [{"size": "1"}, {"size": "256"}, {"size": "256"}, {"size": "3"}]}}}, "outputs": {"3D_LUT": {"name": "Identity_1:0", "dtype": "DT_FLOAT", "tensorShape": {"dim": [{"size": "1"}, {"size": "3"}, {"size": "17"}, {"size": "17"}, {"size": "17"}]}}, "1D_LUT": {"name": "Identity:0", "dtype": "DT_FLOAT", "tensorShape": {"dim": [{"size": "1"}, {"size": "3"}, {"size": "17"}]}}}}, "modelTopology": {"node": [{"name": "unknown_226", "op": "Const", "attr": {"value": {"tensor": {"dtype": "DT_FLOAT", "tensorShape": {"dim": [{"size": "640"}, {"size": "51"}]}}}, "dtype": {"type": "DT_FLOAT"}}}, {"name": "unknown_229", "op": "Const", "attr": {"value": {"tensor": {"dtype": "DT_FLOAT", "tensorShape": {"dim": [{"size": "51"}]}}}, "dtype": {"type": "DT_FLOAT"}}}, {"name": "PartitionedCall/model_9/tf.reshape_2/Reshape/shape", "op": "Const", "attr": {"value": {"tensor": {"dtype": "DT_INT32", "tensorShape": {"dim": [{"size": "3"}]}}}, "dtype": {"type": "DT_INT32"}}}, {"name": "PartitionedCall/model_9/tf.math.reduce_mean_16/Mean/reduction_indices", "op": "Const", "attr": {"value": {"tensor": {"dtype": "DT_INT32", "tensorShape": {"dim": [{"size": "2"}]}}}, "dtype": {"type": "DT_INT32"}}}, {"name": "PartitionedCall/model_9/tf.compat.v1.transpose/transpose/perm", "op": "Const", "attr": {"value": {"tensor": {"dtype": "DT_INT32", "tensorShape": {"dim": [{"size": "4"}]}}}, "dtype": {"type": "DT_INT32"}}}, {"name": "PartitionedCall/model_9/tf.reshape/Reshape/shape", "op": "Const", "attr": {"value": {"tensor": {"dtype": "DT_INT32", "tensorShape": {"dim": [{"size": "2"}]}}}, "dtype": {"type": "DT_INT32"}}}, {"name": "unknown_152", "op": "Const", "attr": {"value": {"tensor": {"dtype": "DT_INT64", "tensorShape": {"dim": [{"size": "4"}]}}}, "dtype": {"type": "DT_INT64"}}}, {"name": "unknown_153", "op": "Const", "attr": {"value": {"tensor": {"dtype": "DT_INT64", "tensorShape": {"dim": [{"size": "4"}]}}}, "dtype": {"type": "DT_INT64"}}}, {"name": "PartitionedCall/model_9/tf.strided_slice/ones_like", "op": "Const", "attr": {"value": {"tensor": {"dtype": "DT_INT64", "tensorShape": {"dim": [{"size": "4"}]}}}, "dtype": {"type": "DT_INT64"}}}, {"name": "unknown_154", "op": "Const", "attr": {"value": {"tensor": {"dtype": "DT_INT64", "tensorShape": {"dim": [{"size": "4"}]}}}, "dtype": {"type": "DT_INT64"}}}, {"name": "unknown_155", "op": "Const", "attr": {"value": {"tensor": {"dtype": "DT_INT64", "tensorShape": {"dim": [{"size": "4"}]}}}, "dtype": {"type": "DT_INT64"}}}, {"name": "PartitionedCall/model_9/tf.strided_slice_1/ones_like", "op": "Const", "attr": {"value": {"tensor": {"dtype": "DT_INT64", "tensorShape": {"dim": [{"size": "4"}]}}}, "dtype": {"type": "DT_INT64"}}}, {"name": "PartitionedCall/model_9/tf.concat_6/concat/axis", "op": "Const", "attr": {"value": {"tensor": {"dtype": "DT_INT32", "tensorShape": {}}}, "dtype": {"type": "DT_INT32"}}}, {"name": "unknown_156", "op": "Const", "attr": {"value": {"tensor": {"dtype": "DT_FLOAT", "tensorShape": {"dim": [{"size": "3"}, {"size": "3"}, {"size": "32"}, {"size": "40"}]}}}, "dtype": {"type": "DT_FLOAT"}}}, {"name": "unknown_158", "op": "Const", "attr": {"value": {"tensor": {"dtype": "DT_FLOAT", "tensorShape": {"dim": [{"size": "40"}]}}}, "dtype": {"type": "DT_FLOAT"}}}, {"name": "unknown_164", "op": "Const", "attr": {"value": {"tensor": {"dtype": "DT_FLOAT", "tensorShape": {"dim": [{"size": "1"}, {"size": "1"}, {"size": "40"}, {"size": "40"}]}}}, "dtype": {"type": "DT_FLOAT"}}}, {"name": "unknown_167", "op": "Const", "attr": {"value": {"tensor": {"dtype": "DT_FLOAT", "tensorShape": {"dim": [{"size": "40"}]}}}, "dtype": {"type": "DT_FLOAT"}}}, {"name": "unknown_170", "op": "Const", "attr": {"value": {"tensor": {"dtype": "DT_INT32", "tensorShape": {"dim": [{"size": "4"}, {"size": "2"}]}}}, "dtype": {"type": "DT_INT32"}}}, {"name": "unknown_171", "op": "Const", "attr": {"value": {"tensor": {"dtype": "DT_FLOAT", "tensorShape": {"dim": [{"size": "3"}, {"size": "3"}, {"size": "40"}, {"size": "40"}]}}}, "dtype": {"type": "DT_FLOAT"}}}, {"name": "unknown_173", "op": "Const", "attr": {"value": {"tensor": {"dtype": "DT_FLOAT", "tensorShape": {"dim": [{"size": "40"}]}}}, "dtype": {"type": "DT_FLOAT"}}}, {"name": "unknown_160", "op": "Const", "attr": {"value": {"tensor": {"dtype": "DT_INT64", "tensorShape": {"dim": [{"size": "4"}]}}}, "dtype": {"type": "DT_INT64"}}}, {"name": "unknown_161", "op": "Const", "attr": {"value": {"tensor": {"dtype": "DT_INT64", "tensorShape": {"dim": [{"size": "4"}]}}}, "dtype": {"type": "DT_INT64"}}}, {"name": "PartitionedCall/model_9/tf.strided_slice_2/ones_like", "op": "Const", "attr": {"value": {"tensor": {"dtype": "DT_INT64", "tensorShape": {"dim": [{"size": "4"}]}}}, "dtype": {"type": "DT_INT64"}}}, {"name": "unknown_162", "op": "Const", "attr": {"value": {"tensor": {"dtype": "DT_INT64", "tensorShape": {"dim": [{"size": "4"}]}}}, "dtype": {"type": "DT_INT64"}}}, {"name": "unknown_163", "op": "Const", "attr": {"value": {"tensor": {"dtype": "DT_INT64", "tensorShape": {"dim": [{"size": "4"}]}}}, "dtype": {"type": "DT_INT64"}}}, {"name": "PartitionedCall/model_9/tf.strided_slice_3/ones_like", "op": "Const", "attr": {"value": {"tensor": {"dtype": "DT_INT64", "tensorShape": {"dim": [{"size": "4"}]}}}, "dtype": {"type": "DT_INT64"}}}, {"name": "PartitionedCall/model_9/tf.concat_7/concat/axis", "op": "Const", "attr": {"value": {"tensor": {"dtype": "DT_INT32", "tensorShape": {}}}, "dtype": {"type": "DT_INT32"}}}, {"name": "unknown_166", "op": "Const", "attr": {"value": {"tensor": {"dtype": "DT_FLOAT", "tensorShape": {"dim": [{"size": "3"}, {"size": "3"}, {"size": "48"}, {"size": "80"}]}}}, "dtype": {"type": "DT_FLOAT"}}}, {"name": "unknown_172", "op": "Const", "attr": {"value": {"tensor": {"dtype": "DT_FLOAT", "tensorShape": {"dim": [{"size": "1"}, {"size": "1"}, {"size": "80"}, {"size": "80"}]}}}, "dtype": {"type": "DT_FLOAT"}}}, {"name": "unknown_175", "op": "Const", "attr": {"value": {"tensor": {"dtype": "DT_FLOAT", "tensorShape": {"dim": [{"size": "80"}]}}}, "dtype": {"type": "DT_FLOAT"}}}, {"name": "PartitionedCall/model_9/tf.concat_8/concat/axis", "op": "Const", "attr": {"value": {"tensor": {"dtype": "DT_INT32", "tensorShape": {}}}, "dtype": {"type": "DT_INT32"}}}, {"name": "unknown_181", "op": "Const", "attr": {"value": {"tensor": {"dtype": "DT_FLOAT", "tensorShape": {"dim": [{"size": "1"}, {"size": "1"}, {"size": "120"}, {"size": "80"}]}}}, "dtype": {"type": "DT_FLOAT"}}}, {"name": "unknown_183", "op": "Const", "attr": {"value": {"tensor": {"dtype": "DT_FLOAT", "tensorShape": {"dim": [{"size": "80"}]}}}, "dtype": {"type": "DT_FLOAT"}}}, {"name": "unknown_185", "op": "Const", "attr": {"value": {"tensor": {"dtype": "DT_INT32", "tensorShape": {"dim": [{"size": "4"}, {"size": "2"}]}}}, "dtype": {"type": "DT_INT32"}}}, {"name": "unknown_187", "op": "Const", "attr": {"value": {"tensor": {"dtype": "DT_FLOAT", "tensorShape": {"dim": [{"size": "3"}, {"size": "3"}, {"size": "80"}, {"size": "80"}]}}}, "dtype": {"type": "DT_FLOAT"}}}, {"name": "unknown_190", "op": "Const", "attr": {"value": {"tensor": {"dtype": "DT_FLOAT", "tensorShape": {"dim": [{"size": "80"}]}}}, "dtype": {"type": "DT_FLOAT"}}}, {"name": "unknown_177", "op": "Const", "attr": {"value": {"tensor": {"dtype": "DT_INT64", "tensorShape": {"dim": [{"size": "4"}]}}}, "dtype": {"type": "DT_INT64"}}}, {"name": "unknown_178", "op": "Const", "attr": {"value": {"tensor": {"dtype": "DT_INT64", "tensorShape": {"dim": [{"size": "4"}]}}}, "dtype": {"type": "DT_INT64"}}}, {"name": "PartitionedCall/model_9/tf.strided_slice_4/ones_like", "op": "Const", "attr": {"value": {"tensor": {"dtype": "DT_INT64", "tensorShape": {"dim": [{"size": "4"}]}}}, "dtype": {"type": "DT_INT64"}}}, {"name": "unknown_179", "op": "Const", "attr": {"value": {"tensor": {"dtype": "DT_INT64", "tensorShape": {"dim": [{"size": "4"}]}}}, "dtype": {"type": "DT_INT64"}}}, {"name": "unknown_180", "op": "Const", "attr": {"value": {"tensor": {"dtype": "DT_INT64", "tensorShape": {"dim": [{"size": "4"}]}}}, "dtype": {"type": "DT_INT64"}}}, {"name": "PartitionedCall/model_9/tf.strided_slice_5/ones_like", "op": "Const", "attr": {"value": {"tensor": {"dtype": "DT_INT64", "tensorShape": {"dim": [{"size": "4"}]}}}, "dtype": {"type": "DT_INT64"}}}, {"name": "PartitionedCall/model_9/tf.concat_9/concat/axis", "op": "Const", "attr": {"value": {"tensor": {"dtype": "DT_INT32", "tensorShape": {}}}, "dtype": {"type": "DT_INT32"}}}, {"name": "unknown_182", "op": "Const", "attr": {"value": {"tensor": {"dtype": "DT_FLOAT", "tensorShape": {"dim": [{"size": "3"}, {"size": "3"}, {"size": "80"}, {"size": "160"}]}}}, "dtype": {"type": "DT_FLOAT"}}}, {"name": "unknown_184", "op": "Const", "attr": {"value": {"tensor": {"dtype": "DT_FLOAT", "tensorShape": {"dim": [{"size": "160"}]}}}, "dtype": {"type": "DT_FLOAT"}}}, {"name": "unknown_189", "op": "Const", "attr": {"value": {"tensor": {"dtype": "DT_FLOAT", "tensorShape": {"dim": [{"size": "1"}, {"size": "1"}, {"size": "160"}, {"size": "160"}]}}}, "dtype": {"type": "DT_FLOAT"}}}, {"name": "unknown_191", "op": "Const", "attr": {"value": {"tensor": {"dtype": "DT_FLOAT", "tensorShape": {"dim": [{"size": "160"}]}}}, "dtype": {"type": "DT_FLOAT"}}}, {"name": "PartitionedCall/model_9/tf.concat_10/concat/axis", "op": "Const", "attr": {"value": {"tensor": {"dtype": "DT_INT32", "tensorShape": {}}}, "dtype": {"type": "DT_INT32"}}}, {"name": "unknown_197", "op": "Const", "attr": {"value": {"tensor": {"dtype": "DT_FLOAT", "tensorShape": {"dim": [{"size": "1"}, {"size": "1"}, {"size": "240"}, {"size": "160"}]}}}, "dtype": {"type": "DT_FLOAT"}}}, {"name": "unknown_200", "op": "Const", "attr": {"value": {"tensor": {"dtype": "DT_FLOAT", "tensorShape": {"dim": [{"size": "160"}]}}}, "dtype": {"type": "DT_FLOAT"}}}, {"name": "unknown_202", "op": "Const", "attr": {"value": {"tensor": {"dtype": "DT_INT32", "tensorShape": {"dim": [{"size": "4"}, {"size": "2"}]}}}, "dtype": {"type": "DT_INT32"}}}, {"name": "unknown_203", "op": "Const", "attr": {"value": {"tensor": {"dtype": "DT_FLOAT", "tensorShape": {"dim": [{"size": "3"}, {"size": "3"}, {"size": "160"}, {"size": "160"}]}}}, "dtype": {"type": "DT_FLOAT"}}}, {"name": "unknown_206", "op": "Const", "attr": {"value": {"tensor": {"dtype": "DT_FLOAT", "tensorShape": {"dim": [{"size": "160"}]}}}, "dtype": {"type": "DT_FLOAT"}}}, {"name": "unknown_192", "op": "Const", "attr": {"value": {"tensor": {"dtype": "DT_INT64", "tensorShape": {"dim": [{"size": "4"}]}}}, "dtype": {"type": "DT_INT64"}}}, {"name": "unknown_193", "op": "Const", "attr": {"value": {"tensor": {"dtype": "DT_INT64", "tensorShape": {"dim": [{"size": "4"}]}}}, "dtype": {"type": "DT_INT64"}}}, {"name": "PartitionedCall/model_9/tf.strided_slice_6/ones_like", "op": "Const", "attr": {"value": {"tensor": {"dtype": "DT_INT64", "tensorShape": {"dim": [{"size": "4"}]}}}, "dtype": {"type": "DT_INT64"}}}, {"name": "unknown_194", "op": "Const", "attr": {"value": {"tensor": {"dtype": "DT_INT64", "tensorShape": {"dim": [{"size": "4"}]}}}, "dtype": {"type": "DT_INT64"}}}, {"name": "unknown_195", "op": "Const", "attr": {"value": {"tensor": {"dtype": "DT_INT64", "tensorShape": {"dim": [{"size": "4"}]}}}, "dtype": {"type": "DT_INT64"}}}, {"name": "PartitionedCall/model_9/tf.strided_slice_7/ones_like", "op": "Const", "attr": {"value": {"tensor": {"dtype": "DT_INT64", "tensorShape": {"dim": [{"size": "4"}]}}}, "dtype": {"type": "DT_INT64"}}}, {"name": "PartitionedCall/model_9/tf.concat_11/concat/axis", "op": "Const", "attr": {"value": {"tensor": {"dtype": "DT_INT32", "tensorShape": {}}}, "dtype": {"type": "DT_INT32"}}}, {"name": "unknown_199", "op": "Const", "attr": {"value": {"tensor": {"dtype": "DT_FLOAT", "tensorShape": {"dim": [{"size": "3"}, {"size": "3"}, {"size": "224"}, {"size": "320"}]}}}, "dtype": {"type": "DT_FLOAT"}}}, {"name": "unknown_201", "op": "Const", "attr": {"value": {"tensor": {"dtype": "DT_FLOAT", "tensorShape": {"dim": [{"size": "320"}]}}}, "dtype": {"type": "DT_FLOAT"}}}, {"name": "unknown_205", "op": "Const", "attr": {"value": {"tensor": {"dtype": "DT_FLOAT", "tensorShape": {"dim": [{"size": "1"}, {"size": "1"}, {"size": "320"}, {"size": "320"}]}}}, "dtype": {"type": "DT_FLOAT"}}}, {"name": "unknown_208", "op": "Const", "attr": {"value": {"tensor": {"dtype": "DT_FLOAT", "tensorShape": {"dim": [{"size": "320"}]}}}, "dtype": {"type": "DT_FLOAT"}}}, {"name": "PartitionedCall/model_9/tf.concat_12/concat/axis", "op": "Const", "attr": {"value": {"tensor": {"dtype": "DT_INT32", "tensorShape": {}}}, "dtype": {"type": "DT_INT32"}}}, {"name": "unknown_213", "op": "Const", "attr": {"value": {"tensor": {"dtype": "DT_FLOAT", "tensorShape": {"dim": [{"size": "1"}, {"size": "1"}, {"size": "480"}, {"size": "320"}]}}}, "dtype": {"type": "DT_FLOAT"}}}, {"name": "unknown_215", "op": "Const", "attr": {"value": {"tensor": {"dtype": "DT_FLOAT", "tensorShape": {"dim": [{"size": "320"}]}}}, "dtype": {"type": "DT_FLOAT"}}}, {"name": "unknown_217", "op": "Const", "attr": {"value": {"tensor": {"dtype": "DT_INT32", "tensorShape": {"dim": [{"size": "4"}, {"size": "2"}]}}}, "dtype": {"type": "DT_INT32"}}}, {"name": "unknown_218", "op": "Const", "attr": {"value": {"tensor": {"dtype": "DT_FLOAT", "tensorShape": {"dim": [{"size": "3"}, {"size": "3"}, {"size": "320"}, {"size": "320"}]}}}, "dtype": {"type": "DT_FLOAT"}}}, {"name": "unknown_220", "op": "Const", "attr": {"value": {"tensor": {"dtype": "DT_FLOAT", "tensorShape": {"dim": [{"size": "320"}]}}}, "dtype": {"type": "DT_FLOAT"}}}, {"name": "unknown_209", "op": "Const", "attr": {"value": {"tensor": {"dtype": "DT_INT64", "tensorShape": {"dim": [{"size": "4"}]}}}, "dtype": {"type": "DT_INT64"}}}, {"name": "unknown_210", "op": "Const", "attr": {"value": {"tensor": {"dtype": "DT_INT64", "tensorShape": {"dim": [{"size": "4"}]}}}, "dtype": {"type": "DT_INT64"}}}, {"name": "PartitionedCall/model_9/tf.strided_slice_8/ones_like", "op": "Const", "attr": {"value": {"tensor": {"dtype": "DT_INT64", "tensorShape": {"dim": [{"size": "4"}]}}}, "dtype": {"type": "DT_INT64"}}}, {"name": "PartitionedCall/model_9/tf.math.reduce_mean_15/Mean/reduction_indices", "op": "Const", "attr": {"value": {"tensor": {"dtype": "DT_INT32", "tensorShape": {"dim": [{"size": "2"}]}}}, "dtype": {"type": "DT_INT32"}}}, {"name": "unknown_186", "op": "Const", "attr": {"value": {"tensor": {"dtype": "DT_FLOAT", "tensorShape": {"dim": [{"size": "1"}, {"size": "1"}, {"size": "1152"}, {"size": "48"}]}}}, "dtype": {"type": "DT_FLOAT"}}}, {"name": "unknown_188", "op": "Const", "attr": {"value": {"tensor": {"dtype": "DT_FLOAT", "tensorShape": {"dim": [{"size": "48"}]}}}, "dtype": {"type": "DT_FLOAT"}}}, {"name": "unknown_196", "op": "Const", "attr": {"value": {"tensor": {"dtype": "DT_FLOAT", "tensorShape": {"dim": [{"size": "1"}, {"size": "1"}, {"size": "48"}, {"size": "1152"}]}}}, "dtype": {"type": "DT_FLOAT"}}}, {"name": "unknown_198", "op": "Const", "attr": {"value": {"tensor": {"dtype": "DT_FLOAT", "tensorShape": {"dim": [{"size": "1152"}]}}}, "dtype": {"type": "DT_FLOAT"}}}, {"name": "unknown_159", "op": "Const", "attr": {"value": {"tensor": {"dtype": "DT_FLOAT", "tensorShape": {"dim": [{"size": "192"}]}}}, "dtype": {"type": "DT_FLOAT"}}}, {"name": "PartitionedCall/model_9/tf.math.reduce_mean_14/Mean/reduction_indices", "op": "Const", "attr": {"value": {"tensor": {"dtype": "DT_INT32", "tensorShape": {"dim": [{"size": "2"}]}}}, "dtype": {"type": "DT_INT32"}}}, {"name": "unknown_148", "op": "Const", "attr": {"value": {"tensor": {"dtype": "DT_FLOAT", "tensorShape": {"dim": [{"size": "1"}, {"size": "1"}, {"size": "1152"}, {"size": "48"}]}}}, "dtype": {"type": "DT_FLOAT"}}}, {"name": "unknown_149", "op": "Const", "attr": {"value": {"tensor": {"dtype": "DT_FLOAT", "tensorShape": {"dim": [{"size": "48"}]}}}, "dtype": {"type": "DT_FLOAT"}}}, {"name": "unknown_150", "op": "Const", "attr": {"value": {"tensor": {"dtype": "DT_FLOAT", "tensorShape": {"dim": [{"size": "1"}, {"size": "1"}, {"size": "48"}, {"size": "1152"}]}}}, "dtype": {"type": "DT_FLOAT"}}}, {"name": "unknown_151", "op": "Const", "attr": {"value": {"tensor": {"dtype": "DT_FLOAT", "tensorShape": {"dim": [{"size": "1152"}]}}}, "dtype": {"type": "DT_FLOAT"}}}, {"name": "unknown_144", "op": "Const", "attr": {"value": {"tensor": {"dtype": "DT_FLOAT", "tensorShape": {"dim": [{"size": "1"}, {"size": "1"}, {"size": "192"}, {"size": "1152"}]}}}, "dtype": {"type": "DT_FLOAT"}}}, {"name": "unknown_145", "op": "Const", "attr": {"value": {"tensor": {"dtype": "DT_FLOAT", "tensorShape": {"dim": [{"size": "1152"}]}}}, "dtype": {"type": "DT_FLOAT"}}}, {"name": "unknown_146", "op": "Const", "attr": {"value": {"tensor": {"dtype": "DT_FLOAT", "tensorShape": {"dim": [{"size": "5"}, {"size": "5"}, {"size": "1152"}, {"size": "1"}]}}}, "dtype": {"type": "DT_FLOAT"}}}, {"name": "unknown_147", "op": "Const", "attr": {"value": {"tensor": {"dtype": "DT_FLOAT", "tensorShape": {"dim": [{"size": "1152"}]}}}, "dtype": {"type": "DT_FLOAT"}}}, {"name": "unknown_157", "op": "Const", "attr": {"value": {"tensor": {"dtype": "DT_FLOAT", "tensorShape": {"dim": [{"size": "1"}, {"size": "1"}, {"size": "1152"}, {"size": "192"}]}}}, "dtype": {"type": "DT_FLOAT"}}}, {"name": "unknown_143", "op": "Const", "attr": {"value": {"tensor": {"dtype": "DT_FLOAT", "tensorShape": {"dim": [{"size": "192"}]}}}, "dtype": {"type": "DT_FLOAT"}}}, {"name": "PartitionedCall/model_9/tf.math.reduce_mean_13/Mean/reduction_indices", "op": "Const", "attr": {"value": {"tensor": {"dtype": "DT_INT32", "tensorShape": {"dim": [{"size": "2"}]}}}, "dtype": {"type": "DT_INT32"}}}, {"name": "unknown_138", "op": "Const", "attr": {"value": {"tensor": {"dtype": "DT_FLOAT", "tensorShape": {"dim": [{"size": "1"}, {"size": "1"}, {"size": "1152"}, {"size": "48"}]}}}, "dtype": {"type": "DT_FLOAT"}}}, {"name": "unknown_140", "op": "Const", "attr": {"value": {"tensor": {"dtype": "DT_FLOAT", "tensorShape": {"dim": [{"size": "1"}, {"size": "1"}, {"size": "48"}, {"size": "1152"}]}}}, "dtype": {"type": "DT_FLOAT"}}}, {"name": "unknown_141", "op": "Const", "attr": {"value": {"tensor": {"dtype": "DT_FLOAT", "tensorShape": {"dim": [{"size": "1152"}]}}}, "dtype": {"type": "DT_FLOAT"}}}, {"name": "unknown_134", "op": "Const", "attr": {"value": {"tensor": {"dtype": "DT_FLOAT", "tensorShape": {"dim": [{"size": "1"}, {"size": "1"}, {"size": "192"}, {"size": "1152"}]}}}, "dtype": {"type": "DT_FLOAT"}}}, {"name": "unknown_135", "op": "Const", "attr": {"value": {"tensor": {"dtype": "DT_FLOAT", "tensorShape": {"dim": [{"size": "1152"}]}}}, "dtype": {"type": "DT_FLOAT"}}}, {"name": "unknown_136", "op": "Const", "attr": {"value": {"tensor": {"dtype": "DT_FLOAT", "tensorShape": {"dim": [{"size": "5"}, {"size": "5"}, {"size": "1152"}, {"size": "1"}]}}}, "dtype": {"type": "DT_FLOAT"}}}, {"name": "unknown_137", "op": "Const", "attr": {"value": {"tensor": {"dtype": "DT_FLOAT", "tensorShape": {"dim": [{"size": "1152"}]}}}, "dtype": {"type": "DT_FLOAT"}}}, {"name": "unknown_142", "op": "Const", "attr": {"value": {"tensor": {"dtype": "DT_FLOAT", "tensorShape": {"dim": [{"size": "1"}, {"size": "1"}, {"size": "1152"}, {"size": "192"}]}}}, "dtype": {"type": "DT_FLOAT"}}}, {"name": "unknown_133", "op": "Const", "attr": {"value": {"tensor": {"dtype": "DT_FLOAT", "tensorShape": {"dim": [{"size": "192"}]}}}, "dtype": {"type": "DT_FLOAT"}}}, {"name": "PartitionedCall/model_9/tf.math.reduce_mean_12/Mean/reduction_indices", "op": "Const", "attr": {"value": {"tensor": {"dtype": "DT_INT32", "tensorShape": {"dim": [{"size": "2"}]}}}, "dtype": {"type": "DT_INT32"}}}, {"name": "unknown_128", "op": "Const", "attr": {"value": {"tensor": {"dtype": "DT_FLOAT", "tensorShape": {"dim": [{"size": "1"}, {"size": "1"}, {"size": "1152"}, {"size": "48"}]}}}, "dtype": {"type": "DT_FLOAT"}}}, {"name": "unknown_129", "op": "Const", "attr": {"value": {"tensor": {"dtype": "DT_FLOAT", "tensorShape": {"dim": [{"size": "48"}]}}}, "dtype": {"type": "DT_FLOAT"}}}, {"name": "unknown_130", "op": "Const", "attr": {"value": {"tensor": {"dtype": "DT_FLOAT", "tensorShape": {"dim": [{"size": "1"}, {"size": "1"}, {"size": "48"}, {"size": "1152"}]}}}, "dtype": {"type": "DT_FLOAT"}}}, {"name": "unknown_131", "op": "Const", "attr": {"value": {"tensor": {"dtype": "DT_FLOAT", "tensorShape": {"dim": [{"size": "1152"}]}}}, "dtype": {"type": "DT_FLOAT"}}}, {"name": "unknown_124", "op": "Const", "attr": {"value": {"tensor": {"dtype": "DT_FLOAT", "tensorShape": {"dim": [{"size": "1"}, {"size": "1"}, {"size": "192"}, {"size": "1152"}]}}}, "dtype": {"type": "DT_FLOAT"}}}, {"name": "unknown_125", "op": "Const", "attr": {"value": {"tensor": {"dtype": "DT_FLOAT", "tensorShape": {"dim": [{"size": "1152"}]}}}, "dtype": {"type": "DT_FLOAT"}}}, {"name": "unknown_126", "op": "Const", "attr": {"value": {"tensor": {"dtype": "DT_FLOAT", "tensorShape": {"dim": [{"size": "5"}, {"size": "5"}, {"size": "1152"}, {"size": "1"}]}}}, "dtype": {"type": "DT_FLOAT"}}}, {"name": "unknown_127", "op": "Const", "attr": {"value": {"tensor": {"dtype": "DT_FLOAT", "tensorShape": {"dim": [{"size": "1152"}]}}}, "dtype": {"type": "DT_FLOAT"}}}, {"name": "unknown_132", "op": "Const", "attr": {"value": {"tensor": {"dtype": "DT_FLOAT", "tensorShape": {"dim": [{"size": "1"}, {"size": "1"}, {"size": "1152"}, {"size": "192"}]}}}, "dtype": {"type": "DT_FLOAT"}}}, {"name": "PartitionedCall/model_9/tf.math.reduce_mean_11/Mean/reduction_indices", "op": "Const", "attr": {"value": {"tensor": {"dtype": "DT_INT32", "tensorShape": {"dim": [{"size": "2"}]}}}, "dtype": {"type": "DT_INT32"}}}, {"name": "unknown_118", "op": "Const", "attr": {"value": {"tensor": {"dtype": "DT_FLOAT", "tensorShape": {"dim": [{"size": "1"}, {"size": "1"}, {"size": "672"}, {"size": "28"}]}}}, "dtype": {"type": "DT_FLOAT"}}}, {"name": "unknown_119", "op": "Const", "attr": {"value": {"tensor": {"dtype": "DT_FLOAT", "tensorShape": {"dim": [{"size": "28"}]}}}, "dtype": {"type": "DT_FLOAT"}}}, {"name": "unknown_120", "op": "Const", "attr": {"value": {"tensor": {"dtype": "DT_FLOAT", "tensorShape": {"dim": [{"size": "1"}, {"size": "1"}, {"size": "28"}, {"size": "672"}]}}}, "dtype": {"type": "DT_FLOAT"}}}, {"name": "unknown_121", "op": "Const", "attr": {"value": {"tensor": {"dtype": "DT_FLOAT", "tensorShape": {"dim": [{"size": "672"}]}}}, "dtype": {"type": "DT_FLOAT"}}}, {"name": "unknown_112", "op": "Const", "attr": {"value": {"tensor": {"dtype": "DT_FLOAT", "tensorShape": {"dim": [{"size": "112"}]}}}, "dtype": {"type": "DT_FLOAT"}}}, {"name": "PartitionedCall/model_9/tf.math.reduce_mean_10/Mean/reduction_indices", "op": "Const", "attr": {"value": {"tensor": {"dtype": "DT_INT32", "tensorShape": {"dim": [{"size": "2"}]}}}, "dtype": {"type": "DT_INT32"}}}, {"name": "unknown_107", "op": "Const", "attr": {"value": {"tensor": {"dtype": "DT_FLOAT", "tensorShape": {"dim": [{"size": "1"}, {"size": "1"}, {"size": "672"}, {"size": "28"}]}}}, "dtype": {"type": "DT_FLOAT"}}}, {"name": "unknown_108", "op": "Const", "attr": {"value": {"tensor": {"dtype": "DT_FLOAT", "tensorShape": {"dim": [{"size": "28"}]}}}, "dtype": {"type": "DT_FLOAT"}}}, {"name": "unknown_109", "op": "Const", "attr": {"value": {"tensor": {"dtype": "DT_FLOAT", "tensorShape": {"dim": [{"size": "1"}, {"size": "1"}, {"size": "28"}, {"size": "672"}]}}}, "dtype": {"type": "DT_FLOAT"}}}, {"name": "unknown_110", "op": "Const", "attr": {"value": {"tensor": {"dtype": "DT_FLOAT", "tensorShape": {"dim": [{"size": "672"}]}}}, "dtype": {"type": "DT_FLOAT"}}}, {"name": "unknown_103", "op": "Const", "attr": {"value": {"tensor": {"dtype": "DT_FLOAT", "tensorShape": {"dim": [{"size": "1"}, {"size": "1"}, {"size": "112"}, {"size": "672"}]}}}, "dtype": {"type": "DT_FLOAT"}}}, {"name": "unknown_104", "op": "Const", "attr": {"value": {"tensor": {"dtype": "DT_FLOAT", "tensorShape": {"dim": [{"size": "672"}]}}}, "dtype": {"type": "DT_FLOAT"}}}, {"name": "unknown_105", "op": "Const", "attr": {"value": {"tensor": {"dtype": "DT_FLOAT", "tensorShape": {"dim": [{"size": "5"}, {"size": "5"}, {"size": "672"}, {"size": "1"}]}}}, "dtype": {"type": "DT_FLOAT"}}}, {"name": "unknown_106", "op": "Const", "attr": {"value": {"tensor": {"dtype": "DT_FLOAT", "tensorShape": {"dim": [{"size": "672"}]}}}, "dtype": {"type": "DT_FLOAT"}}}, {"name": "unknown_111", "op": "Const", "attr": {"value": {"tensor": {"dtype": "DT_FLOAT", "tensorShape": {"dim": [{"size": "1"}, {"size": "1"}, {"size": "672"}, {"size": "112"}]}}}, "dtype": {"type": "DT_FLOAT"}}}, {"name": "unknown_102", "op": "Const", "attr": {"value": {"tensor": {"dtype": "DT_FLOAT", "tensorShape": {"dim": [{"size": "112"}]}}}, "dtype": {"type": "DT_FLOAT"}}}, {"name": "PartitionedCall/model_9/tf.math.reduce_mean_9/Mean/reduction_indices", "op": "Const", "attr": {"value": {"tensor": {"dtype": "DT_INT32", "tensorShape": {"dim": [{"size": "2"}]}}}, "dtype": {"type": "DT_INT32"}}}, {"name": "unknown_97", "op": "Const", "attr": {"value": {"tensor": {"dtype": "DT_FLOAT", "tensorShape": {"dim": [{"size": "1"}, {"size": "1"}, {"size": "672"}, {"size": "28"}]}}}, "dtype": {"type": "DT_FLOAT"}}}, {"name": "unknown_98", "op": "Const", "attr": {"value": {"tensor": {"dtype": "DT_FLOAT", "tensorShape": {"dim": [{"size": "28"}]}}}, "dtype": {"type": "DT_FLOAT"}}}, {"name": "unknown_99", "op": "Const", "attr": {"value": {"tensor": {"dtype": "DT_FLOAT", "tensorShape": {"dim": [{"size": "1"}, {"size": "1"}, {"size": "28"}, {"size": "672"}]}}}, "dtype": {"type": "DT_FLOAT"}}}, {"name": "unknown_100", "op": "Const", "attr": {"value": {"tensor": {"dtype": "DT_FLOAT", "tensorShape": {"dim": [{"size": "672"}]}}}, "dtype": {"type": "DT_FLOAT"}}}, {"name": "unknown_93", "op": "Const", "attr": {"value": {"tensor": {"dtype": "DT_FLOAT", "tensorShape": {"dim": [{"size": "1"}, {"size": "1"}, {"size": "112"}, {"size": "672"}]}}}, "dtype": {"type": "DT_FLOAT"}}}, {"name": "unknown_94", "op": "Const", "attr": {"value": {"tensor": {"dtype": "DT_FLOAT", "tensorShape": {"dim": [{"size": "672"}]}}}, "dtype": {"type": "DT_FLOAT"}}}, {"name": "unknown_95", "op": "Const", "attr": {"value": {"tensor": {"dtype": "DT_FLOAT", "tensorShape": {"dim": [{"size": "5"}, {"size": "5"}, {"size": "672"}, {"size": "1"}]}}}, "dtype": {"type": "DT_FLOAT"}}}, {"name": "unknown_96", "op": "Const", "attr": {"value": {"tensor": {"dtype": "DT_FLOAT", "tensorShape": {"dim": [{"size": "672"}]}}}, "dtype": {"type": "DT_FLOAT"}}}, {"name": "unknown_101", "op": "Const", "attr": {"value": {"tensor": {"dtype": "DT_FLOAT", "tensorShape": {"dim": [{"size": "1"}, {"size": "1"}, {"size": "672"}, {"size": "112"}]}}}, "dtype": {"type": "DT_FLOAT"}}}, {"name": "PartitionedCall/model_9/tf.math.reduce_mean_8/Mean/reduction_indices", "op": "Const", "attr": {"value": {"tensor": {"dtype": "DT_INT32", "tensorShape": {"dim": [{"size": "2"}]}}}, "dtype": {"type": "DT_INT32"}}}, {"name": "unknown_87", "op": "Const", "attr": {"value": {"tensor": {"dtype": "DT_FLOAT", "tensorShape": {"dim": [{"size": "1"}, {"size": "1"}, {"size": "480"}, {"size": "20"}]}}}, "dtype": {"type": "DT_FLOAT"}}}, {"name": "unknown_88", "op": "Const", "attr": {"value": {"tensor": {"dtype": "DT_FLOAT", "tensorShape": {"dim": [{"size": "20"}]}}}, "dtype": {"type": "DT_FLOAT"}}}, {"name": "unknown_89", "op": "Const", "attr": {"value": {"tensor": {"dtype": "DT_FLOAT", "tensorShape": {"dim": [{"size": "1"}, {"size": "1"}, {"size": "20"}, {"size": "480"}]}}}, "dtype": {"type": "DT_FLOAT"}}}, {"name": "unknown_90", "op": "Const", "attr": {"value": {"tensor": {"dtype": "DT_FLOAT", "tensorShape": {"dim": [{"size": "480"}]}}}, "dtype": {"type": "DT_FLOAT"}}}, {"name": "unknown_82", "op": "Const", "attr": {"value": {"tensor": {"dtype": "DT_FLOAT", "tensorShape": {"dim": [{"size": "80"}]}}}, "dtype": {"type": "DT_FLOAT"}}}, {"name": "PartitionedCall/model_9/tf.math.reduce_mean_7/Mean/reduction_indices", "op": "Const", "attr": {"value": {"tensor": {"dtype": "DT_INT32", "tensorShape": {"dim": [{"size": "2"}]}}}, "dtype": {"type": "DT_INT32"}}}, {"name": "unknown_77", "op": "Const", "attr": {"value": {"tensor": {"dtype": "DT_FLOAT", "tensorShape": {"dim": [{"size": "1"}, {"size": "1"}, {"size": "480"}, {"size": "20"}]}}}, "dtype": {"type": "DT_FLOAT"}}}, {"name": "unknown_78", "op": "Const", "attr": {"value": {"tensor": {"dtype": "DT_FLOAT", "tensorShape": {"dim": [{"size": "20"}]}}}, "dtype": {"type": "DT_FLOAT"}}}, {"name": "unknown_79", "op": "Const", "attr": {"value": {"tensor": {"dtype": "DT_FLOAT", "tensorShape": {"dim": [{"size": "1"}, {"size": "1"}, {"size": "20"}, {"size": "480"}]}}}, "dtype": {"type": "DT_FLOAT"}}}, {"name": "unknown_80", "op": "Const", "attr": {"value": {"tensor": {"dtype": "DT_FLOAT", "tensorShape": {"dim": [{"size": "480"}]}}}, "dtype": {"type": "DT_FLOAT"}}}, {"name": "unknown_73", "op": "Const", "attr": {"value": {"tensor": {"dtype": "DT_FLOAT", "tensorShape": {"dim": [{"size": "1"}, {"size": "1"}, {"size": "80"}, {"size": "480"}]}}}, "dtype": {"type": "DT_FLOAT"}}}, {"name": "unknown_74", "op": "Const", "attr": {"value": {"tensor": {"dtype": "DT_FLOAT", "tensorShape": {"dim": [{"size": "480"}]}}}, "dtype": {"type": "DT_FLOAT"}}}, {"name": "unknown_75", "op": "Const", "attr": {"value": {"tensor": {"dtype": "DT_FLOAT", "tensorShape": {"dim": [{"size": "3"}, {"size": "3"}, {"size": "480"}, {"size": "1"}]}}}, "dtype": {"type": "DT_FLOAT"}}}, {"name": "unknown_76", "op": "Const", "attr": {"value": {"tensor": {"dtype": "DT_FLOAT", "tensorShape": {"dim": [{"size": "480"}]}}}, "dtype": {"type": "DT_FLOAT"}}}, {"name": "unknown_81", "op": "Const", "attr": {"value": {"tensor": {"dtype": "DT_FLOAT", "tensorShape": {"dim": [{"size": "1"}, {"size": "1"}, {"size": "480"}, {"size": "80"}]}}}, "dtype": {"type": "DT_FLOAT"}}}, {"name": "unknown_72", "op": "Const", "attr": {"value": {"tensor": {"dtype": "DT_FLOAT", "tensorShape": {"dim": [{"size": "80"}]}}}, "dtype": {"type": "DT_FLOAT"}}}, {"name": "PartitionedCall/model_9/tf.math.reduce_mean_6/Mean/reduction_indices", "op": "Const", "attr": {"value": {"tensor": {"dtype": "DT_INT32", "tensorShape": {"dim": [{"size": "2"}]}}}, "dtype": {"type": "DT_INT32"}}}, {"name": "unknown_67", "op": "Const", "attr": {"value": {"tensor": {"dtype": "DT_FLOAT", "tensorShape": {"dim": [{"size": "1"}, {"size": "1"}, {"size": "480"}, {"size": "20"}]}}}, "dtype": {"type": "DT_FLOAT"}}}, {"name": "unknown_68", "op": "Const", "attr": {"value": {"tensor": {"dtype": "DT_FLOAT", "tensorShape": {"dim": [{"size": "20"}]}}}, "dtype": {"type": "DT_FLOAT"}}}, {"name": "unknown_69", "op": "Const", "attr": {"value": {"tensor": {"dtype": "DT_FLOAT", "tensorShape": {"dim": [{"size": "1"}, {"size": "1"}, {"size": "20"}, {"size": "480"}]}}}, "dtype": {"type": "DT_FLOAT"}}}, {"name": "unknown_70", "op": "Const", "attr": {"value": {"tensor": {"dtype": "DT_FLOAT", "tensorShape": {"dim": [{"size": "480"}]}}}, "dtype": {"type": "DT_FLOAT"}}}, {"name": "unknown_63", "op": "Const", "attr": {"value": {"tensor": {"dtype": "DT_FLOAT", "tensorShape": {"dim": [{"size": "1"}, {"size": "1"}, {"size": "80"}, {"size": "480"}]}}}, "dtype": {"type": "DT_FLOAT"}}}, {"name": "unknown_64", "op": "Const", "attr": {"value": {"tensor": {"dtype": "DT_FLOAT", "tensorShape": {"dim": [{"size": "480"}]}}}, "dtype": {"type": "DT_FLOAT"}}}, {"name": "unknown_65", "op": "Const", "attr": {"value": {"tensor": {"dtype": "DT_FLOAT", "tensorShape": {"dim": [{"size": "3"}, {"size": "3"}, {"size": "480"}, {"size": "1"}]}}}, "dtype": {"type": "DT_FLOAT"}}}, {"name": "unknown_66", "op": "Const", "attr": {"value": {"tensor": {"dtype": "DT_FLOAT", "tensorShape": {"dim": [{"size": "480"}]}}}, "dtype": {"type": "DT_FLOAT"}}}, {"name": "unknown_71", "op": "Const", "attr": {"value": {"tensor": {"dtype": "DT_FLOAT", "tensorShape": {"dim": [{"size": "1"}, {"size": "1"}, {"size": "480"}, {"size": "80"}]}}}, "dtype": {"type": "DT_FLOAT"}}}, {"name": "PartitionedCall/model_9/tf.math.reduce_mean_5/Mean/reduction_indices", "op": "Const", "attr": {"value": {"tensor": {"dtype": "DT_INT32", "tensorShape": {"dim": [{"size": "2"}]}}}, "dtype": {"type": "DT_INT32"}}}, {"name": "unknown_57", "op": "Const", "attr": {"value": {"tensor": {"dtype": "DT_FLOAT", "tensorShape": {"dim": [{"size": "1"}, {"size": "1"}, {"size": "240"}, {"size": "10"}]}}}, "dtype": {"type": "DT_FLOAT"}}}, {"name": "unknown_58", "op": "Const", "attr": {"value": {"tensor": {"dtype": "DT_FLOAT", "tensorShape": {"dim": [{"size": "10"}]}}}, "dtype": {"type": "DT_FLOAT"}}}, {"name": "unknown_59", "op": "Const", "attr": {"value": {"tensor": {"dtype": "DT_FLOAT", "tensorShape": {"dim": [{"size": "1"}, {"size": "1"}, {"size": "10"}, {"size": "240"}]}}}, "dtype": {"type": "DT_FLOAT"}}}, {"name": "unknown_60", "op": "Const", "attr": {"value": {"tensor": {"dtype": "DT_FLOAT", "tensorShape": {"dim": [{"size": "240"}]}}}, "dtype": {"type": "DT_FLOAT"}}}, {"name": "unknown_51", "op": "Const", "attr": {"value": {"tensor": {"dtype": "DT_FLOAT", "tensorShape": {"dim": [{"size": "40"}]}}}, "dtype": {"type": "DT_FLOAT"}}}, {"name": "PartitionedCall/model_9/tf.math.reduce_mean_4/Mean/reduction_indices", "op": "Const", "attr": {"value": {"tensor": {"dtype": "DT_INT32", "tensorShape": {"dim": [{"size": "2"}]}}}, "dtype": {"type": "DT_INT32"}}}, {"name": "unknown_46", "op": "Const", "attr": {"value": {"tensor": {"dtype": "DT_FLOAT", "tensorShape": {"dim": [{"size": "1"}, {"size": "1"}, {"size": "240"}, {"size": "10"}]}}}, "dtype": {"type": "DT_FLOAT"}}}, {"name": "unknown_47", "op": "Const", "attr": {"value": {"tensor": {"dtype": "DT_FLOAT", "tensorShape": {"dim": [{"size": "10"}]}}}, "dtype": {"type": "DT_FLOAT"}}}, {"name": "unknown_48", "op": "Const", "attr": {"value": {"tensor": {"dtype": "DT_FLOAT", "tensorShape": {"dim": [{"size": "1"}, {"size": "1"}, {"size": "10"}, {"size": "240"}]}}}, "dtype": {"type": "DT_FLOAT"}}}, {"name": "unknown_49", "op": "Const", "attr": {"value": {"tensor": {"dtype": "DT_FLOAT", "tensorShape": {"dim": [{"size": "240"}]}}}, "dtype": {"type": "DT_FLOAT"}}}, {"name": "unknown_42", "op": "Const", "attr": {"value": {"tensor": {"dtype": "DT_FLOAT", "tensorShape": {"dim": [{"size": "1"}, {"size": "1"}, {"size": "40"}, {"size": "240"}]}}}, "dtype": {"type": "DT_FLOAT"}}}, {"name": "unknown_43", "op": "Const", "attr": {"value": {"tensor": {"dtype": "DT_FLOAT", "tensorShape": {"dim": [{"size": "240"}]}}}, "dtype": {"type": "DT_FLOAT"}}}, {"name": "unknown_44", "op": "Const", "attr": {"value": {"tensor": {"dtype": "DT_FLOAT", "tensorShape": {"dim": [{"size": "5"}, {"size": "5"}, {"size": "240"}, {"size": "1"}]}}}, "dtype": {"type": "DT_FLOAT"}}}, {"name": "unknown_45", "op": "Const", "attr": {"value": {"tensor": {"dtype": "DT_FLOAT", "tensorShape": {"dim": [{"size": "240"}]}}}, "dtype": {"type": "DT_FLOAT"}}}, {"name": "unknown_50", "op": "Const", "attr": {"value": {"tensor": {"dtype": "DT_FLOAT", "tensorShape": {"dim": [{"size": "1"}, {"size": "1"}, {"size": "240"}, {"size": "40"}]}}}, "dtype": {"type": "DT_FLOAT"}}}, {"name": "PartitionedCall/model_9/tf.math.reduce_mean_3/Mean/reduction_indices", "op": "Const", "attr": {"value": {"tensor": {"dtype": "DT_INT32", "tensorShape": {"dim": [{"size": "2"}]}}}, "dtype": {"type": "DT_INT32"}}}, {"name": "unknown_36", "op": "Const", "attr": {"value": {"tensor": {"dtype": "DT_FLOAT", "tensorShape": {"dim": [{"size": "1"}, {"size": "1"}, {"size": "144"}, {"size": "6"}]}}}, "dtype": {"type": "DT_FLOAT"}}}, {"name": "unknown_37", "op": "Const", "attr": {"value": {"tensor": {"dtype": "DT_FLOAT", "tensorShape": {"dim": [{"size": "6"}]}}}, "dtype": {"type": "DT_FLOAT"}}}, {"name": "unknown_38", "op": "Const", "attr": {"value": {"tensor": {"dtype": "DT_FLOAT", "tensorShape": {"dim": [{"size": "1"}, {"size": "1"}, {"size": "6"}, {"size": "144"}]}}}, "dtype": {"type": "DT_FLOAT"}}}, {"name": "unknown_39", "op": "Const", "attr": {"value": {"tensor": {"dtype": "DT_FLOAT", "tensorShape": {"dim": [{"size": "144"}]}}}, "dtype": {"type": "DT_FLOAT"}}}, {"name": "unknown_30", "op": "Const", "attr": {"value": {"tensor": {"dtype": "DT_FLOAT", "tensorShape": {"dim": [{"size": "24"}]}}}, "dtype": {"type": "DT_FLOAT"}}}, {"name": "PartitionedCall/model_9/tf.math.reduce_mean_2/Mean/reduction_indices", "op": "Const", "attr": {"value": {"tensor": {"dtype": "DT_INT32", "tensorShape": {"dim": [{"size": "2"}]}}}, "dtype": {"type": "DT_INT32"}}}, {"name": "unknown_25", "op": "Const", "attr": {"value": {"tensor": {"dtype": "DT_FLOAT", "tensorShape": {"dim": [{"size": "1"}, {"size": "1"}, {"size": "144"}, {"size": "6"}]}}}, "dtype": {"type": "DT_FLOAT"}}}, {"name": "unknown_26", "op": "Const", "attr": {"value": {"tensor": {"dtype": "DT_FLOAT", "tensorShape": {"dim": [{"size": "6"}]}}}, "dtype": {"type": "DT_FLOAT"}}}, {"name": "unknown_27", "op": "Const", "attr": {"value": {"tensor": {"dtype": "DT_FLOAT", "tensorShape": {"dim": [{"size": "1"}, {"size": "1"}, {"size": "6"}, {"size": "144"}]}}}, "dtype": {"type": "DT_FLOAT"}}}, {"name": "unknown_28", "op": "Const", "attr": {"value": {"tensor": {"dtype": "DT_FLOAT", "tensorShape": {"dim": [{"size": "144"}]}}}, "dtype": {"type": "DT_FLOAT"}}}, {"name": "unknown_21", "op": "Const", "attr": {"value": {"tensor": {"dtype": "DT_FLOAT", "tensorShape": {"dim": [{"size": "1"}, {"size": "1"}, {"size": "24"}, {"size": "144"}]}}}, "dtype": {"type": "DT_FLOAT"}}}, {"name": "unknown_22", "op": "Const", "attr": {"value": {"tensor": {"dtype": "DT_FLOAT", "tensorShape": {"dim": [{"size": "144"}]}}}, "dtype": {"type": "DT_FLOAT"}}}, {"name": "unknown_23", "op": "Const", "attr": {"value": {"tensor": {"dtype": "DT_FLOAT", "tensorShape": {"dim": [{"size": "3"}, {"size": "3"}, {"size": "144"}, {"size": "1"}]}}}, "dtype": {"type": "DT_FLOAT"}}}, {"name": "unknown_24", "op": "Const", "attr": {"value": {"tensor": {"dtype": "DT_FLOAT", "tensorShape": {"dim": [{"size": "144"}]}}}, "dtype": {"type": "DT_FLOAT"}}}, {"name": "unknown_29", "op": "Const", "attr": {"value": {"tensor": {"dtype": "DT_FLOAT", "tensorShape": {"dim": [{"size": "1"}, {"size": "1"}, {"size": "144"}, {"size": "24"}]}}}, "dtype": {"type": "DT_FLOAT"}}}, {"name": "PartitionedCall/model_9/tf.math.reduce_mean_1/Mean/reduction_indices", "op": "Const", "attr": {"value": {"tensor": {"dtype": "DT_INT32", "tensorShape": {"dim": [{"size": "2"}]}}}, "dtype": {"type": "DT_INT32"}}}, {"name": "unknown_15", "op": "Const", "attr": {"value": {"tensor": {"dtype": "DT_FLOAT", "tensorShape": {"dim": [{"size": "1"}, {"size": "1"}, {"size": "96"}, {"size": "4"}]}}}, "dtype": {"type": "DT_FLOAT"}}}, {"name": "unknown_16", "op": "Const", "attr": {"value": {"tensor": {"dtype": "DT_FLOAT", "tensorShape": {"dim": [{"size": "4"}]}}}, "dtype": {"type": "DT_FLOAT"}}}, {"name": "unknown_17", "op": "Const", "attr": {"value": {"tensor": {"dtype": "DT_FLOAT", "tensorShape": {"dim": [{"size": "1"}, {"size": "1"}, {"size": "4"}, {"size": "96"}]}}}, "dtype": {"type": "DT_FLOAT"}}}, {"name": "unknown_18", "op": "Const", "attr": {"value": {"tensor": {"dtype": "DT_FLOAT", "tensorShape": {"dim": [{"size": "96"}]}}}, "dtype": {"type": "DT_FLOAT"}}}, {"name": "PartitionedCall/model_9/tf.math.reduce_mean/Mean/reduction_indices", "op": "Const", "attr": {"value": {"tensor": {"dtype": "DT_INT32", "tensorShape": {"dim": [{"size": "2"}]}}}, "dtype": {"type": "DT_INT32"}}}, {"name": "unknown_4", "op": "Const", "attr": {"value": {"tensor": {"dtype": "DT_FLOAT", "tensorShape": {"dim": [{"size": "1"}, {"size": "1"}, {"size": "32"}, {"size": "8"}]}}}, "dtype": {"type": "DT_FLOAT"}}}, {"name": "unknown_5", "op": "Const", "attr": {"value": {"tensor": {"dtype": "DT_FLOAT", "tensorShape": {"dim": [{"size": "8"}]}}}, "dtype": {"type": "DT_FLOAT"}}}, {"name": "unknown_6", "op": "Const", "attr": {"value": {"tensor": {"dtype": "DT_FLOAT", "tensorShape": {"dim": [{"size": "1"}, {"size": "1"}, {"size": "8"}, {"size": "32"}]}}}, "dtype": {"type": "DT_FLOAT"}}}, {"name": "unknown_7", "op": "Const", "attr": {"value": {"tensor": {"dtype": "DT_FLOAT", "tensorShape": {"dim": [{"size": "32"}]}}}, "dtype": {"type": "DT_FLOAT"}}}, {"name": "PartitionedCall/model_9/tf.concat_5/concat/axis", "op": "Const", "attr": {"value": {"tensor": {"dtype": "DT_INT32", "tensorShape": {}}}, "dtype": {"type": "DT_INT32"}}}, {"name": "unknown", "op": "Const", "attr": {"value": {"tensor": {"dtype": "DT_INT32", "tensorShape": {"dim": [{"size": "4"}, {"size": "2"}]}}}, "dtype": {"type": "DT_INT32"}}}, {"name": "unknown_0", "op": "Const", "attr": {"value": {"tensor": {"dtype": "DT_FLOAT", "tensorShape": {"dim": [{"size": "3"}, {"size": "3"}, {"size": "3"}, {"size": "32"}]}}}, "dtype": {"type": "DT_FLOAT"}}}, {"name": "unknown_1", "op": "Const", "attr": {"value": {"tensor": {"dtype": "DT_FLOAT", "tensorShape": {"dim": [{"size": "32"}]}}}, "dtype": {"type": "DT_FLOAT"}}}, {"name": "unknown_2", "op": "Const", "attr": {"value": {"tensor": {"dtype": "DT_FLOAT", "tensorShape": {"dim": [{"size": "3"}, {"size": "3"}, {"size": "32"}, {"size": "1"}]}}}, "dtype": {"type": "DT_FLOAT"}}}, {"name": "unknown_3", "op": "Const", "attr": {"value": {"tensor": {"dtype": "DT_FLOAT", "tensorShape": {"dim": [{"size": "32"}]}}}, "dtype": {"type": "DT_FLOAT"}}}, {"name": "unknown_8", "op": "Const", "attr": {"value": {"tensor": {"dtype": "DT_FLOAT", "tensorShape": {"dim": [{"size": "1"}, {"size": "1"}, {"size": "32"}, {"size": "16"}]}}}, "dtype": {"type": "DT_FLOAT"}}}, {"name": "unknown_9", "op": "Const", "attr": {"value": {"tensor": {"dtype": "DT_FLOAT", "tensorShape": {"dim": [{"size": "16"}]}}}, "dtype": {"type": "DT_FLOAT"}}}, {"name": "unknown_10", "op": "Const", "attr": {"value": {"tensor": {"dtype": "DT_FLOAT", "tensorShape": {"dim": [{"size": "1"}, {"size": "1"}, {"size": "16"}, {"size": "96"}]}}}, "dtype": {"type": "DT_FLOAT"}}}, {"name": "unknown_11", "op": "Const", "attr": {"value": {"tensor": {"dtype": "DT_FLOAT", "tensorShape": {"dim": [{"size": "96"}]}}}, "dtype": {"type": "DT_FLOAT"}}}, {"name": "unknown_12", "op": "Const", "attr": {"value": {"tensor": {"dtype": "DT_INT32", "tensorShape": {"dim": [{"size": "4"}, {"size": "2"}]}}}, "dtype": {"type": "DT_INT32"}}}, {"name": "unknown_13", "op": "Const", "attr": {"value": {"tensor": {"dtype": "DT_FLOAT", "tensorShape": {"dim": [{"size": "3"}, {"size": "3"}, {"size": "96"}, {"size": "1"}]}}}, "dtype": {"type": "DT_FLOAT"}}}, {"name": "unknown_14", "op": "Const", "attr": {"value": {"tensor": {"dtype": "DT_FLOAT", "tensorShape": {"dim": [{"size": "96"}]}}}, "dtype": {"type": "DT_FLOAT"}}}, {"name": "unknown_19", "op": "Const", "attr": {"value": {"tensor": {"dtype": "DT_FLOAT", "tensorShape": {"dim": [{"size": "1"}, {"size": "1"}, {"size": "96"}, {"size": "24"}]}}}, "dtype": {"type": "DT_FLOAT"}}}, {"name": "unknown_20", "op": "Const", "attr": {"value": {"tensor": {"dtype": "DT_FLOAT", "tensorShape": {"dim": [{"size": "24"}]}}}, "dtype": {"type": "DT_FLOAT"}}}, {"name": "unknown_31", "op": "Const", "attr": {"value": {"tensor": {"dtype": "DT_FLOAT", "tensorShape": {"dim": [{"size": "1"}, {"size": "1"}, {"size": "24"}, {"size": "144"}]}}}, "dtype": {"type": "DT_FLOAT"}}}, {"name": "unknown_32", "op": "Const", "attr": {"value": {"tensor": {"dtype": "DT_FLOAT", "tensorShape": {"dim": [{"size": "144"}]}}}, "dtype": {"type": "DT_FLOAT"}}}, {"name": "unknown_33", "op": "Const", "attr": {"value": {"tensor": {"dtype": "DT_INT32", "tensorShape": {"dim": [{"size": "4"}, {"size": "2"}]}}}, "dtype": {"type": "DT_INT32"}}}, {"name": "unknown_34", "op": "Const", "attr": {"value": {"tensor": {"dtype": "DT_FLOAT", "tensorShape": {"dim": [{"size": "5"}, {"size": "5"}, {"size": "144"}, {"size": "1"}]}}}, "dtype": {"type": "DT_FLOAT"}}}, {"name": "unknown_35", "op": "Const", "attr": {"value": {"tensor": {"dtype": "DT_FLOAT", "tensorShape": {"dim": [{"size": "144"}]}}}, "dtype": {"type": "DT_FLOAT"}}}, {"name": "unknown_40", "op": "Const", "attr": {"value": {"tensor": {"dtype": "DT_FLOAT", "tensorShape": {"dim": [{"size": "1"}, {"size": "1"}, {"size": "144"}, {"size": "40"}]}}}, "dtype": {"type": "DT_FLOAT"}}}, {"name": "unknown_41", "op": "Const", "attr": {"value": {"tensor": {"dtype": "DT_FLOAT", "tensorShape": {"dim": [{"size": "40"}]}}}, "dtype": {"type": "DT_FLOAT"}}}, {"name": "unknown_52", "op": "Const", "attr": {"value": {"tensor": {"dtype": "DT_FLOAT", "tensorShape": {"dim": [{"size": "1"}, {"size": "1"}, {"size": "40"}, {"size": "240"}]}}}, "dtype": {"type": "DT_FLOAT"}}}, {"name": "unknown_53", "op": "Const", "attr": {"value": {"tensor": {"dtype": "DT_FLOAT", "tensorShape": {"dim": [{"size": "240"}]}}}, "dtype": {"type": "DT_FLOAT"}}}, {"name": "unknown_54", "op": "Const", "attr": {"value": {"tensor": {"dtype": "DT_INT32", "tensorShape": {"dim": [{"size": "4"}, {"size": "2"}]}}}, "dtype": {"type": "DT_INT32"}}}, {"name": "unknown_55", "op": "Const", "attr": {"value": {"tensor": {"dtype": "DT_FLOAT", "tensorShape": {"dim": [{"size": "3"}, {"size": "3"}, {"size": "240"}, {"size": "1"}]}}}, "dtype": {"type": "DT_FLOAT"}}}, {"name": "unknown_56", "op": "Const", "attr": {"value": {"tensor": {"dtype": "DT_FLOAT", "tensorShape": {"dim": [{"size": "240"}]}}}, "dtype": {"type": "DT_FLOAT"}}}, {"name": "unknown_61", "op": "Const", "attr": {"value": {"tensor": {"dtype": "DT_FLOAT", "tensorShape": {"dim": [{"size": "1"}, {"size": "1"}, {"size": "240"}, {"size": "80"}]}}}, "dtype": {"type": "DT_FLOAT"}}}, {"name": "unknown_62", "op": "Const", "attr": {"value": {"tensor": {"dtype": "DT_FLOAT", "tensorShape": {"dim": [{"size": "80"}]}}}, "dtype": {"type": "DT_FLOAT"}}}, {"name": "unknown_83", "op": "Const", "attr": {"value": {"tensor": {"dtype": "DT_FLOAT", "tensorShape": {"dim": [{"size": "1"}, {"size": "1"}, {"size": "80"}, {"size": "480"}]}}}, "dtype": {"type": "DT_FLOAT"}}}, {"name": "unknown_84", "op": "Const", "attr": {"value": {"tensor": {"dtype": "DT_FLOAT", "tensorShape": {"dim": [{"size": "480"}]}}}, "dtype": {"type": "DT_FLOAT"}}}, {"name": "unknown_85", "op": "Const", "attr": {"value": {"tensor": {"dtype": "DT_FLOAT", "tensorShape": {"dim": [{"size": "5"}, {"size": "5"}, {"size": "480"}, {"size": "1"}]}}}, "dtype": {"type": "DT_FLOAT"}}}, {"name": "unknown_86", "op": "Const", "attr": {"value": {"tensor": {"dtype": "DT_FLOAT", "tensorShape": {"dim": [{"size": "480"}]}}}, "dtype": {"type": "DT_FLOAT"}}}, {"name": "unknown_91", "op": "Const", "attr": {"value": {"tensor": {"dtype": "DT_FLOAT", "tensorShape": {"dim": [{"size": "1"}, {"size": "1"}, {"size": "480"}, {"size": "112"}]}}}, "dtype": {"type": "DT_FLOAT"}}}, {"name": "unknown_92", "op": "Const", "attr": {"value": {"tensor": {"dtype": "DT_FLOAT", "tensorShape": {"dim": [{"size": "112"}]}}}, "dtype": {"type": "DT_FLOAT"}}}, {"name": "unknown_113", "op": "Const", "attr": {"value": {"tensor": {"dtype": "DT_FLOAT", "tensorShape": {"dim": [{"size": "1"}, {"size": "1"}, {"size": "112"}, {"size": "672"}]}}}, "dtype": {"type": "DT_FLOAT"}}}, {"name": "unknown_114", "op": "Const", "attr": {"value": {"tensor": {"dtype": "DT_FLOAT", "tensorShape": {"dim": [{"size": "672"}]}}}, "dtype": {"type": "DT_FLOAT"}}}, {"name": "unknown_115", "op": "Const", "attr": {"value": {"tensor": {"dtype": "DT_INT32", "tensorShape": {"dim": [{"size": "4"}, {"size": "2"}]}}}, "dtype": {"type": "DT_INT32"}}}, {"name": "unknown_116", "op": "Const", "attr": {"value": {"tensor": {"dtype": "DT_FLOAT", "tensorShape": {"dim": [{"size": "5"}, {"size": "5"}, {"size": "672"}, {"size": "1"}]}}}, "dtype": {"type": "DT_FLOAT"}}}, {"name": "unknown_117", "op": "Const", "attr": {"value": {"tensor": {"dtype": "DT_FLOAT", "tensorShape": {"dim": [{"size": "672"}]}}}, "dtype": {"type": "DT_FLOAT"}}}, {"name": "unknown_122", "op": "Const", "attr": {"value": {"tensor": {"dtype": "DT_FLOAT", "tensorShape": {"dim": [{"size": "1"}, {"size": "1"}, {"size": "672"}, {"size": "192"}]}}}, "dtype": {"type": "DT_FLOAT"}}}, {"name": "unknown_123", "op": "Const", "attr": {"value": {"tensor": {"dtype": "DT_FLOAT", "tensorShape": {"dim": [{"size": "192"}]}}}, "dtype": {"type": "DT_FLOAT"}}}, {"name": "unknown_165", "op": "Const", "attr": {"value": {"tensor": {"dtype": "DT_FLOAT", "tensorShape": {"dim": [{"size": "1"}, {"size": "1"}, {"size": "192"}, {"size": "1152"}]}}}, "dtype": {"type": "DT_FLOAT"}}}, {"name": "unknown_168", "op": "Const", "attr": {"value": {"tensor": {"dtype": "DT_FLOAT", "tensorShape": {"dim": [{"size": "1152"}]}}}, "dtype": {"type": "DT_FLOAT"}}}, {"name": "unknown_174", "op": "Const", "attr": {"value": {"tensor": {"dtype": "DT_FLOAT", "tensorShape": {"dim": [{"size": "3"}, {"size": "3"}, {"size": "1152"}, {"size": "1"}]}}}, "dtype": {"type": "DT_FLOAT"}}}, {"name": "unknown_176", "op": "Const", "attr": {"value": {"tensor": {"dtype": "DT_FLOAT", "tensorShape": {"dim": [{"size": "1152"}]}}}, "dtype": {"type": "DT_FLOAT"}}}, {"name": "unknown_204", "op": "Const", "attr": {"value": {"tensor": {"dtype": "DT_FLOAT", "tensorShape": {"dim": [{"size": "1"}, {"size": "1"}, {"size": "1152"}, {"size": "320"}]}}}, "dtype": {"type": "DT_FLOAT"}}}, {"name": "unknown_207", "op": "Const", "attr": {"value": {"tensor": {"dtype": "DT_FLOAT", "tensorShape": {"dim": [{"size": "320"}]}}}, "dtype": {"type": "DT_FLOAT"}}}, {"name": "unknown_211", "op": "Const", "attr": {"value": {"tensor": {"dtype": "DT_INT64", "tensorShape": {"dim": [{"size": "4"}]}}}, "dtype": {"type": "DT_INT64"}}}, {"name": "unknown_212", "op": "Const", "attr": {"value": {"tensor": {"dtype": "DT_INT64", "tensorShape": {"dim": [{"size": "4"}]}}}, "dtype": {"type": "DT_INT64"}}}, {"name": "PartitionedCall/model_9/tf.strided_slice_9/ones_like", "op": "Const", "attr": {"value": {"tensor": {"dtype": "DT_INT64", "tensorShape": {"dim": [{"size": "4"}]}}}, "dtype": {"type": "DT_INT64"}}}, {"name": "PartitionedCall/model_9/tf.concat_13/concat/axis", "op": "Const", "attr": {"value": {"tensor": {"dtype": "DT_INT32", "tensorShape": {}}}, "dtype": {"type": "DT_INT32"}}}, {"name": "unknown_214", "op": "Const", "attr": {"value": {"tensor": {"dtype": "DT_FLOAT", "tensorShape": {"dim": [{"size": "3"}, {"size": "3"}, {"size": "640"}, {"size": "320"}]}}}, "dtype": {"type": "DT_FLOAT"}}}, {"name": "unknown_216", "op": "Const", "attr": {"value": {"tensor": {"dtype": "DT_FLOAT", "tensorShape": {"dim": [{"size": "320"}]}}}, "dtype": {"type": "DT_FLOAT"}}}, {"name": "unknown_219", "op": "Const", "attr": {"value": {"tensor": {"dtype": "DT_FLOAT", "tensorShape": {"dim": [{"size": "1"}, {"size": "1"}, {"size": "320"}, {"size": "320"}]}}}, "dtype": {"type": "DT_FLOAT"}}}, {"name": "unknown_221", "op": "Const", "attr": {"value": {"tensor": {"dtype": "DT_FLOAT", "tensorShape": {"dim": [{"size": "320"}]}}}, "dtype": {"type": "DT_FLOAT"}}}, {"name": "PartitionedCall/model_9/tf.concat_14/concat/axis", "op": "Const", "attr": {"value": {"tensor": {"dtype": "DT_INT32", "tensorShape": {}}}, "dtype": {"type": "DT_INT32"}}}, {"name": "unknown_222", "op": "Const", "attr": {"value": {"tensor": {"dtype": "DT_FLOAT", "tensorShape": {"dim": [{"size": "1"}, {"size": "1"}, {"size": "640"}, {"size": "320"}]}}}, "dtype": {"type": "DT_FLOAT"}}}, {"name": "unknown_223", "op": "Const", "attr": {"value": {"tensor": {"dtype": "DT_FLOAT", "tensorShape": {"dim": [{"size": "320"}]}}}, "dtype": {"type": "DT_FLOAT"}}}, {"name": "PartitionedCall/model_9/tf.compat.v1.transpose_1/transpose/perm", "op": "Const", "attr": {"value": {"tensor": {"dtype": "DT_INT32", "tensorShape": {"dim": [{"size": "4"}]}}}, "dtype": {"type": "DT_INT32"}}}, {"name": "PartitionedCall/model_9/tf.reshape_1/Reshape/shape", "op": "Const", "attr": {"value": {"tensor": {"dtype": "DT_INT32", "tensorShape": {"dim": [{"size": "2"}]}}}, "dtype": {"type": "DT_INT32"}}}, {"name": "PartitionedCall/model_9/tf.concat_17/concat/axis", "op": "Const", "attr": {"value": {"tensor": {"dtype": "DT_INT32", "tensorShape": {}}}, "dtype": {"type": "DT_INT32"}}}, {"name": "unknown_224", "op": "Const", "attr": {"value": {"tensor": {"dtype": "DT_FLOAT", "tensorShape": {"dim": [{"size": "640"}, {"size": "128"}]}}}, "dtype": {"type": "DT_FLOAT"}}}, {"name": "unknown_227", "op": "Const", "attr": {"value": {"tensor": {"dtype": "DT_FLOAT", "tensorShape": {"dim": [{"size": "128"}]}}}, "dtype": {"type": "DT_FLOAT"}}}, {"name": "unknown_230", "op": "Const", "attr": {"value": {"tensor": {"dtype": "DT_FLOAT", "tensorShape": {"dim": [{"size": "128"}, {"size": "14739"}]}}}, "dtype": {"type": "DT_FLOAT"}}}, {"name": "PartitionedCall/model_9/3D_LUT/Reshape/shape", "op": "Const", "attr": {"value": {"tensor": {"dtype": "DT_INT32", "tensorShape": {"dim": [{"size": "5"}]}}}, "dtype": {"type": "DT_INT32"}}}, {"name": "input_img", "op": "Placeholder", "attr": {"shape": {"shape": {"dim": [{"size": "1"}, {"size": "256"}, {"size": "256"}, {"size": "3"}]}}, "dtype": {"type": "DT_FLOAT"}}}, {"name": "ref_img", "op": "Placeholder", "attr": {"shape": {"shape": {"dim": [{"size": "1"}, {"size": "256"}, {"size": "256"}, {"size": "3"}]}}, "dtype": {"type": "DT_FLOAT"}}}, {"name": "PartitionedCall/model_9/tf.concat_5/concat", "op": "ConcatV2", "input": ["input_img", "ref_img", "PartitionedCall/model_9/tf.concat_5/concat/axis"], "attr": {"N": {"i": "2"}, "Tidx": {"type": "DT_INT32"}, "T": {"type": "DT_FLOAT"}}}, {"name": "PartitionedCall/model_9/tf.compat.v1.pad/Pad", "op": "Pad", "input": ["PartitionedCall/model_9/tf.concat_5/concat", "unknown"], "attr": {"Tpaddings": {"type": "DT_INT32"}, "T": {"type": "DT_FLOAT"}}}, {"name": "PartitionedCall/model_9/tf.math.add/Add", "op": "_FusedConv2D", "input": ["PartitionedCall/model_9/tf.compat.v1.pad/Pad", "unknown_0", "unknown_1"], "device": "/device:CPU:0", "attr": {"num_host_args": {"i": "0"}, "data_format": {"s": "TkhXQw=="}, "filter_format": {"s": "SFdJTw=="}, "strides": {"list": {"i": ["1", "2", "2", "1"]}}, "num_args": {"i": "1"}, "fused_ops": {"list": {"s": ["Qmlhc0FkZA=="]}}, "TArgs": {"list": {"type": ["DT_FLOAT"]}}, "padding": {"s": "VkFMSUQ="}, "use_cudnn_on_gpu": {"b": true}, "leakyrelu_alpha": {"f": 0.2}, "epsilon": {"f": 0.0}, "T": {"type": "DT_FLOAT"}, "explicit_paddings": {"list": {}}, "dilations": {"list": {"i": ["1", "1", "1", "1"]}}}}, {"name": "PartitionedCall/model_9/tf.math.sigmoid/Sigmoid", "op": "Sigmoid", "input": ["PartitionedCall/model_9/tf.math.add/Add"], "attr": {"T": {"type": "DT_FLOAT"}}}, {"name": "PartitionedCall/model_9/tf.math.multiply_3/Mul", "op": "Mul", "input": ["PartitionedCall/model_9/tf.math.add/Add", "PartitionedCall/model_9/tf.math.sigmoid/Sigmoid"], "attr": {"T": {"type": "DT_FLOAT"}}}, {"name": "PartitionedCall/model_9/tf.compat.v1.nn.depthwise_conv2d/depthwise", "op": "FusedDepthwiseConv2dNative", "input": ["PartitionedCall/model_9/tf.math.multiply_3/Mul", "unknown_2", "unknown_3"], "attr": {"padding": {"s": "U0FNRQ=="}, "data_format": {"s": "TkhXQw=="}, "strides": {"list": {"i": ["1", "1", "1", "1"]}}, "num_args": {"i": "1"}, "fused_ops": {"list": {"s": ["Qmlhc0FkZA=="]}}, "T": {"type": "DT_FLOAT"}, "explicit_paddings": {"list": {}}, "dilations": {"list": {"i": ["1", "1", "1", "1"]}}}}, {"name": "PartitionedCall/model_9/tf.math.sigmoid_1/Sigmoid", "op": "Sigmoid", "input": ["PartitionedCall/model_9/tf.compat.v1.nn.depthwise_conv2d/depthwise"], "attr": {"T": {"type": "DT_FLOAT"}}}, {"name": "PartitionedCall/model_9/tf.math.multiply_7/Mul", "op": "Mul", "input": ["PartitionedCall/model_9/tf.compat.v1.nn.depthwise_conv2d/depthwise", "PartitionedCall/model_9/tf.math.sigmoid_1/Sigmoid"], "attr": {"T": {"type": "DT_FLOAT"}}}, {"name": "PartitionedCall/model_9/tf.math.reduce_mean/Mean", "op": "Mean", "input": ["PartitionedCall/model_9/tf.math.multiply_7/Mul", "PartitionedCall/model_9/tf.math.reduce_mean/Mean/reduction_indices"], "attr": {"Tidx": {"type": "DT_INT32"}, "T": {"type": "DT_FLOAT"}, "keep_dims": {"b": true}}}, {"name": "PartitionedCall/model_9/tf.math.add_2/Add", "op": "_FusedConv2D", "input": ["PartitionedCall/model_9/tf.math.reduce_mean/Mean", "unknown_4", "unknown_5"], "device": "/device:CPU:0", "attr": {"num_host_args": {"i": "0"}, "data_format": {"s": "TkhXQw=="}, "filter_format": {"s": "SFdJTw=="}, "strides": {"list": {"i": ["1", "1", "1", "1"]}}, "num_args": {"i": "1"}, "fused_ops": {"list": {"s": ["Qmlhc0FkZA=="]}}, "TArgs": {"list": {"type": ["DT_FLOAT"]}}, "padding": {"s": "U0FNRQ=="}, "use_cudnn_on_gpu": {"b": true}, "leakyrelu_alpha": {"f": 0.2}, "epsilon": {"f": 0.0}, "T": {"type": "DT_FLOAT"}, "explicit_paddings": {"list": {}}, "dilations": {"list": {"i": ["1", "1", "1", "1"]}}}}, {"name": "PartitionedCall/model_9/tf.math.sigmoid_2/Sigmoid", "op": "Sigmoid", "input": ["PartitionedCall/model_9/tf.math.add_2/Add"], "attr": {"T": {"type": "DT_FLOAT"}}}, {"name": "PartitionedCall/model_9/tf.math.multiply_10/Mul", "op": "Mul", "input": ["PartitionedCall/model_9/tf.math.add_2/Add", "PartitionedCall/model_9/tf.math.sigmoid_2/Sigmoid"], "attr": {"T": {"type": "DT_FLOAT"}}}, {"name": "PartitionedCall/model_9/tf.math.add_3/Add", "op": "_FusedConv2D", "input": ["PartitionedCall/model_9/tf.math.multiply_10/Mul", "unknown_6", "unknown_7"], "device": "/device:CPU:0", "attr": {"num_host_args": {"i": "0"}, "data_format": {"s": "TkhXQw=="}, "filter_format": {"s": "SFdJTw=="}, "strides": {"list": {"i": ["1", "1", "1", "1"]}}, "num_args": {"i": "1"}, "fused_ops": {"list": {"s": ["Qmlhc0FkZA=="]}}, "TArgs": {"list": {"type": ["DT_FLOAT"]}}, "padding": {"s": "U0FNRQ=="}, "use_cudnn_on_gpu": {"b": true}, "leakyrelu_alpha": {"f": 0.2}, "epsilon": {"f": 0.0}, "T": {"type": "DT_FLOAT"}, "explicit_paddings": {"list": {}}, "dilations": {"list": {"i": ["1", "1", "1", "1"]}}}}, {"name": "PartitionedCall/model_9/tf.math.sigmoid_3/Sigmoid", "op": "Sigmoid", "input": ["PartitionedCall/model_9/tf.math.add_3/Add"], "attr": {"T": {"type": "DT_FLOAT"}}}, {"name": "PartitionedCall/model_9/tf.math.multiply_14/Mul", "op": "Mul", "input": ["PartitionedCall/model_9/tf.math.sigmoid_3/Sigmoid", "PartitionedCall/model_9/tf.math.multiply_7/Mul"], "attr": {"T": {"type": "DT_FLOAT"}}}, {"name": "PartitionedCall/model_9/tf.math.add_4/Add", "op": "_FusedConv2D", "input": ["PartitionedCall/model_9/tf.math.multiply_14/Mul", "unknown_8", "unknown_9"], "device": "/device:CPU:0", "attr": {"num_host_args": {"i": "0"}, "data_format": {"s": "TkhXQw=="}, "filter_format": {"s": "SFdJTw=="}, "strides": {"list": {"i": ["1", "1", "1", "1"]}}, "num_args": {"i": "1"}, "fused_ops": {"list": {"s": ["Qmlhc0FkZA=="]}}, "TArgs": {"list": {"type": ["DT_FLOAT"]}}, "padding": {"s": "U0FNRQ=="}, "use_cudnn_on_gpu": {"b": true}, "leakyrelu_alpha": {"f": 0.2}, "epsilon": {"f": 0.0}, "T": {"type": "DT_FLOAT"}, "explicit_paddings": {"list": {}}, "dilations": {"list": {"i": ["1", "1", "1", "1"]}}}}, {"name": "PartitionedCall/model_9/tf.strided_slice/StridedSlice", "op": "StridedSlice", "input": ["PartitionedCall/model_9/tf.math.add_4/Add", "unknown_152", "unknown_153", "PartitionedCall/model_9/tf.strided_slice/ones_like"], "attr": {"shrink_axis_mask": {"i": "0"}, "new_axis_mask": {"i": "0"}, "Index": {"type": "DT_INT64"}, "begin_mask": {"i": "15"}, "end_mask": {"i": "14"}, "T": {"type": "DT_FLOAT"}, "ellipsis_mask": {"i": "0"}}}, {"name": "PartitionedCall/model_9/tf.strided_slice_1/StridedSlice", "op": "StridedSlice", "input": ["PartitionedCall/model_9/tf.math.add_4/Add", "unknown_154", "unknown_155", "PartitionedCall/model_9/tf.strided_slice_1/ones_like"], "attr": {"shrink_axis_mask": {"i": "0"}, "new_axis_mask": {"i": "0"}, "Index": {"type": "DT_INT64"}, "begin_mask": {"i": "14"}, "end_mask": {"i": "14"}, "T": {"type": "DT_FLOAT"}, "ellipsis_mask": {"i": "0"}}}, {"name": "PartitionedCall/model_9/tf.math.add_5/Add", "op": "_FusedConv2D", "input": ["PartitionedCall/model_9/tf.math.add_4/Add", "unknown_10", "unknown_11"], "device": "/device:CPU:0", "attr": {"num_host_args": {"i": "0"}, "data_format": {"s": "TkhXQw=="}, "filter_format": {"s": "SFdJTw=="}, "strides": {"list": {"i": ["1", "1", "1", "1"]}}, "num_args": {"i": "1"}, "fused_ops": {"list": {"s": ["Qmlhc0FkZA=="]}}, "TArgs": {"list": {"type": ["DT_FLOAT"]}}, "padding": {"s": "U0FNRQ=="}, "use_cudnn_on_gpu": {"b": true}, "leakyrelu_alpha": {"f": 0.2}, "epsilon": {"f": 0.0}, "T": {"type": "DT_FLOAT"}, "explicit_paddings": {"list": {}}, "dilations": {"list": {"i": ["1", "1", "1", "1"]}}}}, {"name": "PartitionedCall/model_9/tf.concat_6/concat", "op": "ConcatV2", "input": ["PartitionedCall/model_9/tf.strided_slice/StridedSlice", "PartitionedCall/model_9/tf.strided_slice_1/StridedSlice", "PartitionedCall/model_9/tf.concat_6/concat/axis"], "attr": {"N": {"i": "2"}, "T": {"type": "DT_FLOAT"}, "Tidx": {"type": "DT_INT32"}}}, {"name": "PartitionedCall/model_9/tf.math.sigmoid_4/Sigmoid", "op": "Sigmoid", "input": ["PartitionedCall/model_9/tf.math.add_5/Add"], "attr": {"T": {"type": "DT_FLOAT"}}}, {"name": "PartitionedCall/model_9/tf.nn.leaky_relu/LeakyRelu", "op": "_FusedConv2D", "input": ["PartitionedCall/model_9/tf.concat_6/concat", "unknown_156", "unknown_158"], "device": "/device:CPU:0", "attr": {"num_host_args": {"i": "0"}, "data_format": {"s": "TkhXQw=="}, "filter_format": {"s": "SFdJTw=="}, "strides": {"list": {"i": ["1", "1", "1", "1"]}}, "num_args": {"i": "1"}, "fused_ops": {"list": {"s": ["Qmlhc0FkZA==", "TGVha3lSZWx1"]}}, "TArgs": {"list": {"type": ["DT_FLOAT"]}}, "padding": {"s": "U0FNRQ=="}, "use_cudnn_on_gpu": {"b": true}, "leakyrelu_alpha": {"f": 0.01}, "epsilon": {"f": 0.0}, "T": {"type": "DT_FLOAT"}, "explicit_paddings": {"list": {}}, "dilations": {"list": {"i": ["1", "1", "1", "1"]}}}}, {"name": "PartitionedCall/model_9/tf.math.multiply_18/Mul", "op": "Mul", "input": ["PartitionedCall/model_9/tf.math.add_5/Add", "PartitionedCall/model_9/tf.math.sigmoid_4/Sigmoid"], "attr": {"T": {"type": "DT_FLOAT"}}}, {"name": "PartitionedCall/model_9/tf.math.add_8/Add", "op": "_FusedConv2D", "input": ["PartitionedCall/model_9/tf.nn.leaky_relu/LeakyRelu", "unknown_164", "unknown_167"], "device": "/device:CPU:0", "attr": {"num_host_args": {"i": "0"}, "data_format": {"s": "TkhXQw=="}, "filter_format": {"s": "SFdJTw=="}, "strides": {"list": {"i": ["1", "1", "1", "1"]}}, "num_args": {"i": "1"}, "fused_ops": {"list": {"s": ["Qmlhc0FkZA=="]}}, "TArgs": {"list": {"type": ["DT_FLOAT"]}}, "padding": {"s": "U0FNRQ=="}, "use_cudnn_on_gpu": {"b": true}, "leakyrelu_alpha": {"f": 0.2}, "epsilon": {"f": 0.0}, "T": {"type": "DT_FLOAT"}, "explicit_paddings": {"list": {}}, "dilations": {"list": {"i": ["1", "1", "1", "1"]}}}}, {"name": "PartitionedCall/model_9/tf.compat.v1.pad_1/Pad", "op": "Pad", "input": ["PartitionedCall/model_9/tf.math.multiply_18/Mul", "unknown_12"], "attr": {"Tpaddings": {"type": "DT_INT32"}, "T": {"type": "DT_FLOAT"}}}, {"name": "PartitionedCall/model_9/tf.compat.v1.pad_2/Pad", "op": "Pad", "input": ["PartitionedCall/model_9/tf.math.add_8/Add", "unknown_170"], "attr": {"Tpaddings": {"type": "DT_INT32"}, "T": {"type": "DT_FLOAT"}}}, {"name": "PartitionedCall/model_9/tf.compat.v1.nn.depthwise_conv2d_1/depthwise", "op": "FusedDepthwiseConv2dNative", "input": ["PartitionedCall/model_9/tf.compat.v1.pad_1/Pad", "unknown_13", "unknown_14"], "attr": {"padding": {"s": "VkFMSUQ="}, "data_format": {"s": "TkhXQw=="}, "strides": {"list": {"i": ["1", "2", "2", "1"]}}, "num_args": {"i": "1"}, "fused_ops": {"list": {"s": ["Qmlhc0FkZA=="]}}, "T": {"type": "DT_FLOAT"}, "explicit_paddings": {"list": {}}, "dilations": {"list": {"i": ["1", "1", "1", "1"]}}}}, {"name": "PartitionedCall/model_9/tf.nn.relu/Relu", "op": "_FusedConv2D", "input": ["PartitionedCall/model_9/tf.compat.v1.pad_2/Pad", "unknown_171", "unknown_173"], "device": "/device:CPU:0", "attr": {"num_host_args": {"i": "0"}, "data_format": {"s": "TkhXQw=="}, "filter_format": {"s": "SFdJTw=="}, "strides": {"list": {"i": ["1", "2", "2", "1"]}}, "num_args": {"i": "1"}, "fused_ops": {"list": {"s": ["Qmlhc0FkZA==", "UmVsdQ=="]}}, "TArgs": {"list": {"type": ["DT_FLOAT"]}}, "padding": {"s": "VkFMSUQ="}, "use_cudnn_on_gpu": {"b": true}, "leakyrelu_alpha": {"f": 0.2}, "epsilon": {"f": 0.0}, "T": {"type": "DT_FLOAT"}, "explicit_paddings": {"list": {}}, "dilations": {"list": {"i": ["1", "1", "1", "1"]}}}}, {"name": "PartitionedCall/model_9/tf.math.sigmoid_5/Sigmoid", "op": "Sigmoid", "input": ["PartitionedCall/model_9/tf.compat.v1.nn.depthwise_conv2d_1/depthwise"], "attr": {"T": {"type": "DT_FLOAT"}}}, {"name": "PartitionedCall/model_9/tf.math.multiply_22/Mul", "op": "Mul", "input": ["PartitionedCall/model_9/tf.compat.v1.nn.depthwise_conv2d_1/depthwise", "PartitionedCall/model_9/tf.math.sigmoid_5/Sigmoid"], "attr": {"T": {"type": "DT_FLOAT"}}}, {"name": "PartitionedCall/model_9/tf.math.reduce_mean_1/Mean", "op": "Mean", "input": ["PartitionedCall/model_9/tf.math.multiply_22/Mul", "PartitionedCall/model_9/tf.math.reduce_mean_1/Mean/reduction_indices"], "attr": {"Tidx": {"type": "DT_INT32"}, "T": {"type": "DT_FLOAT"}, "keep_dims": {"b": true}}}, {"name": "PartitionedCall/model_9/tf.math.add_10/Add", "op": "_FusedConv2D", "input": ["PartitionedCall/model_9/tf.math.reduce_mean_1/Mean", "unknown_15", "unknown_16"], "device": "/device:CPU:0", "attr": {"num_host_args": {"i": "0"}, "data_format": {"s": "TkhXQw=="}, "filter_format": {"s": "SFdJTw=="}, "fused_ops": {"list": {"s": ["Qmlhc0FkZA=="]}}, "num_args": {"i": "1"}, "strides": {"list": {"i": ["1", "1", "1", "1"]}}, "TArgs": {"list": {"type": ["DT_FLOAT"]}}, "padding": {"s": "U0FNRQ=="}, "use_cudnn_on_gpu": {"b": true}, "leakyrelu_alpha": {"f": 0.2}, "epsilon": {"f": 0.0}, "T": {"type": "DT_FLOAT"}, "explicit_paddings": {"list": {}}, "dilations": {"list": {"i": ["1", "1", "1", "1"]}}}}, {"name": "PartitionedCall/model_9/tf.math.sigmoid_6/Sigmoid", "op": "Sigmoid", "input": ["PartitionedCall/model_9/tf.math.add_10/Add"], "attr": {"T": {"type": "DT_FLOAT"}}}, {"name": "PartitionedCall/model_9/tf.math.multiply_25/Mul", "op": "Mul", "input": ["PartitionedCall/model_9/tf.math.add_10/Add", "PartitionedCall/model_9/tf.math.sigmoid_6/Sigmoid"], "attr": {"T": {"type": "DT_FLOAT"}}}, {"name": "PartitionedCall/model_9/tf.math.add_11/Add", "op": "_FusedConv2D", "input": ["PartitionedCall/model_9/tf.math.multiply_25/Mul", "unknown_17", "unknown_18"], "device": "/device:CPU:0", "attr": {"num_host_args": {"i": "0"}, "data_format": {"s": "TkhXQw=="}, "filter_format": {"s": "SFdJTw=="}, "fused_ops": {"list": {"s": ["Qmlhc0FkZA=="]}}, "num_args": {"i": "1"}, "strides": {"list": {"i": ["1", "1", "1", "1"]}}, "TArgs": {"list": {"type": ["DT_FLOAT"]}}, "padding": {"s": "U0FNRQ=="}, "use_cudnn_on_gpu": {"b": true}, "leakyrelu_alpha": {"f": 0.2}, "epsilon": {"f": 0.0}, "T": {"type": "DT_FLOAT"}, "explicit_paddings": {"list": {}}, "dilations": {"list": {"i": ["1", "1", "1", "1"]}}}}, {"name": "PartitionedCall/model_9/tf.math.sigmoid_7/Sigmoid", "op": "Sigmoid", "input": ["PartitionedCall/model_9/tf.math.add_11/Add"], "attr": {"T": {"type": "DT_FLOAT"}}}, {"name": "PartitionedCall/model_9/tf.math.multiply_29/Mul", "op": "Mul", "input": ["PartitionedCall/model_9/tf.math.sigmoid_7/Sigmoid", "PartitionedCall/model_9/tf.math.multiply_22/Mul"], "attr": {"T": {"type": "DT_FLOAT"}}}, {"name": "PartitionedCall/model_9/tf.math.add_12/Add", "op": "_FusedConv2D", "input": ["PartitionedCall/model_9/tf.math.multiply_29/Mul", "unknown_19", "unknown_20"], "device": "/device:CPU:0", "attr": {"num_host_args": {"i": "0"}, "data_format": {"s": "TkhXQw=="}, "filter_format": {"s": "SFdJTw=="}, "strides": {"list": {"i": ["1", "1", "1", "1"]}}, "num_args": {"i": "1"}, "fused_ops": {"list": {"s": ["Qmlhc0FkZA=="]}}, "TArgs": {"list": {"type": ["DT_FLOAT"]}}, "padding": {"s": "U0FNRQ=="}, "use_cudnn_on_gpu": {"b": true}, "leakyrelu_alpha": {"f": 0.2}, "epsilon": {"f": 0.0}, "T": {"type": "DT_FLOAT"}, "explicit_paddings": {"list": {}}, "dilations": {"list": {"i": ["1", "1", "1", "1"]}}}}, {"name": "PartitionedCall/model_9/tf.math.add_13/Add", "op": "_FusedConv2D", "input": ["PartitionedCall/model_9/tf.math.add_12/Add", "unknown_21", "unknown_22"], "device": "/device:CPU:0", "attr": {"num_host_args": {"i": "0"}, "data_format": {"s": "TkhXQw=="}, "filter_format": {"s": "SFdJTw=="}, "strides": {"list": {"i": ["1", "1", "1", "1"]}}, "num_args": {"i": "1"}, "fused_ops": {"list": {"s": ["Qmlhc0FkZA=="]}}, "TArgs": {"list": {"type": ["DT_FLOAT"]}}, "padding": {"s": "U0FNRQ=="}, "use_cudnn_on_gpu": {"b": true}, "leakyrelu_alpha": {"f": 0.2}, "epsilon": {"f": 0.0}, "T": {"type": "DT_FLOAT"}, "explicit_paddings": {"list": {}}, "dilations": {"list": {"i": ["1", "1", "1", "1"]}}}}, {"name": "PartitionedCall/model_9/tf.math.sigmoid_8/Sigmoid", "op": "Sigmoid", "input": ["PartitionedCall/model_9/tf.math.add_13/Add"], "attr": {"T": {"type": "DT_FLOAT"}}}, {"name": "PartitionedCall/model_9/tf.math.multiply_33/Mul", "op": "Mul", "input": ["PartitionedCall/model_9/tf.math.add_13/Add", "PartitionedCall/model_9/tf.math.sigmoid_8/Sigmoid"], "attr": {"T": {"type": "DT_FLOAT"}}}, {"name": "PartitionedCall/model_9/tf.compat.v1.nn.depthwise_conv2d_2/depthwise", "op": "FusedDepthwiseConv2dNative", "input": ["PartitionedCall/model_9/tf.math.multiply_33/Mul", "unknown_23", "unknown_24"], "attr": {"padding": {"s": "U0FNRQ=="}, "data_format": {"s": "TkhXQw=="}, "strides": {"list": {"i": ["1", "1", "1", "1"]}}, "num_args": {"i": "1"}, "fused_ops": {"list": {"s": ["Qmlhc0FkZA=="]}}, "T": {"type": "DT_FLOAT"}, "explicit_paddings": {"list": {}}, "dilations": {"list": {"i": ["1", "1", "1", "1"]}}}}, {"name": "PartitionedCall/model_9/tf.math.sigmoid_9/Sigmoid", "op": "Sigmoid", "input": ["PartitionedCall/model_9/tf.compat.v1.nn.depthwise_conv2d_2/depthwise"], "attr": {"T": {"type": "DT_FLOAT"}}}, {"name": "PartitionedCall/model_9/tf.math.multiply_37/Mul", "op": "Mul", "input": ["PartitionedCall/model_9/tf.compat.v1.nn.depthwise_conv2d_2/depthwise", "PartitionedCall/model_9/tf.math.sigmoid_9/Sigmoid"], "attr": {"T": {"type": "DT_FLOAT"}}}, {"name": "PartitionedCall/model_9/tf.math.reduce_mean_2/Mean", "op": "Mean", "input": ["PartitionedCall/model_9/tf.math.multiply_37/Mul", "PartitionedCall/model_9/tf.math.reduce_mean_2/Mean/reduction_indices"], "attr": {"T": {"type": "DT_FLOAT"}, "Tidx": {"type": "DT_INT32"}, "keep_dims": {"b": true}}}, {"name": "PartitionedCall/model_9/tf.math.add_15/Add", "op": "_FusedConv2D", "input": ["PartitionedCall/model_9/tf.math.reduce_mean_2/Mean", "unknown_25", "unknown_26"], "device": "/device:CPU:0", "attr": {"num_host_args": {"i": "0"}, "data_format": {"s": "TkhXQw=="}, "filter_format": {"s": "SFdJTw=="}, "fused_ops": {"list": {"s": ["Qmlhc0FkZA=="]}}, "num_args": {"i": "1"}, "strides": {"list": {"i": ["1", "1", "1", "1"]}}, "TArgs": {"list": {"type": ["DT_FLOAT"]}}, "padding": {"s": "U0FNRQ=="}, "use_cudnn_on_gpu": {"b": true}, "leakyrelu_alpha": {"f": 0.2}, "epsilon": {"f": 0.0}, "T": {"type": "DT_FLOAT"}, "explicit_paddings": {"list": {}}, "dilations": {"list": {"i": ["1", "1", "1", "1"]}}}}, {"name": "PartitionedCall/model_9/tf.math.sigmoid_10/Sigmoid", "op": "Sigmoid", "input": ["PartitionedCall/model_9/tf.math.add_15/Add"], "attr": {"T": {"type": "DT_FLOAT"}}}, {"name": "PartitionedCall/model_9/tf.math.multiply_40/Mul", "op": "Mul", "input": ["PartitionedCall/model_9/tf.math.add_15/Add", "PartitionedCall/model_9/tf.math.sigmoid_10/Sigmoid"], "attr": {"T": {"type": "DT_FLOAT"}}}, {"name": "PartitionedCall/model_9/tf.math.add_16/Add", "op": "_FusedConv2D", "input": ["PartitionedCall/model_9/tf.math.multiply_40/Mul", "unknown_27", "unknown_28"], "device": "/device:CPU:0", "attr": {"num_host_args": {"i": "0"}, "data_format": {"s": "TkhXQw=="}, "filter_format": {"s": "SFdJTw=="}, "strides": {"list": {"i": ["1", "1", "1", "1"]}}, "num_args": {"i": "1"}, "fused_ops": {"list": {"s": ["Qmlhc0FkZA=="]}}, "TArgs": {"list": {"type": ["DT_FLOAT"]}}, "padding": {"s": "U0FNRQ=="}, "use_cudnn_on_gpu": {"b": true}, "leakyrelu_alpha": {"f": 0.2}, "epsilon": {"f": 0.0}, "T": {"type": "DT_FLOAT"}, "explicit_paddings": {"list": {}}, "dilations": {"list": {"i": ["1", "1", "1", "1"]}}}}, {"name": "PartitionedCall/model_9/tf.math.sigmoid_11/Sigmoid", "op": "Sigmoid", "input": ["PartitionedCall/model_9/tf.math.add_16/Add"], "attr": {"T": {"type": "DT_FLOAT"}}}, {"name": "PartitionedCall/model_9/tf.math.multiply_44/Mul", "op": "Mul", "input": ["PartitionedCall/model_9/tf.math.sigmoid_11/Sigmoid", "PartitionedCall/model_9/tf.math.multiply_37/Mul"], "attr": {"T": {"type": "DT_FLOAT"}}}, {"name": "PartitionedCall/model_9/tf.nn.convolution_14/convolution", "op": "Conv2D", "input": ["PartitionedCall/model_9/tf.math.multiply_44/Mul", "unknown_29"], "device": "/device:CPU:0", "attr": {"padding": {"s": "U0FNRQ=="}, "data_format": {"s": "TkhXQw=="}, "strides": {"list": {"i": ["1", "1", "1", "1"]}}, "use_cudnn_on_gpu": {"b": true}, "T": {"type": "DT_FLOAT"}, "explicit_paddings": {"list": {}}, "dilations": {"list": {"i": ["1", "1", "1", "1"]}}}}, {"name": "PartitionedCall/model_9/tf.math.add_19/ArithmeticOptimizer/AddOpsRewrite_Leaf_1_Add", "op": "AddN", "input": ["PartitionedCall/model_9/tf.nn.convolution_14/convolution", "PartitionedCall/model_9/tf.math.add_12/Add"], "attr": {"N": {"i": "2"}, "T": {"type": "DT_FLOAT"}, "_grappler_ArithmeticOptimizer_AddOpsRewriteStage": {"b": true}}}, {"name": "PartitionedCall/model_9/tf.math.add_19/ArithmeticOptimizer/AddOpsRewrite_Add", "op": "AddV2", "input": ["unknown_30", "PartitionedCall/model_9/tf.math.add_19/ArithmeticOptimizer/AddOpsRewrite_Leaf_1_Add"], "attr": {"T": {"type": "DT_FLOAT"}, "_grappler_ArithmeticOptimizer_AddOpsRewriteStage": {"b": true}}}, {"name": "PartitionedCall/model_9/tf.strided_slice_2/StridedSlice", "op": "StridedSlice", "input": ["PartitionedCall/model_9/tf.math.add_19/ArithmeticOptimizer/AddOpsRewrite_Add", "unknown_160", "unknown_161", "PartitionedCall/model_9/tf.strided_slice_2/ones_like"], "attr": {"shrink_axis_mask": {"i": "0"}, "new_axis_mask": {"i": "0"}, "Index": {"type": "DT_INT64"}, "begin_mask": {"i": "15"}, "end_mask": {"i": "14"}, "T": {"type": "DT_FLOAT"}, "ellipsis_mask": {"i": "0"}}}, {"name": "PartitionedCall/model_9/tf.strided_slice_3/StridedSlice", "op": "StridedSlice", "input": ["PartitionedCall/model_9/tf.math.add_19/ArithmeticOptimizer/AddOpsRewrite_Add", "unknown_162", "unknown_163", "PartitionedCall/model_9/tf.strided_slice_3/ones_like"], "attr": {"shrink_axis_mask": {"i": "0"}, "new_axis_mask": {"i": "0"}, "Index": {"type": "DT_INT64"}, "begin_mask": {"i": "14"}, "end_mask": {"i": "14"}, "T": {"type": "DT_FLOAT"}, "ellipsis_mask": {"i": "0"}}}, {"name": "PartitionedCall/model_9/tf.math.add_20/Add", "op": "_FusedConv2D", "input": ["PartitionedCall/model_9/tf.math.add_19/ArithmeticOptimizer/AddOpsRewrite_Add", "unknown_31", "unknown_32"], "device": "/device:CPU:0", "attr": {"num_host_args": {"i": "0"}, "data_format": {"s": "TkhXQw=="}, "filter_format": {"s": "SFdJTw=="}, "strides": {"list": {"i": ["1", "1", "1", "1"]}}, "num_args": {"i": "1"}, "fused_ops": {"list": {"s": ["Qmlhc0FkZA=="]}}, "TArgs": {"list": {"type": ["DT_FLOAT"]}}, "padding": {"s": "U0FNRQ=="}, "use_cudnn_on_gpu": {"b": true}, "leakyrelu_alpha": {"f": 0.2}, "epsilon": {"f": 0.0}, "T": {"type": "DT_FLOAT"}, "explicit_paddings": {"list": {}}, "dilations": {"list": {"i": ["1", "1", "1", "1"]}}}}, {"name": "PartitionedCall/model_9/tf.concat_7/concat", "op": "ConcatV2", "input": ["PartitionedCall/model_9/tf.strided_slice_2/StridedSlice", "PartitionedCall/model_9/tf.strided_slice_3/StridedSlice", "PartitionedCall/model_9/tf.concat_7/concat/axis"], "attr": {"N": {"i": "2"}, "T": {"type": "DT_FLOAT"}, "Tidx": {"type": "DT_INT32"}}}, {"name": "PartitionedCall/model_9/tf.math.sigmoid_12/Sigmoid", "op": "Sigmoid", "input": ["PartitionedCall/model_9/tf.math.add_20/Add"], "attr": {"T": {"type": "DT_FLOAT"}}}, {"name": "PartitionedCall/model_9/tf.nn.convolution_16/convolution", "op": "Conv2D", "input": ["PartitionedCall/model_9/tf.concat_7/concat", "unknown_166"], "device": "/device:CPU:0", "attr": {"padding": {"s": "U0FNRQ=="}, "data_format": {"s": "TkhXQw=="}, "strides": {"list": {"i": ["1", "1", "1", "1"]}}, "use_cudnn_on_gpu": {"b": true}, "T": {"type": "DT_FLOAT"}, "explicit_paddings": {"list": {}}, "dilations": {"list": {"i": ["1", "1", "1", "1"]}}}}, {"name": "PartitionedCall/model_9/tf.math.multiply_50/Mul", "op": "Mul", "input": ["PartitionedCall/model_9/tf.math.add_20/Add", "PartitionedCall/model_9/tf.math.sigmoid_12/Sigmoid"], "attr": {"T": {"type": "DT_FLOAT"}}}, {"name": "PartitionedCall/model_9/tf.nn.leaky_relu_1/LeakyRelu", "op": "LeakyRelu", "input": ["PartitionedCall/model_9/tf.nn.convolution_16/convolution"], "attr": {"alpha": {"f": 0.01}, "T": {"type": "DT_FLOAT"}}}, {"name": "PartitionedCall/model_9/tf.compat.v1.pad_3/Pad", "op": "Pad", "input": ["PartitionedCall/model_9/tf.math.multiply_50/Mul", "unknown_33"], "attr": {"Tpaddings": {"type": "DT_INT32"}, "T": {"type": "DT_FLOAT"}}}, {"name": "PartitionedCall/model_9/tf.math.add_23/Add", "op": "_FusedConv2D", "input": ["PartitionedCall/model_9/tf.nn.leaky_relu_1/LeakyRelu", "unknown_172", "unknown_175"], "device": "/device:CPU:0", "attr": {"num_host_args": {"i": "0"}, "data_format": {"s": "TkhXQw=="}, "filter_format": {"s": "SFdJTw=="}, "strides": {"list": {"i": ["1", "1", "1", "1"]}}, "num_args": {"i": "1"}, "fused_ops": {"list": {"s": ["Qmlhc0FkZA=="]}}, "TArgs": {"list": {"type": ["DT_FLOAT"]}}, "padding": {"s": "U0FNRQ=="}, "use_cudnn_on_gpu": {"b": true}, "leakyrelu_alpha": {"f": 0.2}, "epsilon": {"f": 0.0}, "T": {"type": "DT_FLOAT"}, "explicit_paddings": {"list": {}}, "dilations": {"list": {"i": ["1", "1", "1", "1"]}}}}, {"name": "PartitionedCall/model_9/tf.compat.v1.nn.depthwise_conv2d_3/depthwise", "op": "FusedDepthwiseConv2dNative", "input": ["PartitionedCall/model_9/tf.compat.v1.pad_3/Pad", "unknown_34", "unknown_35"], "attr": {"padding": {"s": "VkFMSUQ="}, "data_format": {"s": "TkhXQw=="}, "strides": {"list": {"i": ["1", "2", "2", "1"]}}, "num_args": {"i": "1"}, "fused_ops": {"list": {"s": ["Qmlhc0FkZA=="]}}, "T": {"type": "DT_FLOAT"}, "explicit_paddings": {"list": {}}, "dilations": {"list": {"i": ["1", "1", "1", "1"]}}}}, {"name": "PartitionedCall/model_9/tf.concat_8/concat", "op": "ConcatV2", "input": ["PartitionedCall/model_9/tf.nn.relu/Relu", "PartitionedCall/model_9/tf.math.add_23/Add", "PartitionedCall/model_9/tf.concat_8/concat/axis"], "attr": {"N": {"i": "2"}, "Tidx": {"type": "DT_INT32"}, "T": {"type": "DT_FLOAT"}}}, {"name": "PartitionedCall/model_9/tf.math.add_24/Add", "op": "_FusedConv2D", "input": ["PartitionedCall/model_9/tf.concat_8/concat", "unknown_181", "unknown_183"], "device": "/device:CPU:0", "attr": {"num_host_args": {"i": "0"}, "data_format": {"s": "TkhXQw=="}, "filter_format": {"s": "SFdJTw=="}, "strides": {"list": {"i": ["1", "1", "1", "1"]}}, "num_args": {"i": "1"}, "fused_ops": {"list": {"s": ["Qmlhc0FkZA=="]}}, "TArgs": {"list": {"type": ["DT_FLOAT"]}}, "padding": {"s": "U0FNRQ=="}, "use_cudnn_on_gpu": {"b": true}, "leakyrelu_alpha": {"f": 0.2}, "epsilon": {"f": 0.0}, "T": {"type": "DT_FLOAT"}, "explicit_paddings": {"list": {}}, "dilations": {"list": {"i": ["1", "1", "1", "1"]}}}}, {"name": "PartitionedCall/model_9/tf.math.sigmoid_13/Sigmoid", "op": "Sigmoid", "input": ["PartitionedCall/model_9/tf.compat.v1.nn.depthwise_conv2d_3/depthwise"], "attr": {"T": {"type": "DT_FLOAT"}}}, {"name": "PartitionedCall/model_9/tf.compat.v1.pad_4/Pad", "op": "Pad", "input": ["PartitionedCall/model_9/tf.math.add_24/Add", "unknown_185"], "attr": {"Tpaddings": {"type": "DT_INT32"}, "T": {"type": "DT_FLOAT"}}}, {"name": "PartitionedCall/model_9/tf.math.multiply_54/Mul", "op": "Mul", "input": ["PartitionedCall/model_9/tf.compat.v1.nn.depthwise_conv2d_3/depthwise", "PartitionedCall/model_9/tf.math.sigmoid_13/Sigmoid"], "attr": {"T": {"type": "DT_FLOAT"}}}, {"name": "PartitionedCall/model_9/tf.nn.relu_1/Relu", "op": "_FusedConv2D", "input": ["PartitionedCall/model_9/tf.compat.v1.pad_4/Pad", "unknown_187", "unknown_190"], "device": "/device:CPU:0", "attr": {"num_host_args": {"i": "0"}, "data_format": {"s": "TkhXQw=="}, "filter_format": {"s": "SFdJTw=="}, "strides": {"list": {"i": ["1", "2", "2", "1"]}}, "num_args": {"i": "1"}, "fused_ops": {"list": {"s": ["Qmlhc0FkZA==", "UmVsdQ=="]}}, "TArgs": {"list": {"type": ["DT_FLOAT"]}}, "padding": {"s": "VkFMSUQ="}, "use_cudnn_on_gpu": {"b": true}, "leakyrelu_alpha": {"f": 0.2}, "epsilon": {"f": 0.0}, "T": {"type": "DT_FLOAT"}, "explicit_paddings": {"list": {}}, "dilations": {"list": {"i": ["1", "1", "1", "1"]}}}}, {"name": "PartitionedCall/model_9/tf.math.reduce_mean_3/Mean", "op": "Mean", "input": ["PartitionedCall/model_9/tf.math.multiply_54/Mul", "PartitionedCall/model_9/tf.math.reduce_mean_3/Mean/reduction_indices"], "attr": {"T": {"type": "DT_FLOAT"}, "Tidx": {"type": "DT_INT32"}, "keep_dims": {"b": true}}}, {"name": "PartitionedCall/model_9/tf.math.add_25/Add", "op": "_FusedConv2D", "input": ["PartitionedCall/model_9/tf.math.reduce_mean_3/Mean", "unknown_36", "unknown_37"], "device": "/device:CPU:0", "attr": {"num_host_args": {"i": "0"}, "data_format": {"s": "TkhXQw=="}, "filter_format": {"s": "SFdJTw=="}, "strides": {"list": {"i": ["1", "1", "1", "1"]}}, "num_args": {"i": "1"}, "fused_ops": {"list": {"s": ["Qmlhc0FkZA=="]}}, "TArgs": {"list": {"type": ["DT_FLOAT"]}}, "padding": {"s": "U0FNRQ=="}, "use_cudnn_on_gpu": {"b": true}, "leakyrelu_alpha": {"f": 0.2}, "epsilon": {"f": 0.0}, "T": {"type": "DT_FLOAT"}, "explicit_paddings": {"list": {}}, "dilations": {"list": {"i": ["1", "1", "1", "1"]}}}}, {"name": "PartitionedCall/model_9/tf.math.sigmoid_14/Sigmoid", "op": "Sigmoid", "input": ["PartitionedCall/model_9/tf.math.add_25/Add"], "attr": {"T": {"type": "DT_FLOAT"}}}, {"name": "PartitionedCall/model_9/tf.math.multiply_57/Mul", "op": "Mul", "input": ["PartitionedCall/model_9/tf.math.add_25/Add", "PartitionedCall/model_9/tf.math.sigmoid_14/Sigmoid"], "attr": {"T": {"type": "DT_FLOAT"}}}, {"name": "PartitionedCall/model_9/tf.math.add_27/Add", "op": "_FusedConv2D", "input": ["PartitionedCall/model_9/tf.math.multiply_57/Mul", "unknown_38", "unknown_39"], "device": "/device:CPU:0", "attr": {"num_host_args": {"i": "0"}, "data_format": {"s": "TkhXQw=="}, "filter_format": {"s": "SFdJTw=="}, "strides": {"list": {"i": ["1", "1", "1", "1"]}}, "num_args": {"i": "1"}, "fused_ops": {"list": {"s": ["Qmlhc0FkZA=="]}}, "TArgs": {"list": {"type": ["DT_FLOAT"]}}, "padding": {"s": "U0FNRQ=="}, "use_cudnn_on_gpu": {"b": true}, "leakyrelu_alpha": {"f": 0.2}, "epsilon": {"f": 0.0}, "T": {"type": "DT_FLOAT"}, "explicit_paddings": {"list": {}}, "dilations": {"list": {"i": ["1", "1", "1", "1"]}}}}, {"name": "PartitionedCall/model_9/tf.math.sigmoid_15/Sigmoid", "op": "Sigmoid", "input": ["PartitionedCall/model_9/tf.math.add_27/Add"], "attr": {"T": {"type": "DT_FLOAT"}}}, {"name": "PartitionedCall/model_9/tf.math.multiply_61/Mul", "op": "Mul", "input": ["PartitionedCall/model_9/tf.math.sigmoid_15/Sigmoid", "PartitionedCall/model_9/tf.math.multiply_54/Mul"], "attr": {"T": {"type": "DT_FLOAT"}}}, {"name": "PartitionedCall/model_9/tf.math.add_28/Add", "op": "_FusedConv2D", "input": ["PartitionedCall/model_9/tf.math.multiply_61/Mul", "unknown_40", "unknown_41"], "device": "/device:CPU:0", "attr": {"num_host_args": {"i": "0"}, "data_format": {"s": "TkhXQw=="}, "filter_format": {"s": "SFdJTw=="}, "fused_ops": {"list": {"s": ["Qmlhc0FkZA=="]}}, "num_args": {"i": "1"}, "strides": {"list": {"i": ["1", "1", "1", "1"]}}, "TArgs": {"list": {"type": ["DT_FLOAT"]}}, "padding": {"s": "U0FNRQ=="}, "use_cudnn_on_gpu": {"b": true}, "leakyrelu_alpha": {"f": 0.2}, "epsilon": {"f": 0.0}, "T": {"type": "DT_FLOAT"}, "explicit_paddings": {"list": {}}, "dilations": {"list": {"i": ["1", "1", "1", "1"]}}}}, {"name": "PartitionedCall/model_9/tf.math.add_29/Add", "op": "_FusedConv2D", "input": ["PartitionedCall/model_9/tf.math.add_28/Add", "unknown_42", "unknown_43"], "device": "/device:CPU:0", "attr": {"num_host_args": {"i": "0"}, "data_format": {"s": "TkhXQw=="}, "filter_format": {"s": "SFdJTw=="}, "fused_ops": {"list": {"s": ["Qmlhc0FkZA=="]}}, "num_args": {"i": "1"}, "strides": {"list": {"i": ["1", "1", "1", "1"]}}, "TArgs": {"list": {"type": ["DT_FLOAT"]}}, "padding": {"s": "U0FNRQ=="}, "use_cudnn_on_gpu": {"b": true}, "leakyrelu_alpha": {"f": 0.2}, "epsilon": {"f": 0.0}, "T": {"type": "DT_FLOAT"}, "explicit_paddings": {"list": {}}, "dilations": {"list": {"i": ["1", "1", "1", "1"]}}}}, {"name": "PartitionedCall/model_9/tf.math.sigmoid_16/Sigmoid", "op": "Sigmoid", "input": ["PartitionedCall/model_9/tf.math.add_29/Add"], "attr": {"T": {"type": "DT_FLOAT"}}}, {"name": "PartitionedCall/model_9/tf.math.multiply_65/Mul", "op": "Mul", "input": ["PartitionedCall/model_9/tf.math.add_29/Add", "PartitionedCall/model_9/tf.math.sigmoid_16/Sigmoid"], "attr": {"T": {"type": "DT_FLOAT"}}}, {"name": "PartitionedCall/model_9/tf.compat.v1.nn.depthwise_conv2d_4/depthwise", "op": "FusedDepthwiseConv2dNative", "input": ["PartitionedCall/model_9/tf.math.multiply_65/Mul", "unknown_44", "unknown_45"], "attr": {"padding": {"s": "U0FNRQ=="}, "data_format": {"s": "TkhXQw=="}, "strides": {"list": {"i": ["1", "1", "1", "1"]}}, "num_args": {"i": "1"}, "fused_ops": {"list": {"s": ["Qmlhc0FkZA=="]}}, "T": {"type": "DT_FLOAT"}, "explicit_paddings": {"list": {}}, "dilations": {"list": {"i": ["1", "1", "1", "1"]}}}}, {"name": "PartitionedCall/model_9/tf.math.sigmoid_17/Sigmoid", "op": "Sigmoid", "input": ["PartitionedCall/model_9/tf.compat.v1.nn.depthwise_conv2d_4/depthwise"], "attr": {"T": {"type": "DT_FLOAT"}}}, {"name": "PartitionedCall/model_9/tf.math.multiply_69/Mul", "op": "Mul", "input": ["PartitionedCall/model_9/tf.compat.v1.nn.depthwise_conv2d_4/depthwise", "PartitionedCall/model_9/tf.math.sigmoid_17/Sigmoid"], "attr": {"T": {"type": "DT_FLOAT"}}}, {"name": "PartitionedCall/model_9/tf.math.reduce_mean_4/Mean", "op": "Mean", "input": ["PartitionedCall/model_9/tf.math.multiply_69/Mul", "PartitionedCall/model_9/tf.math.reduce_mean_4/Mean/reduction_indices"], "attr": {"Tidx": {"type": "DT_INT32"}, "T": {"type": "DT_FLOAT"}, "keep_dims": {"b": true}}}, {"name": "PartitionedCall/model_9/tf.math.add_31/Add", "op": "_FusedConv2D", "input": ["PartitionedCall/model_9/tf.math.reduce_mean_4/Mean", "unknown_46", "unknown_47"], "device": "/device:CPU:0", "attr": {"num_host_args": {"i": "0"}, "data_format": {"s": "TkhXQw=="}, "filter_format": {"s": "SFdJTw=="}, "strides": {"list": {"i": ["1", "1", "1", "1"]}}, "num_args": {"i": "1"}, "fused_ops": {"list": {"s": ["Qmlhc0FkZA=="]}}, "TArgs": {"list": {"type": ["DT_FLOAT"]}}, "padding": {"s": "U0FNRQ=="}, "use_cudnn_on_gpu": {"b": true}, "leakyrelu_alpha": {"f": 0.2}, "epsilon": {"f": 0.0}, "T": {"type": "DT_FLOAT"}, "explicit_paddings": {"list": {}}, "dilations": {"list": {"i": ["1", "1", "1", "1"]}}}}, {"name": "PartitionedCall/model_9/tf.math.sigmoid_18/Sigmoid", "op": "Sigmoid", "input": ["PartitionedCall/model_9/tf.math.add_31/Add"], "attr": {"T": {"type": "DT_FLOAT"}}}, {"name": "PartitionedCall/model_9/tf.math.multiply_72/Mul", "op": "Mul", "input": ["PartitionedCall/model_9/tf.math.add_31/Add", "PartitionedCall/model_9/tf.math.sigmoid_18/Sigmoid"], "attr": {"T": {"type": "DT_FLOAT"}}}, {"name": "PartitionedCall/model_9/tf.math.add_32/Add", "op": "_FusedConv2D", "input": ["PartitionedCall/model_9/tf.math.multiply_72/Mul", "unknown_48", "unknown_49"], "device": "/device:CPU:0", "attr": {"num_host_args": {"i": "0"}, "data_format": {"s": "TkhXQw=="}, "filter_format": {"s": "SFdJTw=="}, "strides": {"list": {"i": ["1", "1", "1", "1"]}}, "num_args": {"i": "1"}, "fused_ops": {"list": {"s": ["Qmlhc0FkZA=="]}}, "TArgs": {"list": {"type": ["DT_FLOAT"]}}, "padding": {"s": "U0FNRQ=="}, "use_cudnn_on_gpu": {"b": true}, "leakyrelu_alpha": {"f": 0.2}, "epsilon": {"f": 0.0}, "T": {"type": "DT_FLOAT"}, "explicit_paddings": {"list": {}}, "dilations": {"list": {"i": ["1", "1", "1", "1"]}}}}, {"name": "PartitionedCall/model_9/tf.math.sigmoid_19/Sigmoid", "op": "Sigmoid", "input": ["PartitionedCall/model_9/tf.math.add_32/Add"], "attr": {"T": {"type": "DT_FLOAT"}}}, {"name": "PartitionedCall/model_9/tf.math.multiply_76/Mul", "op": "Mul", "input": ["PartitionedCall/model_9/tf.math.sigmoid_19/Sigmoid", "PartitionedCall/model_9/tf.math.multiply_69/Mul"], "attr": {"T": {"type": "DT_FLOAT"}}}, {"name": "PartitionedCall/model_9/tf.nn.convolution_26/convolution", "op": "Conv2D", "input": ["PartitionedCall/model_9/tf.math.multiply_76/Mul", "unknown_50"], "device": "/device:CPU:0", "attr": {"padding": {"s": "U0FNRQ=="}, "data_format": {"s": "TkhXQw=="}, "use_cudnn_on_gpu": {"b": true}, "strides": {"list": {"i": ["1", "1", "1", "1"]}}, "T": {"type": "DT_FLOAT"}, "explicit_paddings": {"list": {}}, "dilations": {"list": {"i": ["1", "1", "1", "1"]}}}}, {"name": "PartitionedCall/model_9/tf.math.add_35/ArithmeticOptimizer/AddOpsRewrite_Leaf_1_Add", "op": "AddN", "input": ["PartitionedCall/model_9/tf.nn.convolution_26/convolution", "PartitionedCall/model_9/tf.math.add_28/Add"], "attr": {"N": {"i": "2"}, "T": {"type": "DT_FLOAT"}, "_grappler_ArithmeticOptimizer_AddOpsRewriteStage": {"b": true}}}, {"name": "PartitionedCall/model_9/tf.math.add_35/ArithmeticOptimizer/AddOpsRewrite_Add", "op": "AddV2", "input": ["unknown_51", "PartitionedCall/model_9/tf.math.add_35/ArithmeticOptimizer/AddOpsRewrite_Leaf_1_Add"], "attr": {"T": {"type": "DT_FLOAT"}, "_grappler_ArithmeticOptimizer_AddOpsRewriteStage": {"b": true}}}, {"name": "PartitionedCall/model_9/tf.strided_slice_4/StridedSlice", "op": "StridedSlice", "input": ["PartitionedCall/model_9/tf.math.add_35/ArithmeticOptimizer/AddOpsRewrite_Add", "unknown_177", "unknown_178", "PartitionedCall/model_9/tf.strided_slice_4/ones_like"], "attr": {"shrink_axis_mask": {"i": "0"}, "Index": {"type": "DT_INT64"}, "new_axis_mask": {"i": "0"}, "begin_mask": {"i": "15"}, "end_mask": {"i": "14"}, "T": {"type": "DT_FLOAT"}, "ellipsis_mask": {"i": "0"}}}, {"name": "PartitionedCall/model_9/tf.strided_slice_5/StridedSlice", "op": "StridedSlice", "input": ["PartitionedCall/model_9/tf.math.add_35/ArithmeticOptimizer/AddOpsRewrite_Add", "unknown_179", "unknown_180", "PartitionedCall/model_9/tf.strided_slice_5/ones_like"], "attr": {"shrink_axis_mask": {"i": "0"}, "new_axis_mask": {"i": "0"}, "Index": {"type": "DT_INT64"}, "begin_mask": {"i": "14"}, "T": {"type": "DT_FLOAT"}, "end_mask": {"i": "14"}, "ellipsis_mask": {"i": "0"}}}, {"name": "PartitionedCall/model_9/tf.math.add_36/Add", "op": "_FusedConv2D", "input": ["PartitionedCall/model_9/tf.math.add_35/ArithmeticOptimizer/AddOpsRewrite_Add", "unknown_52", "unknown_53"], "device": "/device:CPU:0", "attr": {"num_host_args": {"i": "0"}, "data_format": {"s": "TkhXQw=="}, "filter_format": {"s": "SFdJTw=="}, "fused_ops": {"list": {"s": ["Qmlhc0FkZA=="]}}, "num_args": {"i": "1"}, "strides": {"list": {"i": ["1", "1", "1", "1"]}}, "TArgs": {"list": {"type": ["DT_FLOAT"]}}, "padding": {"s": "U0FNRQ=="}, "use_cudnn_on_gpu": {"b": true}, "leakyrelu_alpha": {"f": 0.2}, "epsilon": {"f": 0.0}, "T": {"type": "DT_FLOAT"}, "explicit_paddings": {"list": {}}, "dilations": {"list": {"i": ["1", "1", "1", "1"]}}}}, {"name": "PartitionedCall/model_9/tf.concat_9/concat", "op": "ConcatV2", "input": ["PartitionedCall/model_9/tf.strided_slice_4/StridedSlice", "PartitionedCall/model_9/tf.strided_slice_5/StridedSlice", "PartitionedCall/model_9/tf.concat_9/concat/axis"], "attr": {"N": {"i": "2"}, "T": {"type": "DT_FLOAT"}, "Tidx": {"type": "DT_INT32"}}}, {"name": "PartitionedCall/model_9/tf.math.sigmoid_20/Sigmoid", "op": "Sigmoid", "input": ["PartitionedCall/model_9/tf.math.add_36/Add"], "attr": {"T": {"type": "DT_FLOAT"}}}, {"name": "PartitionedCall/model_9/tf.nn.leaky_relu_2/LeakyRelu", "op": "_FusedConv2D", "input": ["PartitionedCall/model_9/tf.concat_9/concat", "unknown_182", "unknown_184"], "device": "/device:CPU:0", "attr": {"num_host_args": {"i": "0"}, "data_format": {"s": "TkhXQw=="}, "filter_format": {"s": "SFdJTw=="}, "fused_ops": {"list": {"s": ["Qmlhc0FkZA==", "TGVha3lSZWx1"]}}, "num_args": {"i": "1"}, "strides": {"list": {"i": ["1", "1", "1", "1"]}}, "TArgs": {"list": {"type": ["DT_FLOAT"]}}, "padding": {"s": "U0FNRQ=="}, "use_cudnn_on_gpu": {"b": true}, "leakyrelu_alpha": {"f": 0.01}, "epsilon": {"f": 0.0}, "T": {"type": "DT_FLOAT"}, "explicit_paddings": {"list": {}}, "dilations": {"list": {"i": ["1", "1", "1", "1"]}}}}, {"name": "PartitionedCall/model_9/tf.math.multiply_82/Mul", "op": "Mul", "input": ["PartitionedCall/model_9/tf.math.add_36/Add", "PartitionedCall/model_9/tf.math.sigmoid_20/Sigmoid"], "attr": {"T": {"type": "DT_FLOAT"}}}, {"name": "PartitionedCall/model_9/tf.math.add_39/Add", "op": "_FusedConv2D", "input": ["PartitionedCall/model_9/tf.nn.leaky_relu_2/LeakyRelu", "unknown_189", "unknown_191"], "device": "/device:CPU:0", "attr": {"num_host_args": {"i": "0"}, "data_format": {"s": "TkhXQw=="}, "filter_format": {"s": "SFdJTw=="}, "fused_ops": {"list": {"s": ["Qmlhc0FkZA=="]}}, "num_args": {"i": "1"}, "strides": {"list": {"i": ["1", "1", "1", "1"]}}, "TArgs": {"list": {"type": ["DT_FLOAT"]}}, "padding": {"s": "U0FNRQ=="}, "use_cudnn_on_gpu": {"b": true}, "leakyrelu_alpha": {"f": 0.2}, "epsilon": {"f": 0.0}, "T": {"type": "DT_FLOAT"}, "explicit_paddings": {"list": {}}, "dilations": {"list": {"i": ["1", "1", "1", "1"]}}}}, {"name": "PartitionedCall/model_9/tf.compat.v1.pad_5/Pad", "op": "Pad", "input": ["PartitionedCall/model_9/tf.math.multiply_82/Mul", "unknown_54"], "attr": {"Tpaddings": {"type": "DT_INT32"}, "T": {"type": "DT_FLOAT"}}}, {"name": "PartitionedCall/model_9/tf.concat_10/concat", "op": "ConcatV2", "input": ["PartitionedCall/model_9/tf.nn.relu_1/Relu", "PartitionedCall/model_9/tf.math.add_39/Add", "PartitionedCall/model_9/tf.concat_10/concat/axis"], "attr": {"N": {"i": "2"}, "Tidx": {"type": "DT_INT32"}, "T": {"type": "DT_FLOAT"}}}, {"name": "PartitionedCall/model_9/tf.compat.v1.nn.depthwise_conv2d_5/depthwise", "op": "FusedDepthwiseConv2dNative", "input": ["PartitionedCall/model_9/tf.compat.v1.pad_5/Pad", "unknown_55", "unknown_56"], "attr": {"padding": {"s": "VkFMSUQ="}, "data_format": {"s": "TkhXQw=="}, "strides": {"list": {"i": ["1", "2", "2", "1"]}}, "num_args": {"i": "1"}, "fused_ops": {"list": {"s": ["Qmlhc0FkZA=="]}}, "T": {"type": "DT_FLOAT"}, "explicit_paddings": {"list": {}}, "dilations": {"list": {"i": ["1", "1", "1", "1"]}}}}, {"name": "PartitionedCall/model_9/tf.math.add_40/Add", "op": "_FusedConv2D", "input": ["PartitionedCall/model_9/tf.concat_10/concat", "unknown_197", "unknown_200"], "device": "/device:CPU:0", "attr": {"num_host_args": {"i": "0"}, "data_format": {"s": "TkhXQw=="}, "filter_format": {"s": "SFdJTw=="}, "fused_ops": {"list": {"s": ["Qmlhc0FkZA=="]}}, "num_args": {"i": "1"}, "strides": {"list": {"i": ["1", "1", "1", "1"]}}, "TArgs": {"list": {"type": ["DT_FLOAT"]}}, "padding": {"s": "U0FNRQ=="}, "use_cudnn_on_gpu": {"b": true}, "leakyrelu_alpha": {"f": 0.2}, "epsilon": {"f": 0.0}, "T": {"type": "DT_FLOAT"}, "explicit_paddings": {"list": {}}, "dilations": {"list": {"i": ["1", "1", "1", "1"]}}}}, {"name": "PartitionedCall/model_9/tf.compat.v1.pad_6/Pad", "op": "Pad", "input": ["PartitionedCall/model_9/tf.math.add_40/Add", "unknown_202"], "attr": {"Tpaddings": {"type": "DT_INT32"}, "T": {"type": "DT_FLOAT"}}}, {"name": "PartitionedCall/model_9/tf.math.sigmoid_21/Sigmoid", "op": "Sigmoid", "input": ["PartitionedCall/model_9/tf.compat.v1.nn.depthwise_conv2d_5/depthwise"], "attr": {"T": {"type": "DT_FLOAT"}}}, {"name": "PartitionedCall/model_9/tf.nn.relu_2/Relu", "op": "_FusedConv2D", "input": ["PartitionedCall/model_9/tf.compat.v1.pad_6/Pad", "unknown_203", "unknown_206"], "device": "/device:CPU:0", "attr": {"num_host_args": {"i": "0"}, "data_format": {"s": "TkhXQw=="}, "filter_format": {"s": "SFdJTw=="}, "fused_ops": {"list": {"s": ["Qmlhc0FkZA==", "UmVsdQ=="]}}, "num_args": {"i": "1"}, "strides": {"list": {"i": ["1", "2", "2", "1"]}}, "TArgs": {"list": {"type": ["DT_FLOAT"]}}, "padding": {"s": "VkFMSUQ="}, "use_cudnn_on_gpu": {"b": true}, "leakyrelu_alpha": {"f": 0.2}, "epsilon": {"f": 0.0}, "T": {"type": "DT_FLOAT"}, "explicit_paddings": {"list": {}}, "dilations": {"list": {"i": ["1", "1", "1", "1"]}}}}, {"name": "PartitionedCall/model_9/tf.math.multiply_86/Mul", "op": "Mul", "input": ["PartitionedCall/model_9/tf.compat.v1.nn.depthwise_conv2d_5/depthwise", "PartitionedCall/model_9/tf.math.sigmoid_21/Sigmoid"], "attr": {"T": {"type": "DT_FLOAT"}}}, {"name": "PartitionedCall/model_9/tf.math.reduce_mean_5/Mean", "op": "Mean", "input": ["PartitionedCall/model_9/tf.math.multiply_86/Mul", "PartitionedCall/model_9/tf.math.reduce_mean_5/Mean/reduction_indices"], "attr": {"T": {"type": "DT_FLOAT"}, "Tidx": {"type": "DT_INT32"}, "keep_dims": {"b": true}}}, {"name": "PartitionedCall/model_9/tf.math.add_41/Add", "op": "_FusedConv2D", "input": ["PartitionedCall/model_9/tf.math.reduce_mean_5/Mean", "unknown_57", "unknown_58"], "device": "/device:CPU:0", "attr": {"num_host_args": {"i": "0"}, "data_format": {"s": "TkhXQw=="}, "filter_format": {"s": "SFdJTw=="}, "strides": {"list": {"i": ["1", "1", "1", "1"]}}, "num_args": {"i": "1"}, "fused_ops": {"list": {"s": ["Qmlhc0FkZA=="]}}, "TArgs": {"list": {"type": ["DT_FLOAT"]}}, "padding": {"s": "U0FNRQ=="}, "use_cudnn_on_gpu": {"b": true}, "leakyrelu_alpha": {"f": 0.2}, "epsilon": {"f": 0.0}, "T": {"type": "DT_FLOAT"}, "explicit_paddings": {"list": {}}, "dilations": {"list": {"i": ["1", "1", "1", "1"]}}}}, {"name": "PartitionedCall/model_9/tf.math.sigmoid_22/Sigmoid", "op": "Sigmoid", "input": ["PartitionedCall/model_9/tf.math.add_41/Add"], "attr": {"T": {"type": "DT_FLOAT"}}}, {"name": "PartitionedCall/model_9/tf.math.multiply_89/Mul", "op": "Mul", "input": ["PartitionedCall/model_9/tf.math.add_41/Add", "PartitionedCall/model_9/tf.math.sigmoid_22/Sigmoid"], "attr": {"T": {"type": "DT_FLOAT"}}}, {"name": "PartitionedCall/model_9/tf.math.add_43/Add", "op": "_FusedConv2D", "input": ["PartitionedCall/model_9/tf.math.multiply_89/Mul", "unknown_59", "unknown_60"], "device": "/device:CPU:0", "attr": {"num_host_args": {"i": "0"}, "data_format": {"s": "TkhXQw=="}, "filter_format": {"s": "SFdJTw=="}, "fused_ops": {"list": {"s": ["Qmlhc0FkZA=="]}}, "num_args": {"i": "1"}, "strides": {"list": {"i": ["1", "1", "1", "1"]}}, "TArgs": {"list": {"type": ["DT_FLOAT"]}}, "padding": {"s": "U0FNRQ=="}, "use_cudnn_on_gpu": {"b": true}, "leakyrelu_alpha": {"f": 0.2}, "epsilon": {"f": 0.0}, "T": {"type": "DT_FLOAT"}, "explicit_paddings": {"list": {}}, "dilations": {"list": {"i": ["1", "1", "1", "1"]}}}}, {"name": "PartitionedCall/model_9/tf.math.sigmoid_23/Sigmoid", "op": "Sigmoid", "input": ["PartitionedCall/model_9/tf.math.add_43/Add"], "attr": {"T": {"type": "DT_FLOAT"}}}, {"name": "PartitionedCall/model_9/tf.math.multiply_93/Mul", "op": "Mul", "input": ["PartitionedCall/model_9/tf.math.sigmoid_23/Sigmoid", "PartitionedCall/model_9/tf.math.multiply_86/Mul"], "attr": {"T": {"type": "DT_FLOAT"}}}, {"name": "PartitionedCall/model_9/tf.math.add_44/Add", "op": "_FusedConv2D", "input": ["PartitionedCall/model_9/tf.math.multiply_93/Mul", "unknown_61", "unknown_62"], "device": "/device:CPU:0", "attr": {"num_host_args": {"i": "0"}, "data_format": {"s": "TkhXQw=="}, "filter_format": {"s": "SFdJTw=="}, "strides": {"list": {"i": ["1", "1", "1", "1"]}}, "num_args": {"i": "1"}, "fused_ops": {"list": {"s": ["Qmlhc0FkZA=="]}}, "TArgs": {"list": {"type": ["DT_FLOAT"]}}, "padding": {"s": "U0FNRQ=="}, "use_cudnn_on_gpu": {"b": true}, "leakyrelu_alpha": {"f": 0.2}, "epsilon": {"f": 0.0}, "T": {"type": "DT_FLOAT"}, "explicit_paddings": {"list": {}}, "dilations": {"list": {"i": ["1", "1", "1", "1"]}}}}, {"name": "PartitionedCall/model_9/tf.math.add_45/Add", "op": "_FusedConv2D", "input": ["PartitionedCall/model_9/tf.math.add_44/Add", "unknown_63", "unknown_64"], "device": "/device:CPU:0", "attr": {"num_host_args": {"i": "0"}, "data_format": {"s": "TkhXQw=="}, "filter_format": {"s": "SFdJTw=="}, "fused_ops": {"list": {"s": ["Qmlhc0FkZA=="]}}, "num_args": {"i": "1"}, "strides": {"list": {"i": ["1", "1", "1", "1"]}}, "TArgs": {"list": {"type": ["DT_FLOAT"]}}, "padding": {"s": "U0FNRQ=="}, "use_cudnn_on_gpu": {"b": true}, "leakyrelu_alpha": {"f": 0.2}, "epsilon": {"f": 0.0}, "T": {"type": "DT_FLOAT"}, "explicit_paddings": {"list": {}}, "dilations": {"list": {"i": ["1", "1", "1", "1"]}}}}, {"name": "PartitionedCall/model_9/tf.math.sigmoid_24/Sigmoid", "op": "Sigmoid", "input": ["PartitionedCall/model_9/tf.math.add_45/Add"], "attr": {"T": {"type": "DT_FLOAT"}}}, {"name": "PartitionedCall/model_9/tf.math.multiply_97/Mul", "op": "Mul", "input": ["PartitionedCall/model_9/tf.math.add_45/Add", "PartitionedCall/model_9/tf.math.sigmoid_24/Sigmoid"], "attr": {"T": {"type": "DT_FLOAT"}}}, {"name": "PartitionedCall/model_9/tf.compat.v1.nn.depthwise_conv2d_6/depthwise", "op": "FusedDepthwiseConv2dNative", "input": ["PartitionedCall/model_9/tf.math.multiply_97/Mul", "unknown_65", "unknown_66"], "attr": {"padding": {"s": "U0FNRQ=="}, "data_format": {"s": "TkhXQw=="}, "strides": {"list": {"i": ["1", "1", "1", "1"]}}, "num_args": {"i": "1"}, "fused_ops": {"list": {"s": ["Qmlhc0FkZA=="]}}, "T": {"type": "DT_FLOAT"}, "explicit_paddings": {"list": {}}, "dilations": {"list": {"i": ["1", "1", "1", "1"]}}}}, {"name": "PartitionedCall/model_9/tf.math.sigmoid_25/Sigmoid", "op": "Sigmoid", "input": ["PartitionedCall/model_9/tf.compat.v1.nn.depthwise_conv2d_6/depthwise"], "attr": {"T": {"type": "DT_FLOAT"}}}, {"name": "PartitionedCall/model_9/tf.math.multiply_101/Mul", "op": "Mul", "input": ["PartitionedCall/model_9/tf.compat.v1.nn.depthwise_conv2d_6/depthwise", "PartitionedCall/model_9/tf.math.sigmoid_25/Sigmoid"], "attr": {"T": {"type": "DT_FLOAT"}}}, {"name": "PartitionedCall/model_9/tf.math.reduce_mean_6/Mean", "op": "Mean", "input": ["PartitionedCall/model_9/tf.math.multiply_101/Mul", "PartitionedCall/model_9/tf.math.reduce_mean_6/Mean/reduction_indices"], "attr": {"Tidx": {"type": "DT_INT32"}, "T": {"type": "DT_FLOAT"}, "keep_dims": {"b": true}}}, {"name": "PartitionedCall/model_9/tf.math.add_47/Add", "op": "_FusedConv2D", "input": ["PartitionedCall/model_9/tf.math.reduce_mean_6/Mean", "unknown_67", "unknown_68"], "device": "/device:CPU:0", "attr": {"num_host_args": {"i": "0"}, "data_format": {"s": "TkhXQw=="}, "filter_format": {"s": "SFdJTw=="}, "strides": {"list": {"i": ["1", "1", "1", "1"]}}, "num_args": {"i": "1"}, "fused_ops": {"list": {"s": ["Qmlhc0FkZA=="]}}, "TArgs": {"list": {"type": ["DT_FLOAT"]}}, "padding": {"s": "U0FNRQ=="}, "use_cudnn_on_gpu": {"b": true}, "leakyrelu_alpha": {"f": 0.2}, "epsilon": {"f": 0.0}, "T": {"type": "DT_FLOAT"}, "explicit_paddings": {"list": {}}, "dilations": {"list": {"i": ["1", "1", "1", "1"]}}}}, {"name": "PartitionedCall/model_9/tf.math.sigmoid_26/Sigmoid", "op": "Sigmoid", "input": ["PartitionedCall/model_9/tf.math.add_47/Add"], "attr": {"T": {"type": "DT_FLOAT"}}}, {"name": "PartitionedCall/model_9/tf.math.multiply_104/Mul", "op": "Mul", "input": ["PartitionedCall/model_9/tf.math.add_47/Add", "PartitionedCall/model_9/tf.math.sigmoid_26/Sigmoid"], "attr": {"T": {"type": "DT_FLOAT"}}}, {"name": "PartitionedCall/model_9/tf.math.add_48/Add", "op": "_FusedConv2D", "input": ["PartitionedCall/model_9/tf.math.multiply_104/Mul", "unknown_69", "unknown_70"], "device": "/device:CPU:0", "attr": {"num_host_args": {"i": "0"}, "data_format": {"s": "TkhXQw=="}, "filter_format": {"s": "SFdJTw=="}, "strides": {"list": {"i": ["1", "1", "1", "1"]}}, "num_args": {"i": "1"}, "fused_ops": {"list": {"s": ["Qmlhc0FkZA=="]}}, "TArgs": {"list": {"type": ["DT_FLOAT"]}}, "padding": {"s": "U0FNRQ=="}, "use_cudnn_on_gpu": {"b": true}, "leakyrelu_alpha": {"f": 0.2}, "epsilon": {"f": 0.0}, "T": {"type": "DT_FLOAT"}, "explicit_paddings": {"list": {}}, "dilations": {"list": {"i": ["1", "1", "1", "1"]}}}}, {"name": "PartitionedCall/model_9/tf.math.sigmoid_27/Sigmoid", "op": "Sigmoid", "input": ["PartitionedCall/model_9/tf.math.add_48/Add"], "attr": {"T": {"type": "DT_FLOAT"}}}, {"name": "PartitionedCall/model_9/tf.math.multiply_108/Mul", "op": "Mul", "input": ["PartitionedCall/model_9/tf.math.sigmoid_27/Sigmoid", "PartitionedCall/model_9/tf.math.multiply_101/Mul"], "attr": {"T": {"type": "DT_FLOAT"}}}, {"name": "PartitionedCall/model_9/tf.nn.convolution_38/convolution", "op": "Conv2D", "input": ["PartitionedCall/model_9/tf.math.multiply_108/Mul", "unknown_71"], "device": "/device:CPU:0", "attr": {"padding": {"s": "U0FNRQ=="}, "data_format": {"s": "TkhXQw=="}, "use_cudnn_on_gpu": {"b": true}, "strides": {"list": {"i": ["1", "1", "1", "1"]}}, "T": {"type": "DT_FLOAT"}, "explicit_paddings": {"list": {}}, "dilations": {"list": {"i": ["1", "1", "1", "1"]}}}}, {"name": "PartitionedCall/model_9/tf.math.add_51/ArithmeticOptimizer/AddOpsRewrite_Leaf_1_Add", "op": "AddN", "input": ["PartitionedCall/model_9/tf.nn.convolution_38/convolution", "PartitionedCall/model_9/tf.math.add_44/Add"], "attr": {"N": {"i": "2"}, "T": {"type": "DT_FLOAT"}, "_grappler_ArithmeticOptimizer_AddOpsRewriteStage": {"b": true}}}, {"name": "PartitionedCall/model_9/tf.math.add_51/ArithmeticOptimizer/AddOpsRewrite_Add", "op": "AddV2", "input": ["unknown_72", "PartitionedCall/model_9/tf.math.add_51/ArithmeticOptimizer/AddOpsRewrite_Leaf_1_Add"], "attr": {"T": {"type": "DT_FLOAT"}, "_grappler_ArithmeticOptimizer_AddOpsRewriteStage": {"b": true}}}, {"name": "PartitionedCall/model_9/tf.math.add_52/Add", "op": "_FusedConv2D", "input": ["PartitionedCall/model_9/tf.math.add_51/ArithmeticOptimizer/AddOpsRewrite_Add", "unknown_73", "unknown_74"], "device": "/device:CPU:0", "attr": {"num_host_args": {"i": "0"}, "data_format": {"s": "TkhXQw=="}, "filter_format": {"s": "SFdJTw=="}, "fused_ops": {"list": {"s": ["Qmlhc0FkZA=="]}}, "num_args": {"i": "1"}, "strides": {"list": {"i": ["1", "1", "1", "1"]}}, "TArgs": {"list": {"type": ["DT_FLOAT"]}}, "padding": {"s": "U0FNRQ=="}, "use_cudnn_on_gpu": {"b": true}, "leakyrelu_alpha": {"f": 0.2}, "epsilon": {"f": 0.0}, "T": {"type": "DT_FLOAT"}, "explicit_paddings": {"list": {}}, "dilations": {"list": {"i": ["1", "1", "1", "1"]}}}}, {"name": "PartitionedCall/model_9/tf.math.sigmoid_28/Sigmoid", "op": "Sigmoid", "input": ["PartitionedCall/model_9/tf.math.add_52/Add"], "attr": {"T": {"type": "DT_FLOAT"}}}, {"name": "PartitionedCall/model_9/tf.math.multiply_114/Mul", "op": "Mul", "input": ["PartitionedCall/model_9/tf.math.add_52/Add", "PartitionedCall/model_9/tf.math.sigmoid_28/Sigmoid"], "attr": {"T": {"type": "DT_FLOAT"}}}, {"name": "PartitionedCall/model_9/tf.compat.v1.nn.depthwise_conv2d_7/depthwise", "op": "FusedDepthwiseConv2dNative", "input": ["PartitionedCall/model_9/tf.math.multiply_114/Mul", "unknown_75", "unknown_76"], "attr": {"padding": {"s": "U0FNRQ=="}, "data_format": {"s": "TkhXQw=="}, "strides": {"list": {"i": ["1", "1", "1", "1"]}}, "num_args": {"i": "1"}, "fused_ops": {"list": {"s": ["Qmlhc0FkZA=="]}}, "T": {"type": "DT_FLOAT"}, "explicit_paddings": {"list": {}}, "dilations": {"list": {"i": ["1", "1", "1", "1"]}}}}, {"name": "PartitionedCall/model_9/tf.math.sigmoid_29/Sigmoid", "op": "Sigmoid", "input": ["PartitionedCall/model_9/tf.compat.v1.nn.depthwise_conv2d_7/depthwise"], "attr": {"T": {"type": "DT_FLOAT"}}}, {"name": "PartitionedCall/model_9/tf.math.multiply_118/Mul", "op": "Mul", "input": ["PartitionedCall/model_9/tf.compat.v1.nn.depthwise_conv2d_7/depthwise", "PartitionedCall/model_9/tf.math.sigmoid_29/Sigmoid"], "attr": {"T": {"type": "DT_FLOAT"}}}, {"name": "PartitionedCall/model_9/tf.math.reduce_mean_7/Mean", "op": "Mean", "input": ["PartitionedCall/model_9/tf.math.multiply_118/Mul", "PartitionedCall/model_9/tf.math.reduce_mean_7/Mean/reduction_indices"], "attr": {"Tidx": {"type": "DT_INT32"}, "T": {"type": "DT_FLOAT"}, "keep_dims": {"b": true}}}, {"name": "PartitionedCall/model_9/tf.math.add_54/Add", "op": "_FusedConv2D", "input": ["PartitionedCall/model_9/tf.math.reduce_mean_7/Mean", "unknown_77", "unknown_78"], "device": "/device:CPU:0", "attr": {"num_host_args": {"i": "0"}, "data_format": {"s": "TkhXQw=="}, "filter_format": {"s": "SFdJTw=="}, "fused_ops": {"list": {"s": ["Qmlhc0FkZA=="]}}, "num_args": {"i": "1"}, "strides": {"list": {"i": ["1", "1", "1", "1"]}}, "TArgs": {"list": {"type": ["DT_FLOAT"]}}, "padding": {"s": "U0FNRQ=="}, "use_cudnn_on_gpu": {"b": true}, "leakyrelu_alpha": {"f": 0.2}, "epsilon": {"f": 0.0}, "T": {"type": "DT_FLOAT"}, "explicit_paddings": {"list": {}}, "dilations": {"list": {"i": ["1", "1", "1", "1"]}}}}, {"name": "PartitionedCall/model_9/tf.math.sigmoid_30/Sigmoid", "op": "Sigmoid", "input": ["PartitionedCall/model_9/tf.math.add_54/Add"], "attr": {"T": {"type": "DT_FLOAT"}}}, {"name": "PartitionedCall/model_9/tf.math.multiply_121/Mul", "op": "Mul", "input": ["PartitionedCall/model_9/tf.math.add_54/Add", "PartitionedCall/model_9/tf.math.sigmoid_30/Sigmoid"], "attr": {"T": {"type": "DT_FLOAT"}}}, {"name": "PartitionedCall/model_9/tf.math.add_55/Add", "op": "_FusedConv2D", "input": ["PartitionedCall/model_9/tf.math.multiply_121/Mul", "unknown_79", "unknown_80"], "device": "/device:CPU:0", "attr": {"num_host_args": {"i": "0"}, "data_format": {"s": "TkhXQw=="}, "filter_format": {"s": "SFdJTw=="}, "fused_ops": {"list": {"s": ["Qmlhc0FkZA=="]}}, "num_args": {"i": "1"}, "strides": {"list": {"i": ["1", "1", "1", "1"]}}, "TArgs": {"list": {"type": ["DT_FLOAT"]}}, "padding": {"s": "U0FNRQ=="}, "use_cudnn_on_gpu": {"b": true}, "leakyrelu_alpha": {"f": 0.2}, "epsilon": {"f": 0.0}, "T": {"type": "DT_FLOAT"}, "explicit_paddings": {"list": {}}, "dilations": {"list": {"i": ["1", "1", "1", "1"]}}}}, {"name": "PartitionedCall/model_9/tf.math.sigmoid_31/Sigmoid", "op": "Sigmoid", "input": ["PartitionedCall/model_9/tf.math.add_55/Add"], "attr": {"T": {"type": "DT_FLOAT"}}}, {"name": "PartitionedCall/model_9/tf.math.multiply_125/Mul", "op": "Mul", "input": ["PartitionedCall/model_9/tf.math.sigmoid_31/Sigmoid", "PartitionedCall/model_9/tf.math.multiply_118/Mul"], "attr": {"T": {"type": "DT_FLOAT"}}}, {"name": "PartitionedCall/model_9/tf.nn.convolution_42/convolution", "op": "Conv2D", "input": ["PartitionedCall/model_9/tf.math.multiply_125/Mul", "unknown_81"], "device": "/device:CPU:0", "attr": {"padding": {"s": "U0FNRQ=="}, "data_format": {"s": "TkhXQw=="}, "strides": {"list": {"i": ["1", "1", "1", "1"]}}, "use_cudnn_on_gpu": {"b": true}, "T": {"type": "DT_FLOAT"}, "explicit_paddings": {"list": {}}, "dilations": {"list": {"i": ["1", "1", "1", "1"]}}}}, {"name": "PartitionedCall/model_9/tf.math.add_58/ArithmeticOptimizer/AddOpsRewrite_Leaf_1_Add", "op": "AddN", "input": ["PartitionedCall/model_9/tf.nn.convolution_42/convolution", "PartitionedCall/model_9/tf.math.add_51/ArithmeticOptimizer/AddOpsRewrite_Add"], "attr": {"N": {"i": "2"}, "T": {"type": "DT_FLOAT"}, "_grappler_ArithmeticOptimizer_AddOpsRewriteStage": {"b": true}}}, {"name": "PartitionedCall/model_9/tf.math.add_58/ArithmeticOptimizer/AddOpsRewrite_Add", "op": "AddV2", "input": ["unknown_82", "PartitionedCall/model_9/tf.math.add_58/ArithmeticOptimizer/AddOpsRewrite_Leaf_1_Add"], "attr": {"T": {"type": "DT_FLOAT"}, "_grappler_ArithmeticOptimizer_AddOpsRewriteStage": {"b": true}}}, {"name": "PartitionedCall/model_9/tf.math.add_59/Add", "op": "_FusedConv2D", "input": ["PartitionedCall/model_9/tf.math.add_58/ArithmeticOptimizer/AddOpsRewrite_Add", "unknown_83", "unknown_84"], "device": "/device:CPU:0", "attr": {"num_host_args": {"i": "0"}, "data_format": {"s": "TkhXQw=="}, "filter_format": {"s": "SFdJTw=="}, "fused_ops": {"list": {"s": ["Qmlhc0FkZA=="]}}, "num_args": {"i": "1"}, "strides": {"list": {"i": ["1", "1", "1", "1"]}}, "TArgs": {"list": {"type": ["DT_FLOAT"]}}, "padding": {"s": "U0FNRQ=="}, "use_cudnn_on_gpu": {"b": true}, "leakyrelu_alpha": {"f": 0.2}, "epsilon": {"f": 0.0}, "T": {"type": "DT_FLOAT"}, "explicit_paddings": {"list": {}}, "dilations": {"list": {"i": ["1", "1", "1", "1"]}}}}, {"name": "PartitionedCall/model_9/tf.math.sigmoid_32/Sigmoid", "op": "Sigmoid", "input": ["PartitionedCall/model_9/tf.math.add_59/Add"], "attr": {"T": {"type": "DT_FLOAT"}}}, {"name": "PartitionedCall/model_9/tf.math.multiply_131/Mul", "op": "Mul", "input": ["PartitionedCall/model_9/tf.math.add_59/Add", "PartitionedCall/model_9/tf.math.sigmoid_32/Sigmoid"], "attr": {"T": {"type": "DT_FLOAT"}}}, {"name": "PartitionedCall/model_9/tf.compat.v1.nn.depthwise_conv2d_8/depthwise", "op": "FusedDepthwiseConv2dNative", "input": ["PartitionedCall/model_9/tf.math.multiply_131/Mul", "unknown_85", "unknown_86"], "attr": {"padding": {"s": "U0FNRQ=="}, "data_format": {"s": "TkhXQw=="}, "strides": {"list": {"i": ["1", "1", "1", "1"]}}, "num_args": {"i": "1"}, "fused_ops": {"list": {"s": ["Qmlhc0FkZA=="]}}, "T": {"type": "DT_FLOAT"}, "explicit_paddings": {"list": {}}, "dilations": {"list": {"i": ["1", "1", "1", "1"]}}}}, {"name": "PartitionedCall/model_9/tf.math.sigmoid_33/Sigmoid", "op": "Sigmoid", "input": ["PartitionedCall/model_9/tf.compat.v1.nn.depthwise_conv2d_8/depthwise"], "attr": {"T": {"type": "DT_FLOAT"}}}, {"name": "PartitionedCall/model_9/tf.math.multiply_135/Mul", "op": "Mul", "input": ["PartitionedCall/model_9/tf.compat.v1.nn.depthwise_conv2d_8/depthwise", "PartitionedCall/model_9/tf.math.sigmoid_33/Sigmoid"], "attr": {"T": {"type": "DT_FLOAT"}}}, {"name": "PartitionedCall/model_9/tf.math.reduce_mean_8/Mean", "op": "Mean", "input": ["PartitionedCall/model_9/tf.math.multiply_135/Mul", "PartitionedCall/model_9/tf.math.reduce_mean_8/Mean/reduction_indices"], "attr": {"Tidx": {"type": "DT_INT32"}, "T": {"type": "DT_FLOAT"}, "keep_dims": {"b": true}}}, {"name": "PartitionedCall/model_9/tf.math.add_61/Add", "op": "_FusedConv2D", "input": ["PartitionedCall/model_9/tf.math.reduce_mean_8/Mean", "unknown_87", "unknown_88"], "device": "/device:CPU:0", "attr": {"num_host_args": {"i": "0"}, "data_format": {"s": "TkhXQw=="}, "filter_format": {"s": "SFdJTw=="}, "fused_ops": {"list": {"s": ["Qmlhc0FkZA=="]}}, "num_args": {"i": "1"}, "strides": {"list": {"i": ["1", "1", "1", "1"]}}, "TArgs": {"list": {"type": ["DT_FLOAT"]}}, "padding": {"s": "U0FNRQ=="}, "use_cudnn_on_gpu": {"b": true}, "leakyrelu_alpha": {"f": 0.2}, "epsilon": {"f": 0.0}, "T": {"type": "DT_FLOAT"}, "explicit_paddings": {"list": {}}, "dilations": {"list": {"i": ["1", "1", "1", "1"]}}}}, {"name": "PartitionedCall/model_9/tf.math.sigmoid_34/Sigmoid", "op": "Sigmoid", "input": ["PartitionedCall/model_9/tf.math.add_61/Add"], "attr": {"T": {"type": "DT_FLOAT"}}}, {"name": "PartitionedCall/model_9/tf.math.multiply_138/Mul", "op": "Mul", "input": ["PartitionedCall/model_9/tf.math.add_61/Add", "PartitionedCall/model_9/tf.math.sigmoid_34/Sigmoid"], "attr": {"T": {"type": "DT_FLOAT"}}}, {"name": "PartitionedCall/model_9/tf.math.add_62/Add", "op": "_FusedConv2D", "input": ["PartitionedCall/model_9/tf.math.multiply_138/Mul", "unknown_89", "unknown_90"], "device": "/device:CPU:0", "attr": {"num_host_args": {"i": "0"}, "data_format": {"s": "TkhXQw=="}, "filter_format": {"s": "SFdJTw=="}, "fused_ops": {"list": {"s": ["Qmlhc0FkZA=="]}}, "num_args": {"i": "1"}, "strides": {"list": {"i": ["1", "1", "1", "1"]}}, "TArgs": {"list": {"type": ["DT_FLOAT"]}}, "padding": {"s": "U0FNRQ=="}, "use_cudnn_on_gpu": {"b": true}, "leakyrelu_alpha": {"f": 0.2}, "epsilon": {"f": 0.0}, "T": {"type": "DT_FLOAT"}, "explicit_paddings": {"list": {}}, "dilations": {"list": {"i": ["1", "1", "1", "1"]}}}}, {"name": "PartitionedCall/model_9/tf.math.sigmoid_35/Sigmoid", "op": "Sigmoid", "input": ["PartitionedCall/model_9/tf.math.add_62/Add"], "attr": {"T": {"type": "DT_FLOAT"}}}, {"name": "PartitionedCall/model_9/tf.math.multiply_142/Mul", "op": "Mul", "input": ["PartitionedCall/model_9/tf.math.sigmoid_35/Sigmoid", "PartitionedCall/model_9/tf.math.multiply_135/Mul"], "attr": {"T": {"type": "DT_FLOAT"}}}, {"name": "PartitionedCall/model_9/tf.math.add_63/Add", "op": "_FusedConv2D", "input": ["PartitionedCall/model_9/tf.math.multiply_142/Mul", "unknown_91", "unknown_92"], "device": "/device:CPU:0", "attr": {"num_host_args": {"i": "0"}, "data_format": {"s": "TkhXQw=="}, "filter_format": {"s": "SFdJTw=="}, "strides": {"list": {"i": ["1", "1", "1", "1"]}}, "num_args": {"i": "1"}, "fused_ops": {"list": {"s": ["Qmlhc0FkZA=="]}}, "TArgs": {"list": {"type": ["DT_FLOAT"]}}, "padding": {"s": "U0FNRQ=="}, "use_cudnn_on_gpu": {"b": true}, "leakyrelu_alpha": {"f": 0.2}, "epsilon": {"f": 0.0}, "T": {"type": "DT_FLOAT"}, "explicit_paddings": {"list": {}}, "dilations": {"list": {"i": ["1", "1", "1", "1"]}}}}, {"name": "PartitionedCall/model_9/tf.math.add_64/Add", "op": "_FusedConv2D", "input": ["PartitionedCall/model_9/tf.math.add_63/Add", "unknown_93", "unknown_94"], "device": "/device:CPU:0", "attr": {"num_host_args": {"i": "0"}, "data_format": {"s": "TkhXQw=="}, "filter_format": {"s": "SFdJTw=="}, "strides": {"list": {"i": ["1", "1", "1", "1"]}}, "num_args": {"i": "1"}, "fused_ops": {"list": {"s": ["Qmlhc0FkZA=="]}}, "TArgs": {"list": {"type": ["DT_FLOAT"]}}, "padding": {"s": "U0FNRQ=="}, "use_cudnn_on_gpu": {"b": true}, "leakyrelu_alpha": {"f": 0.2}, "epsilon": {"f": 0.0}, "T": {"type": "DT_FLOAT"}, "explicit_paddings": {"list": {}}, "dilations": {"list": {"i": ["1", "1", "1", "1"]}}}}, {"name": "PartitionedCall/model_9/tf.math.sigmoid_36/Sigmoid", "op": "Sigmoid", "input": ["PartitionedCall/model_9/tf.math.add_64/Add"], "attr": {"T": {"type": "DT_FLOAT"}}}, {"name": "PartitionedCall/model_9/tf.math.multiply_146/Mul", "op": "Mul", "input": ["PartitionedCall/model_9/tf.math.add_64/Add", "PartitionedCall/model_9/tf.math.sigmoid_36/Sigmoid"], "attr": {"T": {"type": "DT_FLOAT"}}}, {"name": "PartitionedCall/model_9/tf.compat.v1.nn.depthwise_conv2d_9/depthwise", "op": "FusedDepthwiseConv2dNative", "input": ["PartitionedCall/model_9/tf.math.multiply_146/Mul", "unknown_95", "unknown_96"], "attr": {"padding": {"s": "U0FNRQ=="}, "data_format": {"s": "TkhXQw=="}, "strides": {"list": {"i": ["1", "1", "1", "1"]}}, "num_args": {"i": "1"}, "fused_ops": {"list": {"s": ["Qmlhc0FkZA=="]}}, "T": {"type": "DT_FLOAT"}, "explicit_paddings": {"list": {}}, "dilations": {"list": {"i": ["1", "1", "1", "1"]}}}}, {"name": "PartitionedCall/model_9/tf.math.sigmoid_37/Sigmoid", "op": "Sigmoid", "input": ["PartitionedCall/model_9/tf.compat.v1.nn.depthwise_conv2d_9/depthwise"], "attr": {"T": {"type": "DT_FLOAT"}}}, {"name": "PartitionedCall/model_9/tf.math.multiply_150/Mul", "op": "Mul", "input": ["PartitionedCall/model_9/tf.compat.v1.nn.depthwise_conv2d_9/depthwise", "PartitionedCall/model_9/tf.math.sigmoid_37/Sigmoid"], "attr": {"T": {"type": "DT_FLOAT"}}}, {"name": "PartitionedCall/model_9/tf.math.reduce_mean_9/Mean", "op": "Mean", "input": ["PartitionedCall/model_9/tf.math.multiply_150/Mul", "PartitionedCall/model_9/tf.math.reduce_mean_9/Mean/reduction_indices"], "attr": {"Tidx": {"type": "DT_INT32"}, "T": {"type": "DT_FLOAT"}, "keep_dims": {"b": true}}}, {"name": "PartitionedCall/model_9/tf.math.add_66/Add", "op": "_FusedConv2D", "input": ["PartitionedCall/model_9/tf.math.reduce_mean_9/Mean", "unknown_97", "unknown_98"], "device": "/device:CPU:0", "attr": {"num_host_args": {"i": "0"}, "data_format": {"s": "TkhXQw=="}, "filter_format": {"s": "SFdJTw=="}, "strides": {"list": {"i": ["1", "1", "1", "1"]}}, "num_args": {"i": "1"}, "fused_ops": {"list": {"s": ["Qmlhc0FkZA=="]}}, "TArgs": {"list": {"type": ["DT_FLOAT"]}}, "padding": {"s": "U0FNRQ=="}, "use_cudnn_on_gpu": {"b": true}, "leakyrelu_alpha": {"f": 0.2}, "epsilon": {"f": 0.0}, "T": {"type": "DT_FLOAT"}, "explicit_paddings": {"list": {}}, "dilations": {"list": {"i": ["1", "1", "1", "1"]}}}}, {"name": "PartitionedCall/model_9/tf.math.sigmoid_38/Sigmoid", "op": "Sigmoid", "input": ["PartitionedCall/model_9/tf.math.add_66/Add"], "attr": {"T": {"type": "DT_FLOAT"}}}, {"name": "PartitionedCall/model_9/tf.math.multiply_153/Mul", "op": "Mul", "input": ["PartitionedCall/model_9/tf.math.add_66/Add", "PartitionedCall/model_9/tf.math.sigmoid_38/Sigmoid"], "attr": {"T": {"type": "DT_FLOAT"}}}, {"name": "PartitionedCall/model_9/tf.math.add_67/Add", "op": "_FusedConv2D", "input": ["PartitionedCall/model_9/tf.math.multiply_153/Mul", "unknown_99", "unknown_100"], "device": "/device:CPU:0", "attr": {"num_host_args": {"i": "0"}, "data_format": {"s": "TkhXQw=="}, "filter_format": {"s": "SFdJTw=="}, "strides": {"list": {"i": ["1", "1", "1", "1"]}}, "num_args": {"i": "1"}, "fused_ops": {"list": {"s": ["Qmlhc0FkZA=="]}}, "TArgs": {"list": {"type": ["DT_FLOAT"]}}, "padding": {"s": "U0FNRQ=="}, "use_cudnn_on_gpu": {"b": true}, "leakyrelu_alpha": {"f": 0.2}, "epsilon": {"f": 0.0}, "T": {"type": "DT_FLOAT"}, "explicit_paddings": {"list": {}}, "dilations": {"list": {"i": ["1", "1", "1", "1"]}}}}, {"name": "PartitionedCall/model_9/tf.math.sigmoid_39/Sigmoid", "op": "Sigmoid", "input": ["PartitionedCall/model_9/tf.math.add_67/Add"], "attr": {"T": {"type": "DT_FLOAT"}}}, {"name": "PartitionedCall/model_9/tf.math.multiply_157/Mul", "op": "Mul", "input": ["PartitionedCall/model_9/tf.math.sigmoid_39/Sigmoid", "PartitionedCall/model_9/tf.math.multiply_150/Mul"], "attr": {"T": {"type": "DT_FLOAT"}}}, {"name": "PartitionedCall/model_9/tf.nn.convolution_50/convolution", "op": "Conv2D", "input": ["PartitionedCall/model_9/tf.math.multiply_157/Mul", "unknown_101"], "device": "/device:CPU:0", "attr": {"padding": {"s": "U0FNRQ=="}, "data_format": {"s": "TkhXQw=="}, "use_cudnn_on_gpu": {"b": true}, "strides": {"list": {"i": ["1", "1", "1", "1"]}}, "T": {"type": "DT_FLOAT"}, "explicit_paddings": {"list": {}}, "dilations": {"list": {"i": ["1", "1", "1", "1"]}}}}, {"name": "PartitionedCall/model_9/tf.math.add_70/ArithmeticOptimizer/AddOpsRewrite_Leaf_1_Add", "op": "AddN", "input": ["PartitionedCall/model_9/tf.nn.convolution_50/convolution", "PartitionedCall/model_9/tf.math.add_63/Add"], "attr": {"N": {"i": "2"}, "T": {"type": "DT_FLOAT"}, "_grappler_ArithmeticOptimizer_AddOpsRewriteStage": {"b": true}}}, {"name": "PartitionedCall/model_9/tf.math.add_70/ArithmeticOptimizer/AddOpsRewrite_Add", "op": "AddV2", "input": ["unknown_102", "PartitionedCall/model_9/tf.math.add_70/ArithmeticOptimizer/AddOpsRewrite_Leaf_1_Add"], "attr": {"T": {"type": "DT_FLOAT"}, "_grappler_ArithmeticOptimizer_AddOpsRewriteStage": {"b": true}}}, {"name": "PartitionedCall/model_9/tf.math.add_71/Add", "op": "_FusedConv2D", "input": ["PartitionedCall/model_9/tf.math.add_70/ArithmeticOptimizer/AddOpsRewrite_Add", "unknown_103", "unknown_104"], "device": "/device:CPU:0", "attr": {"num_host_args": {"i": "0"}, "data_format": {"s": "TkhXQw=="}, "filter_format": {"s": "SFdJTw=="}, "fused_ops": {"list": {"s": ["Qmlhc0FkZA=="]}}, "num_args": {"i": "1"}, "strides": {"list": {"i": ["1", "1", "1", "1"]}}, "TArgs": {"list": {"type": ["DT_FLOAT"]}}, "padding": {"s": "U0FNRQ=="}, "use_cudnn_on_gpu": {"b": true}, "leakyrelu_alpha": {"f": 0.2}, "epsilon": {"f": 0.0}, "T": {"type": "DT_FLOAT"}, "explicit_paddings": {"list": {}}, "dilations": {"list": {"i": ["1", "1", "1", "1"]}}}}, {"name": "PartitionedCall/model_9/tf.math.sigmoid_40/Sigmoid", "op": "Sigmoid", "input": ["PartitionedCall/model_9/tf.math.add_71/Add"], "attr": {"T": {"type": "DT_FLOAT"}}}, {"name": "PartitionedCall/model_9/tf.math.multiply_163/Mul", "op": "Mul", "input": ["PartitionedCall/model_9/tf.math.add_71/Add", "PartitionedCall/model_9/tf.math.sigmoid_40/Sigmoid"], "attr": {"T": {"type": "DT_FLOAT"}}}, {"name": "PartitionedCall/model_9/tf.compat.v1.nn.depthwise_conv2d_10/depthwise", "op": "FusedDepthwiseConv2dNative", "input": ["PartitionedCall/model_9/tf.math.multiply_163/Mul", "unknown_105", "unknown_106"], "attr": {"padding": {"s": "U0FNRQ=="}, "data_format": {"s": "TkhXQw=="}, "strides": {"list": {"i": ["1", "1", "1", "1"]}}, "num_args": {"i": "1"}, "fused_ops": {"list": {"s": ["Qmlhc0FkZA=="]}}, "T": {"type": "DT_FLOAT"}, "explicit_paddings": {"list": {}}, "dilations": {"list": {"i": ["1", "1", "1", "1"]}}}}, {"name": "PartitionedCall/model_9/tf.math.sigmoid_41/Sigmoid", "op": "Sigmoid", "input": ["PartitionedCall/model_9/tf.compat.v1.nn.depthwise_conv2d_10/depthwise"], "attr": {"T": {"type": "DT_FLOAT"}}}, {"name": "PartitionedCall/model_9/tf.math.multiply_167/Mul", "op": "Mul", "input": ["PartitionedCall/model_9/tf.compat.v1.nn.depthwise_conv2d_10/depthwise", "PartitionedCall/model_9/tf.math.sigmoid_41/Sigmoid"], "attr": {"T": {"type": "DT_FLOAT"}}}, {"name": "PartitionedCall/model_9/tf.math.reduce_mean_10/Mean", "op": "Mean", "input": ["PartitionedCall/model_9/tf.math.multiply_167/Mul", "PartitionedCall/model_9/tf.math.reduce_mean_10/Mean/reduction_indices"], "attr": {"Tidx": {"type": "DT_INT32"}, "T": {"type": "DT_FLOAT"}, "keep_dims": {"b": true}}}, {"name": "PartitionedCall/model_9/tf.math.add_73/Add", "op": "_FusedConv2D", "input": ["PartitionedCall/model_9/tf.math.reduce_mean_10/Mean", "unknown_107", "unknown_108"], "device": "/device:CPU:0", "attr": {"num_host_args": {"i": "0"}, "data_format": {"s": "TkhXQw=="}, "filter_format": {"s": "SFdJTw=="}, "fused_ops": {"list": {"s": ["Qmlhc0FkZA=="]}}, "num_args": {"i": "1"}, "strides": {"list": {"i": ["1", "1", "1", "1"]}}, "TArgs": {"list": {"type": ["DT_FLOAT"]}}, "padding": {"s": "U0FNRQ=="}, "use_cudnn_on_gpu": {"b": true}, "leakyrelu_alpha": {"f": 0.2}, "epsilon": {"f": 0.0}, "T": {"type": "DT_FLOAT"}, "explicit_paddings": {"list": {}}, "dilations": {"list": {"i": ["1", "1", "1", "1"]}}}}, {"name": "PartitionedCall/model_9/tf.math.sigmoid_42/Sigmoid", "op": "Sigmoid", "input": ["PartitionedCall/model_9/tf.math.add_73/Add"], "attr": {"T": {"type": "DT_FLOAT"}}}, {"name": "PartitionedCall/model_9/tf.math.multiply_170/Mul", "op": "Mul", "input": ["PartitionedCall/model_9/tf.math.add_73/Add", "PartitionedCall/model_9/tf.math.sigmoid_42/Sigmoid"], "attr": {"T": {"type": "DT_FLOAT"}}}, {"name": "PartitionedCall/model_9/tf.math.add_74/Add", "op": "_FusedConv2D", "input": ["PartitionedCall/model_9/tf.math.multiply_170/Mul", "unknown_109", "unknown_110"], "device": "/device:CPU:0", "attr": {"num_host_args": {"i": "0"}, "data_format": {"s": "TkhXQw=="}, "filter_format": {"s": "SFdJTw=="}, "fused_ops": {"list": {"s": ["Qmlhc0FkZA=="]}}, "num_args": {"i": "1"}, "strides": {"list": {"i": ["1", "1", "1", "1"]}}, "TArgs": {"list": {"type": ["DT_FLOAT"]}}, "padding": {"s": "U0FNRQ=="}, "use_cudnn_on_gpu": {"b": true}, "leakyrelu_alpha": {"f": 0.2}, "epsilon": {"f": 0.0}, "T": {"type": "DT_FLOAT"}, "explicit_paddings": {"list": {}}, "dilations": {"list": {"i": ["1", "1", "1", "1"]}}}}, {"name": "PartitionedCall/model_9/tf.math.sigmoid_43/Sigmoid", "op": "Sigmoid", "input": ["PartitionedCall/model_9/tf.math.add_74/Add"], "attr": {"T": {"type": "DT_FLOAT"}}}, {"name": "PartitionedCall/model_9/tf.math.multiply_174/Mul", "op": "Mul", "input": ["PartitionedCall/model_9/tf.math.sigmoid_43/Sigmoid", "PartitionedCall/model_9/tf.math.multiply_167/Mul"], "attr": {"T": {"type": "DT_FLOAT"}}}, {"name": "PartitionedCall/model_9/tf.nn.convolution_54/convolution", "op": "Conv2D", "input": ["PartitionedCall/model_9/tf.math.multiply_174/Mul", "unknown_111"], "device": "/device:CPU:0", "attr": {"padding": {"s": "U0FNRQ=="}, "data_format": {"s": "TkhXQw=="}, "use_cudnn_on_gpu": {"b": true}, "strides": {"list": {"i": ["1", "1", "1", "1"]}}, "T": {"type": "DT_FLOAT"}, "explicit_paddings": {"list": {}}, "dilations": {"list": {"i": ["1", "1", "1", "1"]}}}}, {"name": "PartitionedCall/model_9/tf.math.add_77/ArithmeticOptimizer/AddOpsRewrite_Leaf_1_Add", "op": "AddN", "input": ["PartitionedCall/model_9/tf.nn.convolution_54/convolution", "PartitionedCall/model_9/tf.math.add_70/ArithmeticOptimizer/AddOpsRewrite_Add"], "attr": {"N": {"i": "2"}, "T": {"type": "DT_FLOAT"}, "_grappler_ArithmeticOptimizer_AddOpsRewriteStage": {"b": true}}}, {"name": "PartitionedCall/model_9/tf.math.add_77/ArithmeticOptimizer/AddOpsRewrite_Add", "op": "AddV2", "input": ["unknown_112", "PartitionedCall/model_9/tf.math.add_77/ArithmeticOptimizer/AddOpsRewrite_Leaf_1_Add"], "attr": {"T": {"type": "DT_FLOAT"}, "_grappler_ArithmeticOptimizer_AddOpsRewriteStage": {"b": true}}}, {"name": "PartitionedCall/model_9/tf.strided_slice_6/StridedSlice", "op": "StridedSlice", "input": ["PartitionedCall/model_9/tf.math.add_77/ArithmeticOptimizer/AddOpsRewrite_Add", "unknown_192", "unknown_193", "PartitionedCall/model_9/tf.strided_slice_6/ones_like"], "attr": {"shrink_axis_mask": {"i": "0"}, "Index": {"type": "DT_INT64"}, "new_axis_mask": {"i": "0"}, "begin_mask": {"i": "15"}, "end_mask": {"i": "14"}, "T": {"type": "DT_FLOAT"}, "ellipsis_mask": {"i": "0"}}}, {"name": "PartitionedCall/model_9/tf.strided_slice_7/StridedSlice", "op": "StridedSlice", "input": ["PartitionedCall/model_9/tf.math.add_77/ArithmeticOptimizer/AddOpsRewrite_Add", "unknown_194", "unknown_195", "PartitionedCall/model_9/tf.strided_slice_7/ones_like"], "attr": {"shrink_axis_mask": {"i": "0"}, "new_axis_mask": {"i": "0"}, "Index": {"type": "DT_INT64"}, "begin_mask": {"i": "14"}, "T": {"type": "DT_FLOAT"}, "end_mask": {"i": "14"}, "ellipsis_mask": {"i": "0"}}}, {"name": "PartitionedCall/model_9/tf.math.add_78/Add", "op": "_FusedConv2D", "input": ["PartitionedCall/model_9/tf.math.add_77/ArithmeticOptimizer/AddOpsRewrite_Add", "unknown_113", "unknown_114"], "device": "/device:CPU:0", "attr": {"num_host_args": {"i": "0"}, "data_format": {"s": "TkhXQw=="}, "filter_format": {"s": "SFdJTw=="}, "fused_ops": {"list": {"s": ["Qmlhc0FkZA=="]}}, "num_args": {"i": "1"}, "strides": {"list": {"i": ["1", "1", "1", "1"]}}, "TArgs": {"list": {"type": ["DT_FLOAT"]}}, "padding": {"s": "U0FNRQ=="}, "use_cudnn_on_gpu": {"b": true}, "leakyrelu_alpha": {"f": 0.2}, "epsilon": {"f": 0.0}, "T": {"type": "DT_FLOAT"}, "explicit_paddings": {"list": {}}, "dilations": {"list": {"i": ["1", "1", "1", "1"]}}}}, {"name": "PartitionedCall/model_9/tf.concat_11/concat", "op": "ConcatV2", "input": ["PartitionedCall/model_9/tf.strided_slice_6/StridedSlice", "PartitionedCall/model_9/tf.strided_slice_7/StridedSlice", "PartitionedCall/model_9/tf.concat_11/concat/axis"], "attr": {"N": {"i": "2"}, "T": {"type": "DT_FLOAT"}, "Tidx": {"type": "DT_INT32"}}}, {"name": "PartitionedCall/model_9/tf.math.sigmoid_44/Sigmoid", "op": "Sigmoid", "input": ["PartitionedCall/model_9/tf.math.add_78/Add"], "attr": {"T": {"type": "DT_FLOAT"}}}, {"name": "PartitionedCall/model_9/tf.nn.leaky_relu_3/LeakyRelu", "op": "_FusedConv2D", "input": ["PartitionedCall/model_9/tf.concat_11/concat", "unknown_199", "unknown_201"], "device": "/device:CPU:0", "attr": {"num_host_args": {"i": "0"}, "data_format": {"s": "TkhXQw=="}, "filter_format": {"s": "SFdJTw=="}, "fused_ops": {"list": {"s": ["Qmlhc0FkZA==", "TGVha3lSZWx1"]}}, "num_args": {"i": "1"}, "strides": {"list": {"i": ["1", "1", "1", "1"]}}, "TArgs": {"list": {"type": ["DT_FLOAT"]}}, "padding": {"s": "U0FNRQ=="}, "use_cudnn_on_gpu": {"b": true}, "leakyrelu_alpha": {"f": 0.01}, "epsilon": {"f": 0.0}, "T": {"type": "DT_FLOAT"}, "explicit_paddings": {"list": {}}, "dilations": {"list": {"i": ["1", "1", "1", "1"]}}}}, {"name": "PartitionedCall/model_9/tf.math.multiply_180/Mul", "op": "Mul", "input": ["PartitionedCall/model_9/tf.math.add_78/Add", "PartitionedCall/model_9/tf.math.sigmoid_44/Sigmoid"], "attr": {"T": {"type": "DT_FLOAT"}}}, {"name": "PartitionedCall/model_9/tf.math.add_81/Add", "op": "_FusedConv2D", "input": ["PartitionedCall/model_9/tf.nn.leaky_relu_3/LeakyRelu", "unknown_205", "unknown_208"], "device": "/device:CPU:0", "attr": {"num_host_args": {"i": "0"}, "data_format": {"s": "TkhXQw=="}, "filter_format": {"s": "SFdJTw=="}, "strides": {"list": {"i": ["1", "1", "1", "1"]}}, "num_args": {"i": "1"}, "fused_ops": {"list": {"s": ["Qmlhc0FkZA=="]}}, "TArgs": {"list": {"type": ["DT_FLOAT"]}}, "padding": {"s": "U0FNRQ=="}, "use_cudnn_on_gpu": {"b": true}, "leakyrelu_alpha": {"f": 0.2}, "epsilon": {"f": 0.0}, "T": {"type": "DT_FLOAT"}, "explicit_paddings": {"list": {}}, "dilations": {"list": {"i": ["1", "1", "1", "1"]}}}}, {"name": "PartitionedCall/model_9/tf.compat.v1.pad_7/Pad", "op": "Pad", "input": ["PartitionedCall/model_9/tf.math.multiply_180/Mul", "unknown_115"], "attr": {"Tpaddings": {"type": "DT_INT32"}, "T": {"type": "DT_FLOAT"}}}, {"name": "PartitionedCall/model_9/tf.concat_12/concat", "op": "ConcatV2", "input": ["PartitionedCall/model_9/tf.nn.relu_2/Relu", "PartitionedCall/model_9/tf.math.add_81/Add", "PartitionedCall/model_9/tf.concat_12/concat/axis"], "attr": {"N": {"i": "2"}, "Tidx": {"type": "DT_INT32"}, "T": {"type": "DT_FLOAT"}}}, {"name": "PartitionedCall/model_9/tf.compat.v1.nn.depthwise_conv2d_11/depthwise", "op": "FusedDepthwiseConv2dNative", "input": ["PartitionedCall/model_9/tf.compat.v1.pad_7/Pad", "unknown_116", "unknown_117"], "attr": {"padding": {"s": "VkFMSUQ="}, "data_format": {"s": "TkhXQw=="}, "strides": {"list": {"i": ["1", "2", "2", "1"]}}, "num_args": {"i": "1"}, "fused_ops": {"list": {"s": ["Qmlhc0FkZA=="]}}, "T": {"type": "DT_FLOAT"}, "explicit_paddings": {"list": {}}, "dilations": {"list": {"i": ["1", "1", "1", "1"]}}}}, {"name": "PartitionedCall/model_9/tf.math.add_82/Add", "op": "_FusedConv2D", "input": ["PartitionedCall/model_9/tf.concat_12/concat", "unknown_213", "unknown_215"], "device": "/device:CPU:0", "attr": {"num_host_args": {"i": "0"}, "data_format": {"s": "TkhXQw=="}, "filter_format": {"s": "SFdJTw=="}, "strides": {"list": {"i": ["1", "1", "1", "1"]}}, "num_args": {"i": "1"}, "fused_ops": {"list": {"s": ["Qmlhc0FkZA=="]}}, "TArgs": {"list": {"type": ["DT_FLOAT"]}}, "padding": {"s": "U0FNRQ=="}, "use_cudnn_on_gpu": {"b": true}, "leakyrelu_alpha": {"f": 0.2}, "epsilon": {"f": 0.0}, "T": {"type": "DT_FLOAT"}, "explicit_paddings": {"list": {}}, "dilations": {"list": {"i": ["1", "1", "1", "1"]}}}}, {"name": "PartitionedCall/model_9/tf.compat.v1.pad_8/Pad", "op": "Pad", "input": ["PartitionedCall/model_9/tf.math.add_82/Add", "unknown_217"], "attr": {"Tpaddings": {"type": "DT_INT32"}, "T": {"type": "DT_FLOAT"}}}, {"name": "PartitionedCall/model_9/tf.math.sigmoid_45/Sigmoid", "op": "Sigmoid", "input": ["PartitionedCall/model_9/tf.compat.v1.nn.depthwise_conv2d_11/depthwise"], "attr": {"T": {"type": "DT_FLOAT"}}}, {"name": "PartitionedCall/model_9/tf.nn.relu_3/Relu", "op": "_FusedConv2D", "input": ["PartitionedCall/model_9/tf.compat.v1.pad_8/Pad", "unknown_218", "unknown_220"], "device": "/device:CPU:0", "attr": {"num_host_args": {"i": "0"}, "data_format": {"s": "TkhXQw=="}, "filter_format": {"s": "SFdJTw=="}, "fused_ops": {"list": {"s": ["Qmlhc0FkZA==", "UmVsdQ=="]}}, "num_args": {"i": "1"}, "strides": {"list": {"i": ["1", "2", "2", "1"]}}, "TArgs": {"list": {"type": ["DT_FLOAT"]}}, "padding": {"s": "VkFMSUQ="}, "use_cudnn_on_gpu": {"b": true}, "leakyrelu_alpha": {"f": 0.2}, "epsilon": {"f": 0.0}, "T": {"type": "DT_FLOAT"}, "explicit_paddings": {"list": {}}, "dilations": {"list": {"i": ["1", "1", "1", "1"]}}}}, {"name": "PartitionedCall/model_9/tf.math.multiply_184/Mul", "op": "Mul", "input": ["PartitionedCall/model_9/tf.compat.v1.nn.depthwise_conv2d_11/depthwise", "PartitionedCall/model_9/tf.math.sigmoid_45/Sigmoid"], "attr": {"T": {"type": "DT_FLOAT"}}}, {"name": "PartitionedCall/model_9/tf.math.reduce_mean_11/Mean", "op": "Mean", "input": ["PartitionedCall/model_9/tf.math.multiply_184/Mul", "PartitionedCall/model_9/tf.math.reduce_mean_11/Mean/reduction_indices"], "attr": {"Tidx": {"type": "DT_INT32"}, "T": {"type": "DT_FLOAT"}, "keep_dims": {"b": true}}}, {"name": "PartitionedCall/model_9/tf.math.add_83/Add", "op": "_FusedConv2D", "input": ["PartitionedCall/model_9/tf.math.reduce_mean_11/Mean", "unknown_118", "unknown_119"], "device": "/device:CPU:0", "attr": {"num_host_args": {"i": "0"}, "data_format": {"s": "TkhXQw=="}, "filter_format": {"s": "SFdJTw=="}, "fused_ops": {"list": {"s": ["Qmlhc0FkZA=="]}}, "num_args": {"i": "1"}, "strides": {"list": {"i": ["1", "1", "1", "1"]}}, "TArgs": {"list": {"type": ["DT_FLOAT"]}}, "padding": {"s": "U0FNRQ=="}, "use_cudnn_on_gpu": {"b": true}, "leakyrelu_alpha": {"f": 0.2}, "epsilon": {"f": 0.0}, "T": {"type": "DT_FLOAT"}, "explicit_paddings": {"list": {}}, "dilations": {"list": {"i": ["1", "1", "1", "1"]}}}}, {"name": "PartitionedCall/model_9/tf.math.sigmoid_46/Sigmoid", "op": "Sigmoid", "input": ["PartitionedCall/model_9/tf.math.add_83/Add"], "attr": {"T": {"type": "DT_FLOAT"}}}, {"name": "PartitionedCall/model_9/tf.math.multiply_187/Mul", "op": "Mul", "input": ["PartitionedCall/model_9/tf.math.add_83/Add", "PartitionedCall/model_9/tf.math.sigmoid_46/Sigmoid"], "attr": {"T": {"type": "DT_FLOAT"}}}, {"name": "PartitionedCall/model_9/tf.math.add_85/Add", "op": "_FusedConv2D", "input": ["PartitionedCall/model_9/tf.math.multiply_187/Mul", "unknown_120", "unknown_121"], "device": "/device:CPU:0", "attr": {"num_host_args": {"i": "0"}, "data_format": {"s": "TkhXQw=="}, "filter_format": {"s": "SFdJTw=="}, "fused_ops": {"list": {"s": ["Qmlhc0FkZA=="]}}, "num_args": {"i": "1"}, "strides": {"list": {"i": ["1", "1", "1", "1"]}}, "TArgs": {"list": {"type": ["DT_FLOAT"]}}, "padding": {"s": "U0FNRQ=="}, "use_cudnn_on_gpu": {"b": true}, "leakyrelu_alpha": {"f": 0.2}, "epsilon": {"f": 0.0}, "T": {"type": "DT_FLOAT"}, "explicit_paddings": {"list": {}}, "dilations": {"list": {"i": ["1", "1", "1", "1"]}}}}, {"name": "PartitionedCall/model_9/tf.math.sigmoid_47/Sigmoid", "op": "Sigmoid", "input": ["PartitionedCall/model_9/tf.math.add_85/Add"], "attr": {"T": {"type": "DT_FLOAT"}}}, {"name": "PartitionedCall/model_9/tf.math.multiply_191/Mul", "op": "Mul", "input": ["PartitionedCall/model_9/tf.math.sigmoid_47/Sigmoid", "PartitionedCall/model_9/tf.math.multiply_184/Mul"], "attr": {"T": {"type": "DT_FLOAT"}}}, {"name": "PartitionedCall/model_9/tf.math.add_86/Add", "op": "_FusedConv2D", "input": ["PartitionedCall/model_9/tf.math.multiply_191/Mul", "unknown_122", "unknown_123"], "device": "/device:CPU:0", "attr": {"num_host_args": {"i": "0"}, "data_format": {"s": "TkhXQw=="}, "filter_format": {"s": "SFdJTw=="}, "strides": {"list": {"i": ["1", "1", "1", "1"]}}, "num_args": {"i": "1"}, "fused_ops": {"list": {"s": ["Qmlhc0FkZA=="]}}, "TArgs": {"list": {"type": ["DT_FLOAT"]}}, "padding": {"s": "U0FNRQ=="}, "use_cudnn_on_gpu": {"b": true}, "leakyrelu_alpha": {"f": 0.2}, "epsilon": {"f": 0.0}, "T": {"type": "DT_FLOAT"}, "explicit_paddings": {"list": {}}, "dilations": {"list": {"i": ["1", "1", "1", "1"]}}}}, {"name": "PartitionedCall/model_9/tf.math.add_87/Add", "op": "_FusedConv2D", "input": ["PartitionedCall/model_9/tf.math.add_86/Add", "unknown_124", "unknown_125"], "device": "/device:CPU:0", "attr": {"num_host_args": {"i": "0"}, "data_format": {"s": "TkhXQw=="}, "filter_format": {"s": "SFdJTw=="}, "strides": {"list": {"i": ["1", "1", "1", "1"]}}, "num_args": {"i": "1"}, "fused_ops": {"list": {"s": ["Qmlhc0FkZA=="]}}, "TArgs": {"list": {"type": ["DT_FLOAT"]}}, "padding": {"s": "U0FNRQ=="}, "use_cudnn_on_gpu": {"b": true}, "leakyrelu_alpha": {"f": 0.2}, "epsilon": {"f": 0.0}, "T": {"type": "DT_FLOAT"}, "explicit_paddings": {"list": {}}, "dilations": {"list": {"i": ["1", "1", "1", "1"]}}}}, {"name": "PartitionedCall/model_9/tf.math.sigmoid_48/Sigmoid", "op": "Sigmoid", "input": ["PartitionedCall/model_9/tf.math.add_87/Add"], "attr": {"T": {"type": "DT_FLOAT"}}}, {"name": "PartitionedCall/model_9/tf.math.multiply_195/Mul", "op": "Mul", "input": ["PartitionedCall/model_9/tf.math.add_87/Add", "PartitionedCall/model_9/tf.math.sigmoid_48/Sigmoid"], "attr": {"T": {"type": "DT_FLOAT"}}}, {"name": "PartitionedCall/model_9/tf.compat.v1.nn.depthwise_conv2d_12/depthwise", "op": "FusedDepthwiseConv2dNative", "input": ["PartitionedCall/model_9/tf.math.multiply_195/Mul", "unknown_126", "unknown_127"], "attr": {"padding": {"s": "U0FNRQ=="}, "data_format": {"s": "TkhXQw=="}, "strides": {"list": {"i": ["1", "1", "1", "1"]}}, "num_args": {"i": "1"}, "fused_ops": {"list": {"s": ["Qmlhc0FkZA=="]}}, "T": {"type": "DT_FLOAT"}, "explicit_paddings": {"list": {}}, "dilations": {"list": {"i": ["1", "1", "1", "1"]}}}}, {"name": "PartitionedCall/model_9/tf.math.sigmoid_49/Sigmoid", "op": "Sigmoid", "input": ["PartitionedCall/model_9/tf.compat.v1.nn.depthwise_conv2d_12/depthwise"], "attr": {"T": {"type": "DT_FLOAT"}}}, {"name": "PartitionedCall/model_9/tf.math.multiply_199/Mul", "op": "Mul", "input": ["PartitionedCall/model_9/tf.compat.v1.nn.depthwise_conv2d_12/depthwise", "PartitionedCall/model_9/tf.math.sigmoid_49/Sigmoid"], "attr": {"T": {"type": "DT_FLOAT"}}}, {"name": "PartitionedCall/model_9/tf.math.reduce_mean_12/Mean", "op": "Mean", "input": ["PartitionedCall/model_9/tf.math.multiply_199/Mul", "PartitionedCall/model_9/tf.math.reduce_mean_12/Mean/reduction_indices"], "attr": {"Tidx": {"type": "DT_INT32"}, "T": {"type": "DT_FLOAT"}, "keep_dims": {"b": true}}}, {"name": "PartitionedCall/model_9/tf.math.add_89/Add", "op": "_FusedConv2D", "input": ["PartitionedCall/model_9/tf.math.reduce_mean_12/Mean", "unknown_128", "unknown_129"], "device": "/device:CPU:0", "attr": {"num_host_args": {"i": "0"}, "data_format": {"s": "TkhXQw=="}, "filter_format": {"s": "SFdJTw=="}, "strides": {"list": {"i": ["1", "1", "1", "1"]}}, "num_args": {"i": "1"}, "fused_ops": {"list": {"s": ["Qmlhc0FkZA=="]}}, "TArgs": {"list": {"type": ["DT_FLOAT"]}}, "padding": {"s": "U0FNRQ=="}, "use_cudnn_on_gpu": {"b": true}, "leakyrelu_alpha": {"f": 0.2}, "epsilon": {"f": 0.0}, "T": {"type": "DT_FLOAT"}, "explicit_paddings": {"list": {}}, "dilations": {"list": {"i": ["1", "1", "1", "1"]}}}}, {"name": "PartitionedCall/model_9/tf.math.sigmoid_50/Sigmoid", "op": "Sigmoid", "input": ["PartitionedCall/model_9/tf.math.add_89/Add"], "attr": {"T": {"type": "DT_FLOAT"}}}, {"name": "PartitionedCall/model_9/tf.math.multiply_202/Mul", "op": "Mul", "input": ["PartitionedCall/model_9/tf.math.add_89/Add", "PartitionedCall/model_9/tf.math.sigmoid_50/Sigmoid"], "attr": {"T": {"type": "DT_FLOAT"}}}, {"name": "PartitionedCall/model_9/tf.math.add_90/Add", "op": "_FusedConv2D", "input": ["PartitionedCall/model_9/tf.math.multiply_202/Mul", "unknown_130", "unknown_131"], "device": "/device:CPU:0", "attr": {"num_host_args": {"i": "0"}, "data_format": {"s": "TkhXQw=="}, "filter_format": {"s": "SFdJTw=="}, "strides": {"list": {"i": ["1", "1", "1", "1"]}}, "num_args": {"i": "1"}, "fused_ops": {"list": {"s": ["Qmlhc0FkZA=="]}}, "TArgs": {"list": {"type": ["DT_FLOAT"]}}, "padding": {"s": "U0FNRQ=="}, "use_cudnn_on_gpu": {"b": true}, "leakyrelu_alpha": {"f": 0.2}, "epsilon": {"f": 0.0}, "T": {"type": "DT_FLOAT"}, "explicit_paddings": {"list": {}}, "dilations": {"list": {"i": ["1", "1", "1", "1"]}}}}, {"name": "PartitionedCall/model_9/tf.math.sigmoid_51/Sigmoid", "op": "Sigmoid", "input": ["PartitionedCall/model_9/tf.math.add_90/Add"], "attr": {"T": {"type": "DT_FLOAT"}}}, {"name": "PartitionedCall/model_9/tf.math.multiply_206/Mul", "op": "Mul", "input": ["PartitionedCall/model_9/tf.math.sigmoid_51/Sigmoid", "PartitionedCall/model_9/tf.math.multiply_199/Mul"], "attr": {"T": {"type": "DT_FLOAT"}}}, {"name": "PartitionedCall/model_9/tf.nn.convolution_66/convolution", "op": "Conv2D", "input": ["PartitionedCall/model_9/tf.math.multiply_206/Mul", "unknown_132"], "device": "/device:CPU:0", "attr": {"padding": {"s": "U0FNRQ=="}, "data_format": {"s": "TkhXQw=="}, "strides": {"list": {"i": ["1", "1", "1", "1"]}}, "use_cudnn_on_gpu": {"b": true}, "T": {"type": "DT_FLOAT"}, "explicit_paddings": {"list": {}}, "dilations": {"list": {"i": ["1", "1", "1", "1"]}}}}, {"name": "PartitionedCall/model_9/tf.math.add_93/ArithmeticOptimizer/AddOpsRewrite_Leaf_1_Add", "op": "AddN", "input": ["PartitionedCall/model_9/tf.nn.convolution_66/convolution", "PartitionedCall/model_9/tf.math.add_86/Add"], "attr": {"N": {"i": "2"}, "T": {"type": "DT_FLOAT"}, "_grappler_ArithmeticOptimizer_AddOpsRewriteStage": {"b": true}}}, {"name": "PartitionedCall/model_9/tf.math.add_93/ArithmeticOptimizer/AddOpsRewrite_Add", "op": "AddV2", "input": ["unknown_133", "PartitionedCall/model_9/tf.math.add_93/ArithmeticOptimizer/AddOpsRewrite_Leaf_1_Add"], "attr": {"T": {"type": "DT_FLOAT"}, "_grappler_ArithmeticOptimizer_AddOpsRewriteStage": {"b": true}}}, {"name": "PartitionedCall/model_9/tf.math.add_94/Add", "op": "_FusedConv2D", "input": ["PartitionedCall/model_9/tf.math.add_93/ArithmeticOptimizer/AddOpsRewrite_Add", "unknown_134", "unknown_135"], "device": "/device:CPU:0", "attr": {"num_host_args": {"i": "0"}, "data_format": {"s": "TkhXQw=="}, "filter_format": {"s": "SFdJTw=="}, "strides": {"list": {"i": ["1", "1", "1", "1"]}}, "num_args": {"i": "1"}, "fused_ops": {"list": {"s": ["Qmlhc0FkZA=="]}}, "TArgs": {"list": {"type": ["DT_FLOAT"]}}, "padding": {"s": "U0FNRQ=="}, "use_cudnn_on_gpu": {"b": true}, "leakyrelu_alpha": {"f": 0.2}, "epsilon": {"f": 0.0}, "T": {"type": "DT_FLOAT"}, "explicit_paddings": {"list": {}}, "dilations": {"list": {"i": ["1", "1", "1", "1"]}}}}, {"name": "PartitionedCall/model_9/tf.math.sigmoid_52/Sigmoid", "op": "Sigmoid", "input": ["PartitionedCall/model_9/tf.math.add_94/Add"], "attr": {"T": {"type": "DT_FLOAT"}}}, {"name": "PartitionedCall/model_9/tf.math.multiply_212/Mul", "op": "Mul", "input": ["PartitionedCall/model_9/tf.math.add_94/Add", "PartitionedCall/model_9/tf.math.sigmoid_52/Sigmoid"], "attr": {"T": {"type": "DT_FLOAT"}}}, {"name": "PartitionedCall/model_9/tf.compat.v1.nn.depthwise_conv2d_13/depthwise", "op": "FusedDepthwiseConv2dNative", "input": ["PartitionedCall/model_9/tf.math.multiply_212/Mul", "unknown_136", "unknown_137"], "attr": {"padding": {"s": "U0FNRQ=="}, "data_format": {"s": "TkhXQw=="}, "strides": {"list": {"i": ["1", "1", "1", "1"]}}, "num_args": {"i": "1"}, "fused_ops": {"list": {"s": ["Qmlhc0FkZA=="]}}, "T": {"type": "DT_FLOAT"}, "explicit_paddings": {"list": {}}, "dilations": {"list": {"i": ["1", "1", "1", "1"]}}}}, {"name": "PartitionedCall/model_9/tf.math.sigmoid_53/Sigmoid", "op": "Sigmoid", "input": ["PartitionedCall/model_9/tf.compat.v1.nn.depthwise_conv2d_13/depthwise"], "attr": {"T": {"type": "DT_FLOAT"}}}, {"name": "PartitionedCall/model_9/tf.math.multiply_216/Mul", "op": "Mul", "input": ["PartitionedCall/model_9/tf.compat.v1.nn.depthwise_conv2d_13/depthwise", "PartitionedCall/model_9/tf.math.sigmoid_53/Sigmoid"], "attr": {"T": {"type": "DT_FLOAT"}}}, {"name": "PartitionedCall/model_9/tf.math.reduce_mean_13/Mean", "op": "Mean", "input": ["PartitionedCall/model_9/tf.math.multiply_216/Mul", "PartitionedCall/model_9/tf.math.reduce_mean_13/Mean/reduction_indices"], "attr": {"T": {"type": "DT_FLOAT"}, "Tidx": {"type": "DT_INT32"}, "keep_dims": {"b": true}}}, {"name": "PartitionedCall/model_9/tf.nn.convolution_68/convolution", "op": "Conv2D", "input": ["PartitionedCall/model_9/tf.math.reduce_mean_13/Mean", "unknown_138"], "device": "/device:CPU:0", "attr": {"padding": {"s": "U0FNRQ=="}, "data_format": {"s": "TkhXQw=="}, "strides": {"list": {"i": ["1", "1", "1", "1"]}}, "use_cudnn_on_gpu": {"b": true}, "T": {"type": "DT_FLOAT"}, "explicit_paddings": {"list": {}}, "dilations": {"list": {"i": ["1", "1", "1", "1"]}}}}, {"name": "PartitionedCall/model_9/tf.math.sigmoid_54/Sigmoid", "op": "Sigmoid", "input": ["PartitionedCall/model_9/tf.nn.convolution_68/convolution"], "attr": {"T": {"type": "DT_FLOAT"}}}, {"name": "PartitionedCall/model_9/tf.math.multiply_219/Mul", "op": "Mul", "input": ["PartitionedCall/model_9/tf.nn.convolution_68/convolution", "PartitionedCall/model_9/tf.math.sigmoid_54/Sigmoid"], "attr": {"T": {"type": "DT_FLOAT"}}}, {"name": "PartitionedCall/model_9/tf.math.add_97/Add", "op": "_FusedConv2D", "input": ["PartitionedCall/model_9/tf.math.multiply_219/Mul", "unknown_140", "unknown_141"], "device": "/device:CPU:0", "attr": {"num_host_args": {"i": "0"}, "data_format": {"s": "TkhXQw=="}, "filter_format": {"s": "SFdJTw=="}, "strides": {"list": {"i": ["1", "1", "1", "1"]}}, "num_args": {"i": "1"}, "fused_ops": {"list": {"s": ["Qmlhc0FkZA=="]}}, "TArgs": {"list": {"type": ["DT_FLOAT"]}}, "padding": {"s": "U0FNRQ=="}, "use_cudnn_on_gpu": {"b": true}, "leakyrelu_alpha": {"f": 0.2}, "epsilon": {"f": 0.0}, "T": {"type": "DT_FLOAT"}, "explicit_paddings": {"list": {}}, "dilations": {"list": {"i": ["1", "1", "1", "1"]}}}}, {"name": "PartitionedCall/model_9/tf.math.sigmoid_55/Sigmoid", "op": "Sigmoid", "input": ["PartitionedCall/model_9/tf.math.add_97/Add"], "attr": {"T": {"type": "DT_FLOAT"}}}, {"name": "PartitionedCall/model_9/tf.math.multiply_223/Mul", "op": "Mul", "input": ["PartitionedCall/model_9/tf.math.sigmoid_55/Sigmoid", "PartitionedCall/model_9/tf.math.multiply_216/Mul"], "attr": {"T": {"type": "DT_FLOAT"}}}, {"name": "PartitionedCall/model_9/tf.nn.convolution_70/convolution", "op": "Conv2D", "input": ["PartitionedCall/model_9/tf.math.multiply_223/Mul", "unknown_142"], "device": "/device:CPU:0", "attr": {"padding": {"s": "U0FNRQ=="}, "data_format": {"s": "TkhXQw=="}, "use_cudnn_on_gpu": {"b": true}, "strides": {"list": {"i": ["1", "1", "1", "1"]}}, "T": {"type": "DT_FLOAT"}, "explicit_paddings": {"list": {}}, "dilations": {"list": {"i": ["1", "1", "1", "1"]}}}}, {"name": "PartitionedCall/model_9/tf.math.add_100/ArithmeticOptimizer/AddOpsRewrite_Leaf_1_Add", "op": "AddN", "input": ["PartitionedCall/model_9/tf.nn.convolution_70/convolution", "PartitionedCall/model_9/tf.math.add_93/ArithmeticOptimizer/AddOpsRewrite_Add"], "attr": {"N": {"i": "2"}, "T": {"type": "DT_FLOAT"}, "_grappler_ArithmeticOptimizer_AddOpsRewriteStage": {"b": true}}}, {"name": "PartitionedCall/model_9/tf.math.add_100/ArithmeticOptimizer/AddOpsRewrite_Add", "op": "AddV2", "input": ["unknown_143", "PartitionedCall/model_9/tf.math.add_100/ArithmeticOptimizer/AddOpsRewrite_Leaf_1_Add"], "attr": {"T": {"type": "DT_FLOAT"}, "_grappler_ArithmeticOptimizer_AddOpsRewriteStage": {"b": true}}}, {"name": "PartitionedCall/model_9/tf.math.add_101/Add", "op": "_FusedConv2D", "input": ["PartitionedCall/model_9/tf.math.add_100/ArithmeticOptimizer/AddOpsRewrite_Add", "unknown_144", "unknown_145"], "device": "/device:CPU:0", "attr": {"num_host_args": {"i": "0"}, "data_format": {"s": "TkhXQw=="}, "filter_format": {"s": "SFdJTw=="}, "strides": {"list": {"i": ["1", "1", "1", "1"]}}, "num_args": {"i": "1"}, "fused_ops": {"list": {"s": ["Qmlhc0FkZA=="]}}, "TArgs": {"list": {"type": ["DT_FLOAT"]}}, "padding": {"s": "U0FNRQ=="}, "use_cudnn_on_gpu": {"b": true}, "leakyrelu_alpha": {"f": 0.2}, "epsilon": {"f": 0.0}, "T": {"type": "DT_FLOAT"}, "explicit_paddings": {"list": {}}, "dilations": {"list": {"i": ["1", "1", "1", "1"]}}}}, {"name": "PartitionedCall/model_9/tf.math.sigmoid_56/Sigmoid", "op": "Sigmoid",…
model_9/tf.compat.v1.nn.depthwise_conv2d_14/depthwise"], "attr": {"T": {"type": "DT_FLOAT"}}}, {"name": "PartitionedCall/model_9/tf.math.multiply_233/Mul", "op": "Mul", "input": ["PartitionedCall/model_9/tf.compat.v1.nn.depthwise_conv2d_14/depthwise", "PartitionedCall/model_9/tf.math.sigmoid_57/Sigmoid"], "attr": {"T": {"type": "DT_FLOAT"}}}, {"name": "PartitionedCall/model_9/tf.math.reduce_mean_14/Mean", "op": "Mean", "input": ["PartitionedCall/model_9/tf.math.multiply_233/Mul", "PartitionedCall/model_9/tf.math.reduce_mean_14/Mean/reduction_indices"], "attr": {"Tidx": {"type": "DT_INT32"}, "T": {"type": "DT_FLOAT"}, "keep_dims": {"b": true}}}, {"name": "PartitionedCall/model_9/tf.math.add_103/Add", "op": "_FusedConv2D", "input": ["PartitionedCall/model_9/tf.math.reduce_mean_14/Mean", "unknown_148", "unknown_149"], "device": "/device:CPU:0", "attr": {"num_host_args": {"i": "0"}, "data_format": {"s": "TkhXQw=="}, "filter_format": {"s": "SFdJTw=="}, "fused_ops": {"list": {"s": ["Qmlhc0FkZA=="]}}, "num_args": {"i": "1"}, "strides": {"list": {"i": ["1", "1", "1", "1"]}}, "TArgs": {"list": {"type": ["DT_FLOAT"]}}, "padding": {"s": "U0FNRQ=="}, "use_cudnn_on_gpu": {"b": true}, "leakyrelu_alpha": {"f": 0.2}, "epsilon": {"f": 0.0}, "T": {"type": "DT_FLOAT"}, "explicit_paddings": {"list": {}}, "dilations": {"list": {"i": ["1", "1", "1", "1"]}}}}, {"name": "PartitionedCall/model_9/tf.math.sigmoid_58/Sigmoid", "op": "Sigmoid", "input": ["PartitionedCall/model_9/tf.math.add_103/Add"], "attr": {"T": {"type": "DT_FLOAT"}}}, {"name": "PartitionedCall/model_9/tf.math.multiply_236/Mul", "op": "Mul", "input": ["PartitionedCall/model_9/tf.math.add_103/Add", "PartitionedCall/model_9/tf.math.sigmoid_58/Sigmoid"], "attr": {"T": {"type": "DT_FLOAT"}}}, {"name": "PartitionedCall/model_9/tf.math.add_104/Add", "op": "_FusedConv2D", "input": ["PartitionedCall/model_9/tf.math.multiply_236/Mul", "unknown_150", "unknown_151"], "device": "/device:CPU:0", "attr": {"num_host_args": {"i": "0"}, "data_format": {"s": "TkhXQw=="}, "filter_format": {"s": "SFdJTw=="}, "strides": {"list": {"i": ["1", "1", "1", "1"]}}, "num_args": {"i": "1"}, "fused_ops": {"list": {"s": ["Qmlhc0FkZA=="]}}, "TArgs": {"list": {"type": ["DT_FLOAT"]}}, "padding": {"s": "U0FNRQ=="}, "use_cudnn_on_gpu": {"b": true}, "leakyrelu_alpha": {"f": 0.2}, "epsilon": {"f": 0.0}, "T": {"type": "DT_FLOAT"}, "explicit_paddings": {"list": {}}, "dilations": {"list": {"i": ["1", "1", "1", "1"]}}}}, {"name": "PartitionedCall/model_9/tf.math.sigmoid_59/Sigmoid", "op": "Sigmoid", "input": ["PartitionedCall/model_9/tf.math.add_104/Add"], "attr": {"T": {"type": "DT_FLOAT"}}}, {"name": "PartitionedCall/model_9/tf.math.multiply_240/Mul", "op": "Mul", "input": ["PartitionedCall/model_9/tf.math.sigmoid_59/Sigmoid", "PartitionedCall/model_9/tf.math.multiply_233/Mul"], "attr": {"T": {"type": "DT_FLOAT"}}}, {"name": "PartitionedCall/model_9/tf.nn.convolution_74/convolution", "op": "Conv2D", "input": ["PartitionedCall/model_9/tf.math.multiply_240/Mul", "unknown_157"], "device": "/device:CPU:0", "attr": {"padding": {"s": "U0FNRQ=="}, "data_format": {"s": "TkhXQw=="}, "use_cudnn_on_gpu": {"b": true}, "strides": {"list": {"i": ["1", "1", "1", "1"]}}, "T": {"type": "DT_FLOAT"}, "explicit_paddings": {"list": {}}, "dilations": {"list": {"i": ["1", "1", "1", "1"]}}}}, {"name": "PartitionedCall/model_9/tf.math.add_107/ArithmeticOptimizer/AddOpsRewrite_Leaf_1_Add", "op": "AddN", "input": ["PartitionedCall/model_9/tf.nn.convolution_74/convolution", "PartitionedCall/model_9/tf.math.add_100/ArithmeticOptimizer/AddOpsRewrite_Add"], "attr": {"N": {"i": "2"}, "T": {"type": "DT_FLOAT"}, "_grappler_ArithmeticOptimizer_AddOpsRewriteStage": {"b": true}}}, {"name": "PartitionedCall/model_9/tf.math.add_107/ArithmeticOptimizer/AddOpsRewrite_Add", "op": "AddV2", "input": ["unknown_159", "PartitionedCall/model_9/tf.math.add_107/ArithmeticOptimizer/AddOpsRewrite_Leaf_1_Add"], "attr": {"T": {"type": "DT_FLOAT"}, "_grappler_ArithmeticOptimizer_AddOpsRewriteStage": {"b": true}}}, {"name": "PartitionedCall/model_9/tf.math.add_108/Add", "op": "_FusedConv2D", "input": ["PartitionedCall/model_9/tf.math.add_107/ArithmeticOptimizer/AddOpsRewrite_Add", "unknown_165", "unknown_168"], "device": "/device:CPU:0", "attr": {"num_host_args": {"i": "0"}, "data_format": {"s": "TkhXQw=="}, "filter_format": {"s": "SFdJTw=="}, "fused_ops": {"list": {"s": ["Qmlhc0FkZA=="]}}, "num_args": {"i": "1"}, "strides": {"list": {"i": ["1", "1", "1", "1"]}}, "TArgs": {"list": {"type": ["DT_FLOAT"]}}, "padding": {"s": "U0FNRQ=="}, "use_cudnn_on_gpu": {"b": true}, "leakyrelu_alpha": {"f": 0.2}, "epsilon": {"f": 0.0}, "T": {"type": "DT_FLOAT"}, "explicit_paddings": {"list": {}}, "dilations": {"list": {"i": ["1", "1", "1", "1"]}}}}, {"name": "PartitionedCall/model_9/tf.math.sigmoid_60/Sigmoid", "op": "Sigmoid", "input": ["PartitionedCall/model_9/tf.math.add_108/Add"], "attr": {"T": {"type": "DT_FLOAT"}}}, {"name": "PartitionedCall/model_9/tf.math.multiply_246/Mul", "op": "Mul", "input": ["PartitionedCall/model_9/tf.math.add_108/Add", "PartitionedCall/model_9/tf.math.sigmoid_60/Sigmoid"], "attr": {"T": {"type": "DT_FLOAT"}}}, {"name": "PartitionedCall/model_9/tf.compat.v1.nn.depthwise_conv2d_15/depthwise", "op": "FusedDepthwiseConv2dNative", "input": ["PartitionedCall/model_9/tf.math.multiply_246/Mul", "unknown_174", "unknown_176"], "attr": {"padding": {"s": "U0FNRQ=="}, "data_format": {"s": "TkhXQw=="}, "strides": {"list": {"i": ["1", "1", "1", "1"]}}, "num_args": {"i": "1"}, "fused_ops": {"list": {"s": ["Qmlhc0FkZA=="]}}, "T": {"type": "DT_FLOAT"}, "explicit_paddings": {"list": {}}, "dilations": {"list": {"i": ["1", "1", "1", "1"]}}}}, {"name": "PartitionedCall/model_9/tf.math.sigmoid_61/Sigmoid", "op": "Sigmoid", "input": ["PartitionedCall/model_9/tf.compat.v1.nn.depthwise_conv2d_15/depthwise"], "attr": {"T": {"type": "DT_FLOAT"}}}, {"name": "PartitionedCall/model_9/tf.math.multiply_250/Mul", "op": "Mul", "input": ["PartitionedCall/model_9/tf.compat.v1.nn.depthwise_conv2d_15/depthwise", "PartitionedCall/model_9/tf.math.sigmoid_61/Sigmoid"], "attr": {"T": {"type": "DT_FLOAT"}}}, {"name": "PartitionedCall/model_9/tf.math.reduce_mean_15/Mean", "op": "Mean", "input": ["PartitionedCall/model_9/tf.math.multiply_250/Mul", "PartitionedCall/model_9/tf.math.reduce_mean_15/Mean/reduction_indices"], "attr": {"Tidx": {"type": "DT_INT32"}, "T": {"type": "DT_FLOAT"}, "keep_dims": {"b": true}}}, {"name": "PartitionedCall/model_9/tf.math.add_110/Add", "op": "_FusedConv2D", "input": ["PartitionedCall/model_9/tf.math.reduce_mean_15/Mean", "unknown_186", "unknown_188"], "device": "/device:CPU:0", "attr": {"num_host_args": {"i": "0"}, "data_format": {"s": "TkhXQw=="}, "filter_format": {"s": "SFdJTw=="}, "fused_ops": {"list": {"s": ["Qmlhc0FkZA=="]}}, "num_args": {"i": "1"}, "strides": {"list": {"i": ["1", "1", "1", "1"]}}, "TArgs": {"list": {"type": ["DT_FLOAT"]}}, "padding": {"s": "U0FNRQ=="}, "use_cudnn_on_gpu": {"b": true}, "leakyrelu_alpha": {"f": 0.2}, "epsilon": {"f": 0.0}, "T": {"type": "DT_FLOAT"}, "explicit_paddings": {"list": {}}, "dilations": {"list": {"i": ["1", "1", "1", "1"]}}}}, {"name": "PartitionedCall/model_9/tf.math.sigmoid_62/Sigmoid", "op": "Sigmoid", "input": ["PartitionedCall/model_9/tf.math.add_110/Add"], "attr": {"T": {"type": "DT_FLOAT"}}}, {"name": "PartitionedCall/model_9/tf.math.multiply_253/Mul", "op": "Mul", "input": ["PartitionedCall/model_9/tf.math.add_110/Add", "PartitionedCall/model_9/tf.math.sigmoid_62/Sigmoid"], "attr": {"T": {"type": "DT_FLOAT"}}}, {"name": "PartitionedCall/model_9/tf.math.add_111/Add", "op": "_FusedConv2D", "input": ["PartitionedCall/model_9/tf.math.multiply_253/Mul", "unknown_196", "unknown_198"], "device": "/device:CPU:0", "attr": {"num_host_args": {"i": "0"}, "data_format": {"s": "TkhXQw=="}, "filter_format": {"s": "SFdJTw=="}, "strides": {"list": {"i": ["1", "1", "1", "1"]}}, "num_args": {"i": "1"}, "fused_ops": {"list": {"s": ["Qmlhc0FkZA=="]}}, "TArgs": {"list": {"type": ["DT_FLOAT"]}}, "padding": {"s": "U0FNRQ=="}, "use_cudnn_on_gpu": {"b": true}, "leakyrelu_alpha": {"f": 0.2}, "epsilon": {"f": 0.0}, "T": {"type": "DT_FLOAT"}, "explicit_paddings": {"list": {}}, "dilations": {"list": {"i": ["1", "1", "1", "1"]}}}}, {"name": "PartitionedCall/model_9/tf.math.sigmoid_63/Sigmoid", "op": "Sigmoid", "input": ["PartitionedCall/model_9/tf.math.add_111/Add"], "attr": {"T": {"type": "DT_FLOAT"}}}, {"name": "PartitionedCall/model_9/tf.math.multiply_257/Mul", "op": "Mul", "input": ["PartitionedCall/model_9/tf.math.sigmoid_63/Sigmoid", "PartitionedCall/model_9/tf.math.multiply_250/Mul"], "attr": {"T": {"type": "DT_FLOAT"}}}, {"name": "PartitionedCall/model_9/tf.math.add_112/Add", "op": "_FusedConv2D", "input": ["PartitionedCall/model_9/tf.math.multiply_257/Mul", "unknown_204", "unknown_207"], "device": "/device:CPU:0", "attr": {"num_host_args": {"i": "0"}, "data_format": {"s": "TkhXQw=="}, "filter_format": {"s": "SFdJTw=="}, "fused_ops": {"list": {"s": ["Qmlhc0FkZA=="]}}, "num_args": {"i": "1"}, "strides": {"list": {"i": ["1", "1", "1", "1"]}}, "TArgs": {"list": {"type": ["DT_FLOAT"]}}, "padding": {"s": "U0FNRQ=="}, "use_cudnn_on_gpu": {"b": true}, "leakyrelu_alpha": {"f": 0.2}, "epsilon": {"f": 0.0}, "T": {"type": "DT_FLOAT"}, "explicit_paddings": {"list": {}}, "dilations": {"list": {"i": ["1", "1", "1", "1"]}}}}, {"name": "PartitionedCall/model_9/tf.strided_slice_8/StridedSlice", "op": "StridedSlice", "input": ["PartitionedCall/model_9/tf.math.add_112/Add", "unknown_209", "unknown_210", "PartitionedCall/model_9/tf.strided_slice_8/ones_like"], "attr": {"shrink_axis_mask": {"i": "0"}, "new_axis_mask": {"i": "0"}, "Index": {"type": "DT_INT64"}, "begin_mask": {"i": "15"}, "end_mask": {"i": "14"}, "T": {"type": "DT_FLOAT"}, "ellipsis_mask": {"i": "0"}}}, {"name": "PartitionedCall/model_9/tf.strided_slice_9/StridedSlice", "op": "StridedSlice", "input": ["PartitionedCall/model_9/tf.math.add_112/Add", "unknown_211", "unknown_212", "PartitionedCall/model_9/tf.strided_slice_9/ones_like"], "attr": {"shrink_axis_mask": {"i": "0"}, "new_axis_mask": {"i": "0"}, "Index": {"type": "DT_INT64"}, "begin_mask": {"i": "14"}, "T": {"type": "DT_FLOAT"}, "end_mask": {"i": "14"}, "ellipsis_mask": {"i": "0"}}}, {"name": "PartitionedCall/model_9/tf.concat_13/concat", "op": "ConcatV2", "input": ["PartitionedCall/model_9/tf.strided_slice_8/StridedSlice", "PartitionedCall/model_9/tf.strided_slice_9/StridedSlice", "PartitionedCall/model_9/tf.concat_13/concat/axis"], "attr": {"N": {"i": "2"}, "T": {"type": "DT_FLOAT"}, "Tidx": {"type": "DT_INT32"}}}, {"name": "PartitionedCall/model_9/tf.nn.leaky_relu_4/LeakyRelu", "op": "_FusedConv2D", "input": ["PartitionedCall/model_9/tf.concat_13/concat", "unknown_214", "unknown_216"], "device": "/device:CPU:0", "attr": {"num_host_args": {"i": "0"}, "data_format": {"s": "TkhXQw=="}, "filter_format": {"s": "SFdJTw=="}, "strides": {"list": {"i": ["1", "1", "1", "1"]}}, "num_args": {"i": "1"}, "fused_ops": {"list": {"s": ["Qmlhc0FkZA==", "TGVha3lSZWx1"]}}, "TArgs": {"list": {"type": ["DT_FLOAT"]}}, "padding": {"s": "U0FNRQ=="}, "use_cudnn_on_gpu": {"b": true}, "leakyrelu_alpha": {"f": 0.01}, "epsilon": {"f": 0.0}, "T": {"type": "DT_FLOAT"}, "explicit_paddings": {"list": {}}, "dilations": {"list": {"i": ["1", "1", "1", "1"]}}}}, {"name": "PartitionedCall/model_9/tf.math.add_114/Add", "op": "_FusedConv2D", "input": ["PartitionedCall/model_9/tf.nn.leaky_relu_4/LeakyRelu", "unknown_219", "unknown_221"], "device": "/device:CPU:0", "attr": {"num_host_args": {"i": "0"}, "data_format": {"s": "TkhXQw=="}, "filter_format": {"s": "SFdJTw=="}, "strides": {"list": {"i": ["1", "1", "1", "1"]}}, "num_args": {"i": "1"}, "fused_ops": {"list": {"s": ["Qmlhc0FkZA=="]}}, "TArgs": {"list": {"type": ["DT_FLOAT"]}}, "padding": {"s": "U0FNRQ=="}, "use_cudnn_on_gpu": {"b": true}, "leakyrelu_alpha": {"f": 0.2}, "epsilon": {"f": 0.0}, "T": {"type": "DT_FLOAT"}, "explicit_paddings": {"list": {}}, "dilations": {"list": {"i": ["1", "1", "1", "1"]}}}}, {"name": "PartitionedCall/model_9/tf.concat_14/concat", "op": "ConcatV2", "input": ["PartitionedCall/model_9/tf.nn.relu_3/Relu", "PartitionedCall/model_9/tf.math.add_114/Add", "PartitionedCall/model_9/tf.concat_14/concat/axis"], "attr": {"N": {"i": "2"}, "Tidx": {"type": "DT_INT32"}, "T": {"type": "DT_FLOAT"}}}, {"name": "PartitionedCall/model_9/tf.math.add_115/Add", "op": "_FusedConv2D", "input": ["PartitionedCall/model_9/tf.concat_14/concat", "unknown_222", "unknown_223"], "device": "/device:CPU:0", "attr": {"num_host_args": {"i": "0"}, "data_format": {"s": "TkhXQw=="}, "filter_format": {"s": "SFdJTw=="}, "fused_ops": {"list": {"s": ["Qmlhc0FkZA=="]}}, "num_args": {"i": "1"}, "strides": {"list": {"i": ["1", "1", "1", "1"]}}, "TArgs": {"list": {"type": ["DT_FLOAT"]}}, "padding": {"s": "U0FNRQ=="}, "use_cudnn_on_gpu": {"b": true}, "leakyrelu_alpha": {"f": 0.2}, "epsilon": {"f": 0.0}, "T": {"type": "DT_FLOAT"}, "explicit_paddings": {"list": {}}, "dilations": {"list": {"i": ["1", "1", "1", "1"]}}}}, {"name": "PartitionedCall/model_9/tf.nn.max_pool2d/MaxPool2d", "op": "MaxPool", "input": ["PartitionedCall/model_9/tf.math.add_115/Add"], "attr": {"padding": {"s": "VkFMSUQ="}, "data_format": {"s": "TkhXQw=="}, "T": {"type": "DT_FLOAT"}, "explicit_paddings": {"list": {}}, "ksize": {"list": {"i": ["1", "8", "8", "1"]}}, "strides": {"list": {"i": ["1", "8", "8", "1"]}}}}, {"name": "PartitionedCall/model_9/tf.math.reduce_mean_16/Mean", "op": "Mean", "input": ["PartitionedCall/model_9/tf.math.add_115/Add", "PartitionedCall/model_9/tf.math.reduce_mean_16/Mean/reduction_indices"], "attr": {"Tidx": {"type": "DT_INT32"}, "T": {"type": "DT_FLOAT"}, "keep_dims": {"b": true}}}, {"name": "PartitionedCall/model_9/tf.compat.v1.transpose_1/transpose", "op": "Transpose", "input": ["PartitionedCall/model_9/tf.nn.max_pool2d/MaxPool2d", "PartitionedCall/model_9/tf.compat.v1.transpose_1/transpose/perm"], "attr": {"Tperm": {"type": "DT_INT32"}, "T": {"type": "DT_FLOAT"}}}, {"name": "PartitionedCall/model_9/tf.compat.v1.transpose/transpose", "op": "Transpose", "input": ["PartitionedCall/model_9/tf.math.reduce_mean_16/Mean", "PartitionedCall/model_9/tf.compat.v1.transpose/transpose/perm"], "attr": {"Tperm": {"type": "DT_INT32"}, "T": {"type": "DT_FLOAT"}}}, {"name": "PartitionedCall/model_9/tf.reshape_1/Reshape", "op": "Reshape", "input": ["PartitionedCall/model_9/tf.compat.v1.transpose_1/transpose", "PartitionedCall/model_9/tf.reshape_1/Reshape/shape"], "attr": {"T": {"type": "DT_FLOAT"}, "Tshape": {"type": "DT_INT32"}}}, {"name": "PartitionedCall/model_9/tf.reshape/Reshape", "op": "Reshape", "input": ["PartitionedCall/model_9/tf.compat.v1.transpose/transpose", "PartitionedCall/model_9/tf.reshape/Reshape/shape"], "attr": {"T": {"type": "DT_FLOAT"}, "Tshape": {"type": "DT_INT32"}}}, {"name": "PartitionedCall/model_9/tf.concat_17/concat", "op": "ConcatV2", "input": ["PartitionedCall/model_9/tf.reshape/Reshape", "PartitionedCall/model_9/tf.reshape_1/Reshape", "PartitionedCall/model_9/tf.concat_17/concat/axis"], "attr": {"N": {"i": "2"}, "Tidx": {"type": "DT_INT32"}, "T": {"type": "DT_FLOAT"}}}, {"name": "PartitionedCall/model_9/tf.__operators__.add_1/AddV2", "op": "_FusedMatMul", "input": ["PartitionedCall/model_9/tf.concat_17/concat", "unknown_226", "unknown_229"], "device": "/device:CPU:0", "attr": {"transpose_a": {"b": false}, "transpose_b": {"b": false}, "fused_ops": {"list": {"s": ["Qmlhc0FkZA=="]}}, "num_args": {"i": "1"}, "leakyrelu_alpha": {"f": 0.2}, "epsilon": {"f": 0.0}, "T": {"type": "DT_FLOAT"}}}, {"name": "PartitionedCall/model_9/tf.nn.leaky_relu_5/LeakyRelu", "op": "_FusedMatMul", "input": ["PartitionedCall/model_9/tf.concat_17/concat", "unknown_224", "unknown_227"], "device": "/device:CPU:0", "attr": {"transpose_a": {"b": false}, "transpose_b": {"b": false}, "fused_ops": {"list": {"s": ["Qmlhc0FkZA==", "TGVha3lSZWx1"]}}, "leakyrelu_alpha": {"f": 0.01}, "num_args": {"i": "1"}, "epsilon": {"f": 0.0}, "T": {"type": "DT_FLOAT"}}}, {"name": "PartitionedCall/model_9/tf.reshape_2/Reshape", "op": "Reshape", "input": ["PartitionedCall/model_9/tf.__operators__.add_1/AddV2", "PartitionedCall/model_9/tf.reshape_2/Reshape/shape"], "attr": {"T": {"type": "DT_FLOAT"}, "Tshape": {"type": "DT_INT32"}}}, {"name": "PartitionedCall/model_9/tf.linalg.matmul_3/MatMul", "op": "MatMul", "input": ["PartitionedCall/model_9/tf.nn.leaky_relu_5/LeakyRelu", "unknown_230"], "device": "/device:CPU:0", "attr": {"transpose_a": {"b": false}, "T": {"type": "DT_FLOAT"}, "transpose_b": {"b": false}}}, {"name": "PartitionedCall/model_9/1D_LUT/Sigmoid", "op": "Sigmoid", "input": ["PartitionedCall/model_9/tf.reshape_2/Reshape"], "attr": {"T": {"type": "DT_FLOAT"}}}, {"name": "PartitionedCall/model_9/3D_LUT/Reshape", "op": "Reshape", "input": ["PartitionedCall/model_9/tf.linalg.matmul_3/MatMul", "PartitionedCall/model_9/3D_LUT/Reshape/shape"], "attr": {"T": {"type": "DT_FLOAT"}, "Tshape": {"type": "DT_INT32"}}}, {"name": "Identity", "op": "Identity", "input": ["PartitionedCall/model_9/1D_LUT/Sigmoid"], "attr": {"T": {"type": "DT_FLOAT"}}}, {"name": "Identity_1", "op": "Identity", "input": ["PartitionedCall/model_9/3D_LUT/Reshape"], "attr": {"T": {"type": "DT_FLOAT"}}}], "library": {}, "versions": {"producer": 1482}}, "weightsManifest": [{"paths": ["group1-shard1of5.bin", "group1-shard2of5.bin", "group1-shard3of5.bin", "group1-shard4of5.bin", "group1-shard5of5.bin"], "weights": [{"name": "unknown_226", "shape": [640, 51], "dtype": "float32", "quantization": {"dtype": "float16", "original_dtype": "float32"}}, {"name": "unknown_229", "shape": [51], "dtype": "float32", "quantization": {"dtype": "float16", "original_dtype": "float32"}}, {"name": "PartitionedCall/model_9/tf.reshape_2/Reshape/shape", "shape": [3], "dtype": "int32"}, {"name": "PartitionedCall/model_9/tf.math.reduce_mean_16/Mean/reduction_indices", "shape": [2], "dtype": "int32"}, {"name": "PartitionedCall/model_9/tf.compat.v1.transpose/transpose/perm", "shape": [4], "dtype": "int32"}, {"name": "PartitionedCall/model_9/tf.reshape/Reshape/shape", "shape": [2], "dtype": "int32"}, {"name": "unknown_152", "shape": [4], "dtype": "int32"}, {"name": "unknown_153", "shape": [4], "dtype": "int32"}, {"name": "PartitionedCall/model_9/tf.strided_slice/ones_like", "shape": [4], "dtype": "int32"}, {"name": "unknown_154", "shape": [4], "dtype": "int32"}, {"name": "unknown_155", "shape": [4], "dtype": "int32"}, {"name": "PartitionedCall/model_9/tf.strided_slice_1/ones_like", "shape": [4], "dtype": "int32"}, {"name": "PartitionedCall/model_9/tf.concat_6/concat/axis", "shape": [], "dtype": "int32"}, {"name": "unknown_156", "shape": [3, 3, 32, 40], "dtype": "float32", "quantization": {"dtype": "float16", "original_dtype": "float32"}}, {"name": "unknown_158", "shape": [40], "dtype": "float32", "quantization": {"dtype": "float16", "original_dtype": "float32"}}, {"name": "unknown_164", "shape": [1, 1, 40, 40], "dtype": "float32", "quantization": {"dtype": "float16", "original_dtype": "float32"}}, {"name": "unknown_167", "shape": [40], "dtype": "float32", "quantization": {"dtype": "float16", "original_dtype": "float32"}}, {"name": "unknown_170", "shape": [4, 2], "dtype": "int32"}, {"name": "unknown_171", "shape": [3, 3, 40, 40], "dtype": "float32", "quantization": {"dtype": "float16", "original_dtype": "float32"}}, {"name": "unknown_173", "shape": [40], "dtype": "float32", "quantization": {"dtype": "float16", "original_dtype": "float32"}}, {"name": "unknown_160", "shape": [4], "dtype": "int32"}, {"name": "unknown_161", "shape": [4], "dtype": "int32"}, {"name": "PartitionedCall/model_9/tf.strided_slice_2/ones_like", "shape": [4], "dtype": "int32"}, {"name": "unknown_162", "shape": [4], "dtype": "int32"}, {"name": "unknown_163", "shape": [4], "dtype": "int32"}, {"name": "PartitionedCall/model_9/tf.strided_slice_3/ones_like", "shape": [4], "dtype": "int32"}, {"name": "PartitionedCall/model_9/tf.concat_7/concat/axis", "shape": [], "dtype": "int32"}, {"name": "unknown_166", "shape": [3, 3, 48, 80], "dtype": "float32", "quantization": {"dtype": "float16", "original_dtype": "float32"}}, {"name": "unknown_172", "shape": [1, 1, 80, 80], "dtype": "float32", "quantization": {"dtype": "float16", "original_dtype": "float32"}}, {"name": "unknown_175", "shape": [80], "dtype": "float32", "quantization": {"dtype": "float16", "original_dtype": "float32"}}, {"name": "PartitionedCall/model_9/tf.concat_8/concat/axis", "shape": [], "dtype": "int32"}, {"name": "unknown_181", "shape": [1, 1, 120, 80], "dtype": "float32", "quantization": {"dtype": "float16", "original_dtype": "float32"}}, {"name": "unknown_183", "shape": [80], "dtype": "float32", "quantization": {"dtype": "float16", "original_dtype": "float32"}}, {"name": "unknown_185", "shape": [4, 2], "dtype": "int32"}, {"name": "unknown_187", "shape": [3, 3, 80, 80], "dtype": "float32", "quantization": {"dtype": "float16", "original_dtype": "float32"}}, {"name": "unknown_190", "shape": [80], "dtype": "float32", "quantization": {"dtype": "float16", "original_dtype": "float32"}}, {"name": "unknown_177", "shape": [4], "dtype": "int32"}, {"name": "unknown_178", "shape": [4], "dtype": "int32"}, {"name": "PartitionedCall/model_9/tf.strided_slice_4/ones_like", "shape": [4], "dtype": "int32"}, {"name": "unknown_179", "shape": [4], "dtype": "int32"}, {"name": "unknown_180", "shape": [4], "dtype": "int32"}, {"name": "PartitionedCall/model_9/tf.strided_slice_5/ones_like", "shape": [4], "dtype": "int32"}, {"name": "PartitionedCall/model_9/tf.concat_9/concat/axis", "shape": [], "dtype": "int32"}, {"name": "unknown_182", "shape": [3, 3, 80, 160], "dtype": "float32", "quantization": {"dtype": "float16", "original_dtype": "float32"}}, {"name": "unknown_184", "shape": [160], "dtype": "float32", "quantization": {"dtype": "float16", "original_dtype": "float32"}}, {"name": "unknown_189", "shape": [1, 1, 160, 160], "dtype": "float32", "quantization": {"dtype": "float16", "original_dtype": "float32"}}, {"name": "unknown_191", "shape": [160], "dtype": "float32", "quantization": {"dtype": "float16", "original_dtype": "float32"}}, {"name": "PartitionedCall/model_9/tf.concat_10/concat/axis", "shape": [], "dtype": "int32"}, {"name": "unknown_197", "shape": [1, 1, 240, 160], "dtype": "float32", "quantization": {"dtype": "float16", "original_dtype": "float32"}}, {"name": "unknown_200", "shape": [160], "dtype": "float32", "quantization": {"dtype": "float16", "original_dtype": "float32"}}, {"name": "unknown_202", "shape": [4, 2], "dtype": "int32"}, {"name": "unknown_203", "shape": [3, 3, 160, 160], "dtype": "float32", "quantization": {"dtype": "float16", "original_dtype": "float32"}}, {"name": "unknown_206", "shape": [160], "dtype": "float32", "quantization": {"dtype": "float16", "original_dtype": "float32"}}, {"name": "unknown_192", "shape": [4], "dtype": "int32"}, {"name": "unknown_193", "shape": [4], "dtype": "int32"}, {"name": "PartitionedCall/model_9/tf.strided_slice_6/ones_like", "shape": [4], "dtype": "int32"}, {"name": "unknown_194", "shape": [4], "dtype": "int32"}, {"name": "unknown_195", "shape": [4], "dtype": "int32"}, {"name": "PartitionedCall/model_9/tf.strided_slice_7/ones_like", "shape": [4], "dtype": "int32"}, {"name": "PartitionedCall/model_9/tf.concat_11/concat/axis", "shape": [], "dtype": "int32"}, {"name": "unknown_199", "shape": [3, 3, 224, 320], "dtype": "float32", "quantization": {"dtype": "float16", "original_dtype": "float32"}}, {"name": "unknown_201", "shape": [320], "dtype": "float32", "quantization": {"dtype": "float16", "original_dtype": "float32"}}, {"name": "unknown_205", "shape": [1, 1, 320, 320], "dtype": "float32", "quantization": {"dtype": "float16", "original_dtype": "float32"}}, {"name": "unknown_208", "shape": [320], "dtype": "float32", "quantization": {"dtype": "float16", "original_dtype": "float32"}}, {"name": "PartitionedCall/model_9/tf.concat_12/concat/axis", "shape": [], "dtype": "int32"}, {"name": "unknown_213", "shape": [1, 1, 480, 320], "dtype": "float32", "quantization": {"dtype": "float16", "original_dtype": "float32"}}, {"name": "unknown_215", "shape": [320], "dtype": "float32", "quantization": {"dtype": "float16", "original_dtype": "float32"}}, {"name": "unknown_217", "shape": [4, 2], "dtype": "int32"}, {"name": "unknown_218", "shape": [3, 3, 320, 320], "dtype": "float32", "quantization": {"dtype": "float16", "original_dtype": "float32"}}, {"name": "unknown_220", "shape": [320], "dtype": "float32", "quantization": {"dtype": "float16", "original_dtype": "float32"}}, {"name": "unknown_209", "shape": [4], "dtype": "int32"}, {"name": "unknown_210", "shape": [4], "dtype": "int32"}, {"name": "PartitionedCall/model_9/tf.strided_slice_8/ones_like", "shape": [4], "dtype": "int32"}, {"name": "PartitionedCall/model_9/tf.math.reduce_mean_15/Mean/reduction_indices", "shape": [2], "dtype": "int32"}, {"name": "unknown_186", "shape": [1, 1, 1152, 48], "dtype": "float32", "quantization": {"dtype": "float16", "original_dtype": "float32"}}, {"name": "unknown_188", "shape": [48], "dtype": "float32", "quantization": {"dtype": "float16", "original_dtype": "float32"}}, {"name": "unknown_196", "shape": [1, 1, 48, 1152], "dtype": "float32", "quantization": {"dtype": "float16", "original_dtype": "float32"}}, {"name": "unknown_198", "shape": [1152], "dtype": "float32", "quantization": {"dtype": "float16", "original_dtype": "float32"}}, {"name": "unknown_159", "shape": [192], "dtype": "float32", "quantization": {"dtype": "float16", "original_dtype": "float32"}}, {"name": "PartitionedCall/model_9/tf.math.reduce_mean_14/Mean/reduction_indices", "shape": [2], "dtype": "int32"}, {"name": "unknown_148", "shape": [1, 1, 1152, 48], "dtype": "float32", "quantization": {"dtype": "float16", "original_dtype": "float32"}}, {"name": "unknown_149", "shape": [48], "dtype": "float32", "quantization": {"dtype": "float16", "original_dtype": "float32"}}, {"name": "unknown_150", "shape": [1, 1, 48, 1152], "dtype": "float32", "quantization": {"dtype": "float16", "original_dtype": "float32"}}, {"name": "unknown_151", "shape": [1152], "dtype": "float32", "quantization": {"dtype": "float16", "original_dtype": "float32"}}, {"name": "unknown_144", "shape": [1, 1, 192, 1152], "dtype": "float32", "quantization": {"dtype": "float16", "original_dtype": "float32"}}, {"name": "unknown_145", "shape": [1152], "dtype": "float32", "quantization": {"dtype": "float16", "original_dtype": "float32"}}, {"name": "unknown_146", "shape": [5, 5, 1152, 1], "dtype": "float32", "quantization": {"dtype": "float16", "original_dtype": "float32"}}, {"name": "unknown_147", "shape": [1152], "dtype": "float32", "quantization": {"dtype": "float16", "original_dtype": "float32"}}, {"name": "unknown_157", "shape": [1, 1, 1152, 192], "dtype": "float32", "quantization": {"dtype": "float16", "original_dtype": "float32"}}, {"name": "unknown_143", "shape": [192], "dtype": "float32", "quantization": {"dtype": "float16", "original_dtype": "float32"}}, {"name": "PartitionedCall/model_9/tf.math.reduce_mean_13/Mean/reduction_indices", "shape": [2], "dtype": "int32"}, {"name": "unknown_138", "shape": [1, 1, 1152, 48], "dtype": "float32", "quantization": {"dtype": "float16", "original_dtype": "float32"}}, {"name": "unknown_140", "shape": [1, 1, 48, 1152], "dtype": "float32", "quantization": {"dtype": "float16", "original_dtype": "float32"}}, {"name": "unknown_141", "shape": [1152], "dtype": "float32", "quantization": {"dtype": "float16", "original_dtype": "float32"}}, {"name": "unknown_134", "shape": [1, 1, 192, 1152], "dtype": "float32", "quantization": {"dtype": "float16", "original_dtype": "float32"}}, {"name": "unknown_135", "shape": [1152], "dtype": "float32", "quantization": {"dtype": "float16", "original_dtype": "float32"}}, {"name": "unknown_136", "shape": [5, 5, 1152, 1], "dtype": "float32", "quantization": {"dtype": "float16", "original_dtype": "float32"}}, {"name": "unknown_137", "shape": [1152], "dtype": "float32", "quantization": {"dtype": "float16", "original_dtype": "float32"}}, {"name": "unknown_142", "shape": [1, 1, 1152, 192], "dtype": "float32", "quantization": {"dtype": "float16", "original_dtype": "float32"}}, {"name": "unknown_133", "shape": [192], "dtype": "float32", "quantization": {"dtype": "float16", "original_dtype": "float32"}}, {"name": "PartitionedCall/model_9/tf.math.reduce_mean_12/Mean/reduction_indices", "shape": [2], "dtype": "int32"}, {"name": "unknown_128", "shape": [1, 1, 1152, 48], "dtype": "float32", "quantization": {"dtype": "float16", "original_dtype": "float32"}}, {"name": "unknown_129", "shape": [48], "dtype": "float32", "quantization": {"dtype": "float16", "original_dtype": "float32"}}, {"name": "unknown_130", "shape": [1, 1, 48, 1152], "dtype": "float32", "quantization": {"dtype": "float16", "original_dtype": "float32"}}, {"name": "unknown_131", "shape": [1152], "dtype": "float32", "quantization": {"dtype": "float16", "original_dtype": "float32"}}, {"name": "unknown_124", "shape": [1, 1, 192, 1152], "dtype": "float32", "quantization": {"dtype": "float16", "original_dtype": "float32"}}, {"name": "unknown_125", "shape": [1152], "dtype": "float32", "quantization": {"dtype": "float16", "original_dtype": "float32"}}, {"name": "unknown_126", "shape": [5, 5, 1152, 1], "dtype": "float32", "quantization": {"dtype": "float16", "original_dtype": "float32"}}, {"name": "unknown_127", "shape": [1152], "dtype": "float32", "quantization": {"dtype": "float16", "original_dtype": "float32"}}, {"name": "unknown_132", "shape": [1, 1, 1152, 192], "dtype": "float32", "quantization": {"dtype": "float16", "original_dtype": "float32"}}, {"name": "PartitionedCall/model_9/tf.math.reduce_mean_11/Mean/reduction_indices", "shape": [2], "dtype": "int32"}, {"name": "unknown_118", "shape": [1, 1, 672, 28], "dtype": "float32", "quantization": {"dtype": "float16", "original_dtype": "float32"}}, {"name": "unknown_119", "shape": [28], "dtype": "float32", "quantization": {"dtype": "float16", "original_dtype": "float32"}}, {"name": "unknown_120", "shape": [1, 1, 28, 672], "dtype": "float32", "quantization": {"dtype": "float16", "original_dtype": "float32"}}, {"name": "unknown_121", "shape": [672], "dtype": "float32", "quantization": {"dtype": "float16", "original_dtype": "float32"}}, {"name": "unknown_112", "shape": [112], "dtype": "float32", "quantization": {"dtype": "float16", "original_dtype": "float32"}}, {"name": "PartitionedCall/model_9/tf.math.reduce_mean_10/Mean/reduction_indices", "shape": [2], "dtype": "int32"}, {"name": "unknown_107", "shape": [1, 1, 672, 28], "dtype": "float32", "quantization": {"dtype": "float16", "original_dtype": "float32"}}, {"name": "unknown_108", "shape": [28], "dtype": "float32", "quantization": {"dtype": "float16", "original_dtype": "float32"}}, {"name": "unknown_109", "shape": [1, 1, 28, 672], "dtype": "float32", "quantization": {"dtype": "float16", "original_dtype": "float32"}}, {"name": "unknown_110", "shape": [672], "dtype": "float32", "quantization": {"dtype": "float16", "original_dtype": "float32"}}, {"name": "unknown_103", "shape": [1, 1, 112, 672], "dtype": "float32", "quantization": {"dtype": "float16", "original_dtype": "float32"}}, {"name": "unknown_104", "shape": [672], "dtype": "float32", "quantization": {"dtype": "float16", "original_dtype": "float32"}}, {"name": "unknown_105", "shape": [5, 5, 672, 1], "dtype": "float32", "quantization": {"dtype": "float16", "original_dtype": "float32"}}, {"name": "unknown_106", "shape": [672], "dtype": "float32", "quantization": {"dtype": "float16", "original_dtype": "float32"}}, {"name": "unknown_111", "shape": [1, 1, 672, 112], "dtype": "float32", "quantization": {"dtype": "float16", "original_dtype": "float32"}}, {"name": "unknown_102", "shape": [112], "dtype": "float32", "quantization": {"dtype": "float16", "original_dtype": "float32"}}, {"name": "PartitionedCall/model_9/tf.math.reduce_mean_9/Mean/reduction_indices", "shape": [2], "dtype": "int32"}, {"name": "unknown_97", "shape": [1, 1, 672, 28], "dtype": "float32", "quantization": {"dtype": "float16", "original_dtype": "float32"}}, {"name": "unknown_98", "shape": [28], "dtype": "float32", "quantization": {"dtype": "float16", "original_dtype": "float32"}}, {"name": "unknown_99", "shape": [1, 1, 28, 672], "dtype": "float32", "quantization": {"dtype": "float16", "original_dtype": "float32"}}, {"name": "unknown_100", "shape": [672], "dtype": "float32", "quantization": {"dtype": "float16", "original_dtype": "float32"}}, {"name": "unknown_93", "shape": [1, 1, 112, 672], "dtype": "float32", "quantization": {"dtype": "float16", "original_dtype": "float32"}}, {"name": "unknown_94", "shape": [672], "dtype": "float32", "quantization": {"dtype": "float16", "original_dtype": "float32"}}, {"name": "unknown_95", "shape": [5, 5, 672, 1], "dtype": "float32", "quantization": {"dtype": "float16", "original_dtype": "float32"}}, {"name": "unknown_96", "shape": [672], "dtype": "float32", "quantization": {"dtype": "float16", "original_dtype": "float32"}}, {"name": "unknown_101", "shape": [1, 1, 672, 112], "dtype": "float32", "quantization": {"dtype": "float16", "original_dtype": "float32"}}, {"name": "PartitionedCall/model_9/tf.math.reduce_mean_8/Mean/reduction_indices", "shape": [2], "dtype": "int32"}, {"name": "unknown_87", "shape": [1, 1, 480, 20], "dtype": "float32", "quantization": {"dtype": "float16", "original_dtype": "float32"}}, {"name": "unknown_88", "shape": [20], "dtype": "float32", "quantization": {"dtype": "float16", "original_dtype": "float32"}}, {"name": "unknown_89", "shape": [1, 1, 20, 480], "dtype": "float32", "quantization": {"dtype": "float16", "original_dtype": "float32"}}, {"name": "unknown_90", "shape": [480], "dtype": "float32", "quantization": {"dtype": "float16", "original_dtype": "float32"}}, {"name": "unknown_82", "shape": [80], "dtype": "float32", "quantization": {"dtype": "float16", "original_dtype": "float32"}}, {"name": "PartitionedCall/model_9/tf.math.reduce_mean_7/Mean/reduction_indices", "shape": [2], "dtype": "int32"}, {"name": "unknown_77", "shape": [1, 1, 480, 20], "dtype": "float32", "quantization": {"dtype": "float16", "original_dtype": "float32"}}, {"name": "unknown_78", "shape": [20], "dtype": "float32", "quantization": {"dtype": "float16", "original_dtype": "float32"}}, {"name": "unknown_79", "shape": [1, 1, 20, 480], "dtype": "float32", "quantization": {"dtype": "float16", "original_dtype": "float32"}}, {"name": "unknown_80", "shape": [480], "dtype": "float32", "quantization": {"dtype": "float16", "original_dtype": "float32"}}, {"name": "unknown_73", "shape": [1, 1, 80, 480], "dtype": "float32", "quantization": {"dtype": "float16", "original_dtype": "float32"}}, {"name": "unknown_74", "shape": [480], "dtype": "float32", "quantization": {"dtype": "float16", "original_dtype": "float32"}}, {"name": "unknown_75", "shape": [3, 3, 480, 1], "dtype": "float32", "quantization": {"dtype": "float16", "original_dtype": "float32"}}, {"name": "unknown_76", "shape": [480], "dtype": "float32", "quantization": {"dtype": "float16", "original_dtype": "float32"}}, {"name": "unknown_81", "shape": [1, 1, 480, 80], "dtype": "float32", "quantization": {"dtype": "float16", "original_dtype": "float32"}}, {"name": "unknown_72", "shape": [80], "dtype": "float32", "quantization": {"dtype": "float16", "original_dtype": "float32"}}, {"name": "PartitionedCall/model_9/tf.math.reduce_mean_6/Mean/reduction_indices", "shape": [2], "dtype": "int32"}, {"name": "unknown_67", "shape": [1, 1, 480, 20], "dtype": "float32", "quantization": {"dtype": "float16", "original_dtype": "float32"}}, {"name": "unknown_68", "shape": [20], "dtype": "float32", "quantization": {"dtype": "float16", "original_dtype": "float32"}}, {"name": "unknown_69", "shape": [1, 1, 20, 480], "dtype": "float32", "quantization": {"dtype": "float16", "original_dtype": "float32"}}, {"name": "unknown_70", "shape": [480], "dtype": "float32", "quantization": {"dtype": "float16", "original_dtype": "float32"}}, {"name": "unknown_63", "shape": [1, 1, 80, 480], "dtype": "float32", "quantization": {"dtype": "float16", "original_dtype": "float32"}}, {"name": "unknown_64", "shape": [480], "dtype": "float32", "quantization": {"dtype": "float16", "original_dtype": "float32"}}, {"name": "unknown_65", "shape": [3, 3, 480, 1], "dtype": "float32", "quantization": {"dtype": "float16", "original_dtype": "float32"}}, {"name": "unknown_66", "shape": [480], "dtype": "float32", "quantization": {"dtype": "float16", "original_dtype": "float32"}}, {"name": "unknown_71", "shape": [1, 1, 480, 80], "dtype": "float32", "quantization": {"dtype": "float16", "original_dtype": "float32"}}, {"name": "PartitionedCall/model_9/tf.math.reduce_mean_5/Mean/reduction_indices", "shape": [2], "dtype": "int32"}, {"name": "unknown_57", "shape": [1, 1, 240, 10], "dtype": "float32", "quantization": {"dtype": "float16", "original_dtype": "float32"}}, {"name": "unknown_58", "shape": [10], "dtype": "float32", "quantization": {"dtype": "float16", "original_dtype": "float32"}}, {"name": "unknown_59", "shape": [1, 1, 10, 240], "dtype": "float32", "quantization": {"dtype": "float16", "original_dtype": "float32"}}, {"name": "unknown_60", "shape": [240], "dtype": "float32", "quantization": {"dtype": "float16", "original_dtype": "float32"}}, {"name": "unknown_51", "shape": [40], "dtype": "float32", "quantization": {"dtype": "float16", "original_dtype": "float32"}}, {"name": "PartitionedCall/model_9/tf.math.reduce_mean_4/Mean/reduction_indices", "shape": [2], "dtype": "int32"}, {"name": "unknown_46", "shape": [1, 1, 240, 10], "dtype": "float32", "quantization": {"dtype": "float16", "original_dtype": "float32"}}, {"name": "unknown_47", "shape": [10], "dtype": "float32", "quantization": {"dtype": "float16", "original_dtype": "float32"}}, {"name": "unknown_48", "shape": [1, 1, 10, 240], "dtype": "float32", "quantization": {"dtype": "float16", "original_dtype": "float32"}}, {"name": "unknown_49", "shape": [240], "dtype": "float32", "quantization": {"dtype": "float16", "original_dtype": "float32"}}, {"name": "unknown_42", "shape": [1, 1, 40, 240], "dtype": "float32", "quantization": {"dtype": "float16", "original_dtype": "float32"}}, {"name": "unknown_43", "shape": [240], "dtype": "float32", "quantization": {"dtype": "float16", "original_dtype": "float32"}}, {"name": "unknown_44", "shape": [5, 5, 240, 1], "dtype": "float32", "quantization": {"dtype": "float16", "original_dtype": "float32"}}, {"name": "unknown_45", "shape": [240], "dtype": "float32", "quantization": {"dtype": "float16", "original_dtype": "float32"}}, {"name": "unknown_50", "shape": [1, 1, 240, 40], "dtype": "float32", "quantization": {"dtype": "float16", "original_dtype": "float32"}}, {"name": "PartitionedCall/model_9/tf.math.reduce_mean_3/Mean/reduction_indices", "shape": [2], "dtype": "int32"}, {"name": "unknown_36", "shape": [1, 1, 144, 6], "dtype": "float32", "quantization": {"dtype": "float16", "original_dtype": "float32"}}, {"name": "unknown_37", "shape": [6], "dtype": "float32", "quantization": {"dtype": "float16", "original_dtype": "float32"}}, {"name": "unknown_38", "shape": [1, 1, 6, 144], "dtype": "float32", "quantization": {"dtype": "float16", "original_dtype": "float32"}}, {"name": "unknown_39", "shape": [144], "dtype": "float32", "quantization": {"dtype": "float16", "original_dtype": "float32"}}, {"name": "unknown_30", "shape": [24], "dtype": "float32", "quantization": {"dtype": "float16", "original_dtype": "float32"}}, {"name": "PartitionedCall/model_9/tf.math.reduce_mean_2/Mean/reduction_indices", "shape": [2], "dtype": "int32"}, {"name": "unknown_25", "shape": [1, 1, 144, 6], "dtype": "float32", "quantization": {"dtype": "float16", "original_dtype": "float32"}}, {"name": "unknown_26", "shape": [6], "dtype": "float32", "quantization": {"dtype": "float16", "original_dtype": "float32"}}, {"name": "unknown_27", "shape": [1, 1, 6, 144], "dtype": "float32", "quantization": {"dtype": "float16", "original_dtype": "float32"}}, {"name": "unknown_28", "shape": [144], "dtype": "float32", "quantization": {"dtype": "float16", "original_dtype": "float32"}}, {"name": "unknown_21", "shape": [1, 1, 24, 144], "dtype": "float32", "quantization": {"dtype": "float16", "original_dtype": "float32"}}, {"name": "unknown_22", "shape": [144], "dtype": "float32", "quantization": {"dtype": "float16", "original_dtype": "float32"}}, {"name": "unknown_23", "shape": [3, 3, 144, 1], "dtype": "float32", "quantization": {"dtype": "float16", "original_dtype": "float32"}}, {"name": "unknown_24", "shape": [144], "dtype": "float32", "quantization": {"dtype": "float16", "original_dtype": "float32"}}, {"name": "unknown_29", "shape": [1, 1, 144, 24], "dtype": "float32", "quantization": {"dtype": "float16", "original_dtype": "float32"}}, {"name": "PartitionedCall/model_9/tf.math.reduce_mean_1/Mean/reduction_indices", "shape": [2], "dtype": "int32"}, {"name": "unknown_15", "shape": [1, 1, 96, 4], "dtype": "float32", "quantization": {"dtype": "float16", "original_dtype": "float32"}}, {"name": "unknown_16", "shape": [4], "dtype": "float32", "quantization": {"dtype": "float16", "original_dtype": "float32"}}, {"name": "unknown_17", "shape": [1, 1, 4, 96], "dtype": "float32", "quantization": {"dtype": "float16", "original_dtype": "float32"}}, {"name": "unknown_18", "shape": [96], "dtype": "float32", "quantization": {"dtype": "float16", "original_dtype": "float32"}}, {"name": "PartitionedCall/model_9/tf.math.reduce_mean/Mean/reduction_indices", "shape": [2], "dtype": "int32"}, {"name": "unknown_4", "shape": [1, 1, 32, 8], "dtype": "float32", "quantization": {"dtype": "float16", "original_dtype": "float32"}}, {"name": "unknown_5", "shape": [8], "dtype": "float32", "quantization": {"dtype": "float16", "original_dtype": "float32"}}, {"name": "unknown_6", "shape": [1, 1, 8, 32], "dtype": "float32", "quantization": {"dtype": "float16", "original_dtype": "float32"}}, {"name": "unknown_7", "shape": [32], "dtype": "float32", "quantization": {"dtype": "float16", "original_dtype": "float32"}}, {"name": "PartitionedCall/model_9/tf.concat_5/concat/axis", "shape": [], "dtype": "int32"}, {"name": "unknown", "shape": [4, 2], "dtype": "int32"}, {"name": "unknown_0", "shape": [3, 3, 3, 32], "dtype": "float32", "quantization": {"dtype": "float16", "original_dtype": "float32"}}, {"name": "unknown_1", "shape": [32], "dtype": "float32", "quantization": {"dtype": "float16", "original_dtype": "float32"}}, {"name": "unknown_2", "shape": [3, 3, 32, 1], "dtype": "float32", "quantization": {"dtype": "float16", "original_dtype": "float32"}}, {"name": "unknown_3", "shape": [32], "dtype": "float32", "quantization": {"dtype": "float16", "original_dtype": "float32"}}, {"name": "unknown_8", "shape": [1, 1, 32, 16], "dtype": "float32", "quantization": {"dtype": "float16", "original_dtype": "float32"}}, {"name": "unknown_9", "shape": [16], "dtype": "float32", "quantization": {"dtype": "float16", "original_dtype": "float32"}}, {"name": "unknown_10", "shape": [1, 1, 16, 96], "dtype": "float32", "quantization": {"dtype": "float16", "original_dtype": "float32"}}, {"name": "unknown_11", "shape": [96], "dtype": "float32", "quantization": {"dtype": "float16", "original_dtype": "float32"}}, {"name": "unknown_12", "shape": [4, 2], "dtype": "int32"}, {"name": "unknown_13", "shape": [3, 3, 96, 1], "dtype": "float32", "quantization": {"dtype": "float16", "original_dtype": "float32"}}, {"name": "unknown_14", "shape": [96], "dtype": "float32", "quantization": {"dtype": "float16", "original_dtype": "float32"}}, {"name": "unknown_19", "shape": [1, 1, 96, 24], "dtype": "float32", "quantization": {"dtype": "float16", "original_dtype": "float32"}}, {"name": "unknown_20", "shape": [24], "dtype": "float32", "quantization": {"dtype": "float16", "original_dtype": "float32"}}, {"name": "unknown_31", "shape": [1, 1, 24, 144], "dtype": "float32", "quantization": {"dtype": "float16", "original_dtype": "float32"}}, {"name": "unknown_32", "shape": [144], "dtype": "float32", "quantization": {"dtype": "float16", "original_dtype": "float32"}}, {"name": "unknown_33", "shape": [4, 2], "dtype": "int32"}, {"name": "unknown_34", "shape": [5, 5, 144, 1], "dtype": "float32", "quantization": {"dtype": "float16", "original_dtype": "float32"}}, {"name": "unknown_35", "shape": [144], "dtype": "float32", "quantization": {"dtype": "float16", "original_dtype": "float32"}}, {"name": "unknown_40", "shape": [1, 1, 144, 40], "dtype": "float32", "quantization": {"dtype": "float16", "original_dtype": "float32"}}, {"name": "unknown_41", "shape": [40], "dtype": "float32", "quantization": {"dtype": "float16", "original_dtype": "float32"}}, {"name": "unknown_52", "shape": [1, 1, 40, 240], "dtype": "float32", "quantization": {"dtype": "float16", "original_dtype": "float32"}}, {"name": "unknown_53", "shape": [240], "dtype": "float32", "quantization": {"dtype": "float16", "original_dtype": "float32"}}, {"name": "unknown_54", "shape": [4, 2], "dtype": "int32"}, {"name": "unknown_55", "shape": [3, 3, 240, 1], "dtype": "float32", "quantization": {"dtype": "float16", "original_dtype": "float32"}}, {"name": "unknown_56", "shape": [240], "dtype": "float32", "quantization": {"dtype": "float16", "original_dtype": "float32"}}, {"name": "unknown_61", "shape": [1, 1, 240, 80], "dtype": "float32", "quantization": {"dtype": "float16", "original_dtype": "float32"}}, {"name": "unknown_62", "shape": [80], "dtype": "float32", "quantization": {"dtype": "float16", "original_dtype": "float32"}}, {"name": "unknown_83", "shape": [1, 1, 80, 480], "dtype": "float32", "quantization": {"dtype": "float16", "original_dtype": "float32"}}, {"name": "unknown_84", "shape": [480], "dtype": "float32", "quantization": {"dtype": "float16", "original_dtype": "float32"}}, {"name": "unknown_85", "shape": [5, 5, 480, 1], "dtype": "float32", "quantization": {"dtype": "float16", "original_dtype": "float32"}}, {"name": "unknown_86", "shape": [480], "dtype": "float32", "quantization": {"dtype": "float16", "original_dtype": "float32"}}, {"name": "unknown_91", "shape": [1, 1, 480, 112], "dtype": "float32", "quantization": {"dtype": "float16", "original_dtype": "float32"}}, {"name": "unknown_92", "shape": [112], "dtype": "float32", "quantization": {"dtype": "float16", "original_dtype": "float32"}}, {"name": "unknown_113", "shape": [1, 1, 112, 672], "dtype": "float32", "quantization": {"dtype": "float16", "original_dtype": "float32"}}, {"name": "unknown_114", "shape": [672], "dtype": "float32", "quantization": {"dtype": "float16", "original_dtype": "float32"}}, {"name": "unknown_115", "shape": [4, 2], "dtype": "int32"}, {"name": "unknown_116", "shape": [5, 5, 672, 1], "dtype": "float32", "quantization": {"dtype": "float16", "original_dtype": "float32"}}, {"name": "unknown_117", "shape": [672], "dtype": "float32", "quantization": {"dtype": "float16", "original_dtype": "float32"}}, {"name": "unknown_122", "shape": [1, 1, 672, 192], "dtype": "float32", "quantization": {"dtype": "float16", "original_dtype": "float32"}}, {"name": "unknown_123", "shape": [192], "dtype": "float32", "quantization": {"dtype": "float16", "original_dtype": "float32"}}, {"name": "unknown_165", "shape": [1, 1, 192, 1152], "dtype": "float32", "quantization": {"dtype": "float16", "original_dtype": "float32"}}, {"name": "unknown_168", "shape": [1152], "dtype": "float32", "quantization": {"dtype": "float16", "original_dtype": "float32"}}, {"name": "unknown_174", "shape": [3, 3, 1152, 1], "dtype": "float32", "quantization": {"dtype": "float16", "original_dtype": "float32"}}, {"name": "unknown_176", "shape": [1152], "dtype": "float32", "quantization": {"dtype": "float16", "original_dtype": "float32"}}, {"name": "unknown_204", "shape": [1, 1, 1152, 320], "dtype": "float32", "quantization": {"dtype": "float16", "original_dtype": "float32"}}, {"name": "unknown_207", "shape": [320], "dtype": "float32", "quantization": {"dtype": "float16", "original_dtype": "float32"}}, {"name": "unknown_211", "shape": [4], "dtype": "int32"}, {"name": "unknown_212", "shape": [4], "dtype": "int32"}, {"name": "PartitionedCall/model_9/tf.strided_slice_9/ones_like", "shape": [4], "dtype": "int32"}, {"name": "PartitionedCall/model_9/tf.concat_13/concat/axis", "shape": [], "dtype": "int32"}, {"name": "unknown_214", "shape": [3, 3, 640, 320], "dtype": "float32", "quantization": {"dtype": "float16", "original_dtype": "float32"}}, {"name": "unknown_216", "shape": [320], "dtype": "float32", "quantization": {"dtype": "float16", "original_dtype": "float32"}}, {"name": "unknown_219", "shape": [1, 1, 320, 320], "dtype": "float32", "quantization": {"dtype": "float16", "original_dtype": "float32"}}, {"name": "unknown_221", "shape": [320], "dtype": "float32", "quantization": {"dtype": "float16", "original_dtype": "float32"}}, {"name": "PartitionedCall/model_9/tf.concat_14/concat/axis", "shape": [], "dtype": "int32"}, {"name": "unknown_222", "shape": [1, 1, 640, 320], "dtype": "float32", "quantization": {"dtype": "float16", "original_dtype": "float32"}}, {"name": "unknown_223", "shape": [320], "dtype": "float32", "quantization": {"dtype": "float16", "original_dtype": "float32"}}, {"name": "PartitionedCall/model_9/tf.compat.v1.transpose_1/transpose/perm", "shape": [4], "dtype": "int32"}, {"name": "PartitionedCall/model_9/tf.reshape_1/Reshape/shape", "shape": [2], "dtype": "int32"}, {"name": "PartitionedCall/model_9/tf.concat_17/concat/axis", "shape": [], "dtype": "int32"}, {"name": "unknown_224", "shape": [640, 128], "dtype": "float32", "quantization": {"dtype": "float16", "original_dtype": "float32"}}, {"name": "unknown_227", "shape": [128], "dtype": "float32", "quantization": {"dtype": "float16", "original_dtype": "float32"}}, {"name": "unknown_230", "shape": [128, 14739], "dtype": "float32", "quantization": {"dtype": "float16", "original_dtype": "float32"}}, {"name": "PartitionedCall/model_9/3D_LUT/Reshape/shape", "shape": [5], "dtype": "int32"}]}]}